cp/Platform_psac3_dl10_d100_20000_May_30_2020_09_19_57_policy.pt (torch_old, 147883 bytes, 18 tensors)

net.0.weight f4 [128, 9]
-0.5564748 0.5977002 0.014541092 0.018124675 -0.06392577 0.069962084 -0.23617764 0.18901615
0.002203627 0.5193015 0.488826 0.052882582 0.02510002 0.29229236 0.07268878 -0.24700883
-0.2856097 -0.19900177 -0.12573513 -0.16218583 -0.029486476 0.092785545 0.13940932 -0.05874206
-0.0005789387 -0.25301936 -0.31411675 0.105067976 -0.10306372 -0.5943149 -0.04907961 0.30209145
-0.13877194 -0.17825578 0.16496895 -0.23617755 -0.5075184 0.10541411 0.07835973 -0.019417267
0.30754963 0.017392246 -0.06607005 0.09805002 -0.08590366 -0.61750597 0.04237629 -0.27773672
0.10265894 -0.22784044 -0.011590254 0.005316624 0.25189564 -0.3507122 0.37872323 -0.36813658
-0.42439076 -0.12334232 0.2195935 -0.038307782 0.013429525 -0.22830874 0.1907498 -0.3252297
-0.21532458 0.57033116 0.12201631 0.30639955 -0.13677841 0.35485446 0.1905501 -0.43376142
0.63300735 -0.10699055 -0.20292227 0.048152603 0.16849406 0.37810892 0.123500705 -0.08126693
0.04636806 -0.11501065 -0.15498658 -0.65590465 -0.17669538 -0.18373011 0.0021736878 0.03370586
-0.02759683 0.113156 -0.42672792 -0.095231295 0.36170867 -0.14423573 0.1768689 0.35461062
0.36639634 -0.017401515 0.19740136 0.14545543 -0.5756463 -0.41249186 -0.34348473 0.033461846
0.3437649 -0.2508583 0.15168844 0.26238626 0.8278548 -0.05257225 -0.21451956 -0.04831013
-0.12731314 0.15465179 -0.2045515 -0.099330336 -0.22842851 0.26964688 0.100119226 0.19272245
0.003958013 0.18165094 0.31741586 -0.010623976 0.17298801 -0.13370955 0.75965893 -0.24418952
-0.024038048 0.08146895 0.04050059 0.24163347 0.15589051 -0.50449806 0.0818527 0.1989964
-0.21283194 -0.34492043 -0.031218711 0.46514335 -0.10805494 -0.05306551 -0.15211117 -0.36303055
-0.23544721 -0.15061978 0.22377366 0.20030339 -0.0019801108 0.23706357 0.37859225 -0.33709678
-0.014618644 0.3123262 -0.06418268 -0.63892317 -0.18599227 0.001231088 -0.083330914 -0.037314095
-0.17598523 -0.23301348 0.14716402 -0.272302 0.4252654 -0.33811194 -0.29931933 -0.081305124
0.058608443 -0.51940614 -0.07704615 0.5277746 -0.41712132 -0.3176739 -0.008425974 0.30200177
0.25979033 0.066629045 -0.23885967 0.15304881 0.26047847 0.5973241 -0.07443159 -0.26819167
0.20554289 -0.05981392 0.12903193 0.00917958 -0.3826932 0.45013925 0.42190173 0.040945124
-0.0988544 0.18566962 0.22895893 0.36959094 0.082986906 -0.19409935 0.71167266 0.035115745
-0.37252527 0.07716715 0.41018045 0.37490207 -0.1771215 -0.10472581 -0.03733802 -0.3860764
-0.24252112 -0.44778165 0.023482522 -0.025857983 0.08831731 0.0034508712 0.19536503 -0.08496418
-0.105390176 -0.106022075 0.4835027 0.13015929 0.22355199 0.24703999 0.33084098 -0.3073559
-0.06927139 -0.12210035 -0.09471145 -0.10798144 -0.0509779 0.11068727 0.17515235 0.11340464
-0.0012674652 -0.534204 -0.61661035 0.026177283 -0.41685078 0.10482492 -0.03840069 -0.23015559
0.2836993 -0.19501494 0.12106197 -0.53528756 0.11773169 -0.25296032 0.09495237 -0.09067543
-0.08649473 -0.23862113 -0.17651114 -0.22089826 0.19348143 0.4309243 0.040249363 -0.2830801
00000000: 2275 0ebf e102 193f c33d 6e3c 337a 943c
00000010: 84eb 82bd 4848 8f3d 8dd8 71be 738d 413e
00000020: ba6a 103b f1f0 043f 6747 fa3e 689b 583d
00000030: 8f9e cd3c 58a7 953e dbdd 943d e2ef 7cbe
00000040: 6f3b 92be 1fc7 4bbe b6c0 00be 0b14 26be
00000050: 9f8d f1bc 5906 be3d 51c1 0e3e 849b 70bd
00000060: ebc3 17ba c18b 81be e9d3 a0be e12d d73d
00000070: 1213 d3bd 0525 18bf b307 49bd bbab 9a3e
00000080: 3b1a 0ebe af88 36be 9fed 283e 87d8 71be
00000090: baec 01bf 5ae3 d73d 117b a03d f610 9fbc
000000a0: 2577 9d3e 2f7a 8e3c bc4f 87bd 73ce c83d
000000b0: 42ee afbd df14 1ebf c392 2d3d 8233 8ebe
000000c0: da3e d23d 014f 69be 0ce5 3dbc 1337 ae3b
000000d0: 77f8 803e 8d90 b3be 03e8 c13e 667c bcbe
000000e0: bf49 d9be e69a fcbd 1edd 603e 9fe8 1cbd
000000f0: 8307 5c3c c4c9 69be ea53 433e 8284 a6be
00000100: 0c7e 5cbe 3901 123f b0e3 f93d 67e0 9c3e
00000110: a40f 0cbe 7caf b53e 911f 433e fa15 debe
00000120: c50c 223f dd1d dbbd dbca 4fbe aa3b 453d
00000130: b589 2c3e 7e97 c13e f0ed fc3d 476f a6bd
00000140: 6fec 3d3d b48a ebbd cdb4 1ebe 5ee9 27bf
00000150: a2ef 34be bf23 3cbe 6e74 0e3b 280f 0a3d
00000160: bf12 e2bc 55be e73d 157c dabe a008 c3bd
00000170: e131 b93e 88b2 13be 1f1d 353e 868f b53e
00000180: 4d98 bb3e 9f8d 8ebc 9523 4a3e 45f2 143e
00000190: 8e5d 13bf 2232 d3be 3bdd afbe 4a0f 093d
000001a0: f401 b03e 8070 80be 3754 1b3e 7e57 863e
000001b0: 4bee 533f 0056 57bd 04ab 5bbe d8e0 45bd
000001c0: 605e 02be 0a5d 1e3e f375 51be b46d cbbd
000001d0: 2ae9 69be 280f 8a3e 4f0b cd3d 0959 453e
000001e0: 38b2 813b b402 3a3e 5584 a23e 2f10 2ebc
000001f0: c523 313e 28eb 08be 0279 423f d10c 7abe
00000200: 71eb c4bc 31d9 a63d f2e3 253d c46e 773e
00000210: c3a1 1f3e c926 01bf 63a2 a73d b6c5 4b3e
00000220: 9ef0 59be 6999 b0be 62be ffbc 4527 ee3e
00000230: e94b ddbd 385b 59bd 08c3 1bbe 24df b9be
00000240: 1319 71be 123c 1abe ec24 653e 551c 4d3e
00000250: bfc4 01bb cbc0 723e d8d6 c13e f397 acbe
00000260: 0983 6fbc 38e9 9f3e 3572 83bd 7890 23bf
00000270: c274 3ebe 755c a13a 66a9 aabd aad6 18bd
00000280: 7935 34be 169b 6ebe 2ab2 163e 2b6b 8bbe
00000290: 63bc d93e 021d adbe 6240 99be 4d83 a6bd
000002a0: 680f 703d cdf7 04bf 5fca 9dbd 3c1c 073f
000002b0: ed90 d5be 27a6 a2be 190d 0abc fa9f 9a3e
000002c0: 3d03 853e cf74 883d a197 74be d4b8 1c3e
000002d0: 6f5d 853e 3bea 183f 976f 98bd 6b50 89be
000002e0: d679 523e 71ff 74bd f220 043e f365 163c
000002f0: 5df0 c3be a778 e63e 8103 d83e 13b6 273d
00000300: 2d74 cabd 2d20 3e3e 3674 6a3e 063b bd3e
00000310: 0af5 a93d fbc1 46be 2e30 363f 87d5 0f3d
00000320: a2bb bebe d009 9e3d 2c03 d23e 2af3 bf3e
00000330: 575f 35be 7c7a d6bd c0ef 18bd ceab c5be
00000340: 7557 78be a343 e5be 6b5e c03c 1fd4 d3bc
00000350: b5df b43d 0328 623b c50d 483e b301 aebd
00000360: ced6 d7bd 1a22 d9bd aa8d f73e 7a48 053e
00000370: d0ea 643e 0df8 7c3e fd63 a93e c15d 9dbe
00000380: 29de 8dbd c00f fabd 14f8 c1bd 6025 ddbd
00000390: 34ce 50bd 02b0 e23d 235b 333e b140 e83d
000003a0: 1321 a6ba 98c1 08bf 2dda 1dbf be71 d63c
000003b0: 776d d5be 73ae d63d 0b4a 1dbd e8ad 6bbe
000003c0: 0941 913e ffb1 47be 57ef f73d 9b08 09bf
000003d0: 501d f13d 0484 81be 6376 c23d 0ab4 b9bd
000003e0: 2624 b1bd 1959 74be 56bf 34be 2733 62be
000003f0: ff1f 463e 1ca2 dc3e 84dc 243d e0ef 90be

net.0.bias f4 [128]
0.26260546 0.29567203 0.061632447 0.10435049 0.2734864 0.15244351 0.14295611 -0.16700515
0.15694095 0.23970379 -0.11515088 0.33229402 0.2880122 0.2928845 0.038771406 -0.10893132
0.1833447 0.09289944 0.24620089 -0.18701498 0.17215534 0.13960391 0.13655815 0.025193285
-0.22942492 -0.09451394 -0.1051205 -0.02526839 0.33343524 0.29953074 0.12847294 0.31264088
0.093434736 -0.20116553 0.18638279 0.16647655 -0.120518975 -0.20269224 0.3304497 -0.21423817
-0.22058359 -0.13673899 -0.008779656 -0.08381086 0.23206492 -0.07910619 -0.19477837 -0.18450674
-0.20738623 0.29493636 0.21287446 0.18827751 0.009647924 -0.059346493 0.110888034 0.080790415
0.18720995 0.19101214 0.13144001 0.16081943 -0.0037584878 0.13852513 -0.08858556 -0.121919826
-0.18040113 0.05723403 -0.18824066 -0.125761 -0.07885734 0.08916241 -0.17302133 0.06278836
0.03843343 0.16739212 0.11898083 -0.1256897 0.04508801 0.07044874 0.2957776 0.09927234
0.11787448 0.28886822 0.36694682 -0.10597695 0.31393644 0.3464208 -0.139412 0.32102028
0.07948869 -0.1571572 0.24861266 -0.04102282 0.19896786 -0.30490637 0.23785044 0.008548033
0.17910047 -0.040408872 -0.08226402 -0.074579135 0.43720135 0.3362542 0.2546028 -0.07508594
-0.32531768 0.035637964 0.010452608 -0.09512814 -0.20467311 0.07925362 -0.035292957 0.32339558
-0.15053207 -0.17079136 0.19605933 -0.071621366 0.26314148 0.46028227 -0.07781176 -0.18228607
0.084543124 0.049030196 -0.07038645 0.21818721 -0.043013174 -0.08770993 -0.08157884 0.14384088
00000000: 3974 863e 5362 973e 4e72 7c3d b6b5 d53d
00000010: 6906 8c3e 271a 1c3e 1663 123e 6603 2bbe
00000020: 21b5 203e e974 753e 39d4 ebbd 7122 aa3e
00000030: 5676 933e f5f4 953e c4ce 1e3d 6217 dfbd
00000040: b7be 3b3e 1042 be3d 161c 7c3e db80 3fbe
00000050: 7d49 303e 54f4 0e3e e6d5 0b3e 2662 ce3c
00000060: 5eee 6abe 8690 c1bd 6b49 d7bd a8ff cebc
00000070: 06b8 aa3e 185c 993e 698e 033e 7712 a03e
00000080: b65a bf3d 56fe 4dbe 21db 3e3e d478 2a3e
00000090: a7d2 f6bd 8e8e 4fbe b430 a93e 4061 5bbe
000000a0: aae0 61be 4e05 0cbe 8cd8 0fbc 07a5 abbd
000000b0: 6da2 6d3e 6d02 a2bd fb73 47be 56ef 3cbe
000000c0: 0e5d 54be e601 973e c3fb 593e d2cb 403e
000000d0: 5412 1e3c 4f15 73bd 4419 e33d 7275 a53d
000000e0: f7b3 3f3e b098 433e 3698 063e d9ad 243e
000000f0: f650 76bb 88d9 0d3e 596c b5bd 1ab1 f9bd
00000100: 13bb 38be 3b6e 6a3d 29c2 40be 7ec7 00be
00000110: f57f a1bd c89a b63d 812c 31be 2f97 803d
00000120: 5f6c 1d3d d768 2b3e 39ac f33d cdb4 00be
00000130: 35ae 383d 6e47 903d 2970 973e 4c4f cb3d
00000140: 2d68 f13d 89e6 933e 74e0 bb3e 710a d9bd
00000150: 47bc a03e 115e b13e 05c2 0ebe c55c a43e
00000160: f7ca a23d d1ed 20be 5194 7e3e 8b07 28bd
00000170: 3bbe 4b3e b01c 9cbe 118f 733e 0d0d 0c3c
00000180: 1d66 373e c683 25bd 0a7a a8bd f2bc 98bd
00000190: dbd8 df3e 8329 ac3e 4c5b 823e a8c6 99bd
000001a0: 0a90 a6be 1df9 113d 6a41 2b3c 8bd2 c2bd
000001b0: d495 51be b94f a23d 598f 10bd 1b94 a53e
000001c0: 1425 1abe eee3 2ebe c7c3 483e 39ae 92bd
000001d0: 7bba 863e 1eaa eb3e c65b 9fbd 33a9 3abe
000001e0: f224 ad3d e3d3 483d c526 90bd 786c 5f3e
000001f0: 952e 30bd 44a1 b3bd cf12 a7bd 064b 133e

net.1.weight f4 [128]
1.3913845 1.0259752 0.5592391 0.69395894 0.71607566 1.0370412 1.1399567 1.5498177
1.1801368 0.958583 0.9408604 1.0712533 1.4816387 0.830837 1.6474841 0.52649814
0.3882153 1.0293456 1.2337286 0.8375406 0.9903546 0.74885416 1.2924937 0.8212738
0.94321364 0.40873343 0.8821857 0.96316695 0.87990093 0.18729767 1.0228189 0.73361546
1.0355103 1.7395208 1.7939689 0.48617032 0.96390325 1.3794773 2.1936262 0.8496225
0.57523286 0.45414183 0.58076155 0.71254814 1.4102595 1.1928754 1.1080152 1.0369636
1.0749706 0.8214065 0.5412931 0.81999415 0.84515333 0.63717645 0.85553324 0.6904888
1.8201728 1.0727594 0.42060497 1.0388838 0.4169354 0.8217048 0.42165214 0.45148185
1.3529845 0.5293355 1.0323296 1.0513873 0.89660895 0.36456 0.83459675 0.8815673
0.9901839 1.2085745 1.211182 1.0800143 0.31432372 1.0566763 0.4617883 1.3009092
0.29115137 0.66332084 1.2349854 0.45081282 0.63764286 0.58988935 0.8970341 0.6396731
0.8899199 1.3228035 1.0426587 1.0479962 0.42344943 1.4721807 1.1323297 1.2999628
1.8863056 0.8953725 0.80759084 0.9152236 0.26141503 0.37645856 0.6572792 1.8120875
0.9233896 0.48725358 0.571298 0.95595133 1.3658063 1.2854325 1.4597393 0.7545278
1.1716629 1.8121871 0.6995584 1.3805094 1.358104 1.0449096 1.0745295 0.7836773
1.1001241 0.9128371 0.9774406 0.31678513 0.7096188 1.0278792 1.7093903 0.9456015
00000000: e318 b23f 2853 833f 4b2a 0f3f 4ba7 313f
00000010: bc50 373f c4bd 843f 1aea 913f 6d60 c63f
00000020: b90e 973f b265 753f 3adc 703f d41e 893f
00000030: 56a6 bd3f bcb1 543f c2e0 d23f 95c8 063f
00000040: 28c4 c63e 99c1 833f d2ea 9d3f 1069 563f
00000050: e187 7d3f e8b4 3f3f 6f70 a53f 003f 523f
00000060: 7376 713f 8245 d13e ecd6 613f 1c92 763f
00000070: 3041 613f f6ca 3f3e bbeb 823f 39ce 3b3f
00000080: 9a8b 843f 9ea8 de3f c6a0 e53f 51eb f83e
00000090: 5dc2 763f b692 b03f 5f64 0c40 dc80 593f
000000a0: 7642 133f 4785 e83e caac 143f 8e69 363f
000000b0: 6283 b43f 24b0 983f 71d3 8d3f 39bb 843f
000000c0: a398 893f b247 523f 2f92 0a3f 23eb 513f
000000d0: f85b 583f ff1d 233f 3a04 5b3f e0c3 303f
000000e0: 6cfb e83f 2e50 893f 8959 d73e 25fa 843f
000000f0: 8f78 d53e 3f5b 523f cae2 d73e a128 e73e
00000100: 992e ad3f 8882 073f 6023 843f dc93 863f
00000110: 2a88 653f 9ca7 ba3e 22a8 553f 65ae 613f
00000120: b17c 7d3f 92b2 9a3f 0308 9b3f e93d 8a3f
00000130: 0aef a03e 2b41 873f 846f ec3e 3184 a63f
00000140: cb11 953e 65cf 293f 0014 9e3f f0d0 e63e
00000150: 903c 233f fd02 173f 07a4 653f 9ec1 233f
00000160: cad1 633f a051 a93f d775 853f bd24 863f
00000170: 5dce d83e 6b70 bc3f 2ef0 903f 2e65 a63f
00000180: 7672 f13f 2237 653f 46be 4e3f 184c 6a3f
00000190: 31d8 853e 2dbf c03e 7343 283f 7cf2 e73f
000001a0: 4363 6c3f 4d79 f93e 9640 123f 3ab9 743f
000001b0: bed2 ae3f 0d89 a43f bdd8 ba3f bc28 413f
000001c0: 0df9 953f bff5 e73f 4216 333f 88b4 b03f
000001d0: 5ad6 ad3f 99bf 853f 2f8a 893f 139f 483f
000001e0: ded0 8c3f b1af 693f 8c39 7a3f a931 a23e
000001f0: 94a9 353f 8c91 833f 4dcd da3f f112 723f

net.1.bias f4 [128]
0.057229523 -0.13011919 -0.5405254 -0.27587906 -0.20003404 -0.064389355 0.03916824 -0.076624624
-0.11395609 -0.21746138 0.014308245 -0.093403794 -0.15380172 -0.3391464 0.034715656 -0.44095448
-0.56204945 -0.017978441 -0.1791742 -0.21222377 -0.04036221 -0.20096374 -0.049693298 -0.17506167
-0.18481658 -0.4341323 -0.19945945 -0.09485788 -0.11209481 -0.69004667 -0.19267207 -0.31872365
-0.077355035 0.0026327593 -0.023070114 -0.42425 -0.16208726 0.037547935 -0.000106968386 -0.20536877
-0.2465961 -0.43763015 -0.30799204 -0.36805496 -0.017155355 0.072699375 -0.19331105 -0.12778981
-0.08521581 -0.3424401 -0.32302696 -0.24870016 -0.27858135 -0.23480065 -0.09553382 -0.39053172
0.06821105 -0.25693664 -0.5685804 -0.08213403 -0.4180876 -0.23504624 -0.5562364 -0.48879424
-0.09599981 -0.38190526 -0.08815733 -0.012345917 -0.1994677 -0.6136997 -0.15426788 -0.17317106
-0.084269494 -0.034515094 -0.08488125 0.048852243 -0.6191632 -0.06546522 -0.43077514 -0.08693349
-0.6573479 -0.30992553 -0.12801774 -0.3930946 -0.29168674 -0.33500853 -0.36518848 -0.35258043
-0.047064602 -0.21178815 -0.098456845 -0.03511349 -0.5368741 0.014695819 0.08020081 -0.09037101
-0.027684381 -0.21239656 -0.4107041 -0.046078432 -0.68036336 -0.5227142 -0.30872247 0.023407612
-0.25185978 -0.39562464 -0.59921074 -0.04469671 -0.016299793 -0.11558981 -0.03428379 -0.34622514
-0.106237836 -0.0027799574 -0.24274628 0.083397 -0.026753355 -0.15442623 -0.08849268 -0.040845547
-0.10261367 -0.18669686 -0.05623702 -0.58521646 -0.2926295 -0.09549859 0.07067336 0.036805872
00000000: 8169 6a3d f73d 05be df5f 0abf 0540 8dbe
00000010: b9d5 4cbe 91de 83bd e06e 203d 5fed 9cbd
00000020: cf61 e9bd 32ae 5ebe 216d 6a3c 7d4a bfbd
00000030: 337e 1dbe 99a4 adbe 0132 0e3d c9c4 e1be
00000040: 79e2 0fbf 8647 93bc 7179 37be 3051 59be
00000050: d852 25bd 70c9 4dbe 338b 4bbd 5e43 33be
00000060: 8f40 3dbe 9746 debe 193f 4cbe d944 c2bd
00000070: f791 e5bd e6a6 30bf d44b 45be bf2f a3be
00000080: 516c 9ebd 5f8a 2c3b 89fd bcbc 4c37 d9be
00000090: 34fa 25be ddcb 193d 3754 e0b8 314c 52be
000000a0: b083 7cbe 0f11 e0be 22b1 9dbe b371 bcbe
000000b0: 6389 8cbc 69e3 943d 55f3 45be 55db 02be
000000c0: a085 aebd 4f54 afbe ca63 a5be 41ab 7ebe
000000d0: 37a2 8ebe 956f 70be 3ca7 c3bd c6f3 c7be
000000e0: 3cb2 8b3d 338d 83be 7c8e 11bf e335 a8bd
000000f0: 940f d6be f6af 70be 8265 0ebf 3d43 fabe
00000100: 8c9b c4bd 1689 c3be d58b b4bd 8746 4abc
00000110: 4341 4cbe 6c1b 1dbf 66f8 1dbe c153 31be
00000120: 7c95 acbd b35f 0dbd 39d6 adbd 4a19 483d
00000130: 7b81 1ebf a112 86bd 8f8e dcbe 300a b2bd
00000140: f447 28bf 8fae 9ebe 1517 03be b243 c9be
00000150: f757 95be 3d86 abbe fcf9 babe 6c85 b4be
00000160: d0c6 40bd fede 58be bea3 c9bd 2ad3 0fbd
00000170: 9570 09bf bbc6 703c 5340 a43d 7014 b9bd
00000180: 5bca e2bc 7c7e 59be cf47 d2be bdbc 3cbd
00000190: 4b2c 2ebf 99d0 05bf df10 9ebe 52c1 bf3c
000001a0: c4f3 80be 508f cabe e065 19bf e613 37bd
000001b0: 2587 85bc 5aba ecbd 296d 0cbd 6c44 b1be
000001c0: 3993 d9bd f22f 36bb 7b92 78be 0ccc aa3d
000001d0: da29 dbbc e921 1ebe a63b b5bd a94d 27bd
000001e0: 1e27 d2bd 762d 3fbe ca58 66bd bfd0 15bf
000001f0: 89d3 95be c494 c3bd 32bd 903d c1c1 163d

net.3.weight f4 [128, 128]
-0.44307104 0.050560117 0.0026482649 0.029117621 0.24522373 -0.068993464 0.04607731 -0.48616615
0.051797424 0.18182759 -0.0033936033 0.19642802 0.18682563 -0.30667612 0.15051861 0.107602835
0.16280736 0.07798321 0.08309006 0.15412144 -0.1463343 -0.21498252 0.3885099 0.21016453
0.06716306 -0.22083622 0.12482683 0.13958675 -0.085475475 0.30884832 0.114034474 0.04889712
-0.24689116 -0.16788292 0.37955412 -0.060111854 0.33124492 0.30146298 0.5453127 0.32852852
0.18159886 0.24202336 0.05834779 0.0897933 -0.057022844 0.11377924 0.27997681 -0.025892116
0.3088319 0.14103071 0.24487802 -0.035681535 -0.22209892 -0.17502505 0.022687355 0.13094722
-0.097086824 -0.311705 0.14018452 0.25068033 0.19979724 0.17815222 -0.02914389 0.14368261
0.026243431 -0.17093615 0.29719678 -0.1360559 0.052992932 -0.00955219 0.24917641 -0.004646133
-0.2285799 0.020175315 -0.05111229 -0.08330873 -0.029939815 -0.02107968 -0.046388585 0.010709741
0.1978983 -0.119885884 -0.077043936 0.0918167 0.054317936 0.17285432 -0.2490309 0.052828312
0.036599446 -0.29419482 -0.14153442 0.08770478 0.08302457 -0.113258265 -0.005537551 0.23803647
0.18448077 0.0995576 0.106378675 0.19103825 0.3785872 0.07966366 0.14914365 0.21418029
-0.18023062 0.1176181 0.13239682 0.09763785 -0.75029373 0.1761911 -0.2535046 0.02488448
0.1515168 0.51563394 0.1775095 -0.6450774 0.18306749 -0.3953333 -0.47695452 0.0028726868
0.41190186 -0.08506255 -0.010415612 0.05647843 -0.029327195 -0.22624458 0.62808806 -0.14513318
0.37305623 0.063358724 -0.069121525 -0.14173058 0.054370712 0.17789885 -0.22881506 0.05102444
0.13911878 -0.3020614 0.23325051 -0.18262471 0.37059727 0.41751492 0.48616454 0.33114952
0.079875596 -0.29929596 0.3151641 0.0834262 0.068721816 0.09867957 -0.39335653 -0.25755993
-0.06500504 0.0714583 0.0031830263 0.052918613 0.14183871 0.16180083 -0.19228783 0.19522005
0.28345206 0.22066961 0.06546941 -0.057918347 0.07580449 0.28148648 -0.31438705 0.0138538275
0.076019734 0.10802826 0.071536176 0.18855646 -0.06492957 0.2146672 0.13272335 0.23250584
0.4317646 0.034104988 0.11204842 0.1711305 0.22638339 0.18342865 0.20280528 0.079517
0.36834708 0.08452388 0.11588227 0.21090417 0.17534254 0.03906517 0.021790233 0.12661803
0.15650488 -0.10388383 -0.07279269 0.22880213 0.26202965 0.02976546 0.05525197 0.22137246
0.35665825 -0.05421017 0.19545104 0.52684397 0.19985653 0.1120711 -0.10601223 0.46233287
0.19882572 0.32163775 -0.3963783 0.14093712 0.09225928 -0.08060261 0.032218065 0.26859924
0.17906056 -0.17408569 0.16861819 0.30115974 -0.009834717 0.18739215 0.09237169 -0.11439868
0.4667948 -0.053949427 0.32350045 0.3131843 0.076155916 0.053018294 -0.15735887 -0.59518784
0.29891548 0.18998644 0.13724923 0.28564143 -0.06631952 -0.6849356 0.24862042 0.11034611
-0.25750038 0.2249988 -0.053474687 -0.4106956 0.019667843 0.15928087 0.06639817 0.10888299
-0.027296502 0.04688654 0.24187712 0.060898844 0.15798804 0.12083728 0.14755073 -0.08029648
00000000: 35da e2be 2018 4f3d 838e 2d3b 1488 ee3c
00000010: ee1b 7b3e 724c 8dbd 90bb 3c3d c5ea f8be
00000020: 8929 543d 0331 3a3e 3767 5ebb 6d24 493e
00000030: 384f 3f3e a704 9dbe 8d21 1a3e e05e dc3d
00000040: f9b6 263e a9b5 9f3d 1f2b aa3d 03d2 1d3e
00000050: a9d8 15be 6124 5cbe c5ea c63e 5f35 573e
00000060: c98c 893d e422 62be 36a5 ff3d d4ef 0e3e
00000070: c40d afbd 5e21 9e3e e88a e93d 5948 483d
00000080: 09d1 7cbe 80e9 2bbe eb54 c23e d937 76bd
00000090: ef98 a93e 5b59 9a3e 9d99 0b3f e434 a83e
000000a0: 0df5 393e f9d4 773e 18fe 6e3d 8de5 b73d
000000b0: c990 69bd 1705 e93d 1f59 8f3e b41b d4bc
000000c0: 371f 9e3e 5b6a 103e 4ec1 7a3e cd26 12bd
000000d0: e66d 63be c439 33be d5da b93c 0717 063e
000000e0: 75d5 c6bd cc97 9fbe 888c 0f3e 2c59 803e
000000f0: a697 4c3e 896d 363e 2bbf eebc 8921 133e
00000100: 77fc d63c e309 2fbe 2d2a 983e 3d52 0bbe
00000110: 1e0f 593d ca80 1cbc 1a28 7f3e 973e 98bb
00000120: d910 6abe b446 a53c 1f5b 51bd c49d aabd
00000130: 5844 f5bc 4baf acbc f501 3ebd e977 2f3c
00000140: daa5 4a3e bb86 f5bd 36c9 9dbd 650a bc3d
00000150: 7c7c 5e3d b900 313e f501 7fbe 8062 583d
00000160: 4de9 153d b4a0 96be 66ee 10be 909e b33d
00000170: c908 aa3d f3f3 e7bd 5874 b5bb d5bf 733e
00000180: 87e8 3c3e dbe4 cb3d 10dd d93d 889f 433e
00000190: 2ed6 c13e b326 a33d 1db9 183e 1452 5b3e
000001a0: 608e 38be c2e1 f03d 0893 073e 5af6 c73d
000001b0: 4013 40bf 716b 343e 5bcb 81be 89da cb3c
000001c0: 3827 1b3e 9600 043f 0dc5 353e cb23 25bf
000001d0: 0b76 3b3e 2069 cabe 6233 f4be b043 3c3b
000001e0: cde4 d23e 4635 aebd 3ea6 2abc ed55 673d
000001f0: 963f f0bc a9ac 67be 61ca 203f cb9d 14be
00000200: 3a01 bf3e 38c2 813d 968f 8dbd d221 11be
00000210: d3b3 5e3d 1e2b 363e 7f4e 6abe 01ff 503d
00000220: 2775 0e3e cba7 9abe 39d9 6e3e f901 3bbe
00000230: edbe bd3e 84c4 d53e 8fea f83e 6e8c a93e
00000240: d195 a33d 523d 99be 305d a13e 5bdb aa3d
00000250: 06be 8c3d 8418 ca3d 0766 c9be e5de 83be
00000260: 5d21 85bd bb58 923d 529a 503b 30c1 583d
00000270: 2b3e 113e 1eaf 253e 1ae7 44be c4e7 473e
00000280: a120 913e 37f7 613e d314 863d ca3b 6dbd
00000290: 623f 9b3d ff1e 903e 57f7 a0be 2afb 623c
000002a0: 3cb0 9b3d ec3d dd3d 8f81 923d f214 413e
000002b0: cbf9 84bd b8d1 5b3e a1e8 073e 0316 6e3e
000002c0: 4010 dd3e acb1 0b3d a479 e53d d53c 2f3e
000002d0: 0cd1 673e b8d4 3b3e 30ac 4f3e cfd9 a23d
000002e0: fd97 bc3e db1a ad3d af53 ed3d 43f7 573e
000002f0: ff8c 333e cd02 203d 6e81 b23c 28a8 013e
00000300: d142 203e 0cc1 d4bd 5514 95bd 1b4b 6a3e
00000310: c028 863e b2d6 f33c e44f 623d 76af 623e
00000320: e99b b63e 7c0b 5ebd 5124 483e 3fdf 063f
00000330: 31a7 4c3e 8885 e53d f11c d9bd e5b6 ec3e
00000340: f898 4b3e b4ad a43e 19f2 cabe d251 103e
00000350: 6ff2 bc3d fb12 a5bd 17f7 033d d785 893e
00000360: a75b 373e 8543 32be 3faa 2c3e 9c31 9a3e
00000370: cb21 21bc bae3 3f3e 5e2d bd3d db49 eabd
00000380: baff ee3e 13fa 5cbd daa1 a53e b159 a03e
00000390: a2f7 9b3d b629 593d af22 21be 3b5e 18bf
000003a0: 730b 993e ce8b 423e 108b 0c3e 983f 923e
000003b0: 87d2 87bd f157 2fbf 5a96 7e3e 24fd e13d
000003c0: 17d7 83be 1666 663e 4608 5bbd b246 d2be
000003d0: 751e a13c 861a 233e c4fb 873d 0cfe de3d
000003e0: ea9c dfbc 1a0c 403d a3ae 773e 1171 793d
000003f0: 9ec7 213e 8979 f73d 8a17 173e 7b72 a4bd

net.3.bias f4 [128]
0.13542219 0.21100621 0.15566304 -0.00961674 0.23962647 0.32754028 0.04204794 0.47250816
0.05789543 0.14193094 0.2057535 0.14839424 -0.032515503 0.038066205 0.16541675 0.12162684
0.090659015 -0.08663707 0.26853 0.2547296 0.569107 0.6082922 0.06128045 -0.04745922
0.21439292 0.021041844 0.105930835 0.06607999 0.25070477 -0.048375696 0.09289938 0.28625557
0.13716328 0.0027023999 0.15619422 0.030386534 0.015940554 0.09566592 0.089940965 0.36151487
0.29948077 0.20902646 0.3081198 0.02762981 0.0919004 0.13878056 0.3384992 0.06918105
0.2954409 0.33767864 0.121460654 0.23157303 0.14065386 0.10593039 0.08452441 0.15065302
0.09575572 0.048556663 0.041473657 0.07170111 0.104965396 0.14184606 0.12556444 0.08672523
0.26364997 0.08477345 0.2781216 0.017388862 0.08729278 0.054976612 0.14406969 -0.06207164
0.31579638 0.27617586 0.10898953 0.21092057 0.032943644 0.12902823 -0.07021589 0.30688176
0.011473983 -0.002843203 0.08967437 0.081081755 -0.08240205 -0.06585183 -0.058600817 0.2728936
0.15915956 -0.012098154 0.06678241 0.083128616 0.15236245 0.04223039 0.10310595 0.16268702
0.09056444 -0.020217877 0.1739049 0.045615204 0.00448394 0.06684884 -0.17611988 0.2748464
0.097955614 0.021165615 0.42459437 0.21099591 0.1946834 0.057935677 -0.04052601 0.124628685
0.15103 0.092698574 0.06607157 0.21715766 0.09737799 0.06408347 0.050206527 0.090999514
0.20674409 0.12244895 0.11962269 0.14926533 0.10087758 0.07146966 0.16951306 0.053641688
00000000: 1dac 0a3e 0312 583e 2266 1f3e 888f 1dbc
00000010: a460 753e 5cb3 a73e 763a 2c3d 97ec f13e
00000020: c223 6d3d 5856 113e 0cb1 523e a9f4 173e
00000030: fa2e 05bd 4feb 1b3d 0263 293e 7e17 f93d
00000040: 6fab b93d c76e b1bd c47c 893e eb6b 823e
00000050: ffb0 113f 0ab9 1b3f 3601 7b3d 9964 42bd
00000060: d189 5b3e f25f ac3c 44f2 d83d f254 873d
00000070: 605c 803e 9825 46bd 0842 be3d 1790 923e
00000080: 8874 0c3e bf1a 313b 61f1 1f3e 2eed f83c
00000090: c495 823c 7eec c33d f832 b83d 7a18 b93e
000000a0: 8b55 993e 080b 563e e1c1 9d3e e957 e23c
000000b0: 4736 bc3d 7e1c 0e3e c44f ad3e cbae 8d3d
000000c0: 0844 973e 37e4 ac3e 5dc0 f83d 7b21 6d3e
000000d0: 9107 103e 08f2 d83d 221b ad3d c944 1a3e
000000e0: 931b c43d 5ae3 463d 48e0 293d 08d8 923d
000000f0: 19f8 d63d 1840 113e f793 003e ff9c b13d
00000100: 21fd 863e b49d ad3d f465 8e3e 1673 8e3c
00000110: 8fc6 b23d 282f 613d 0187 133e d53e 7ebd
00000120: 10b0 a13e ec66 8d3e e735 df3d 90fb 573e
00000130: eaef 063d fa1f 043e 59cd 8fbd 9b1f 9d3e
00000140: 5ffd 3b3c 0855 3abb 32a7 b73d 310e a63d
00000150: 68c2 a8bd 53dd 86bd 6907 70bd b6b8 8b3e
00000160: b9fa 223e 5637 46bc 37c5 883d 563f aa3d
00000170: e704 1c3e c6f9 2c3d 3629 d33d 6d97 263e
00000180: d979 b93d f69f a5bc 2014 323e 02d7 3a3d
00000190: 04ee 923b 0be8 883d c558 34be abb8 8c3e
000001a0: f49c c83d 8363 ad3c 6f64 d93e 500f 583e
000001b0: 165b 473e f64d 6d3d 9afe 25bd 533d ff3d
000001c0: 9ca7 1a3e c0d8 bd3d 8850 873d 945e 5e3e
000001d0: 1d6e c73d 323e 833d 5ca5 4d3d f45d ba3d
000001e0: b9b4 533e 84c6 fa3d befc f43d 03d9 183e
000001f0: e898 ce3d af5e 923d d594 2d3e 63b7 5b3d

net.4.weight f4 [128]
1.3118997 1.0826031 0.43558267 1.8601489 0.39985222 0.43397224 1.5798547 0.5618687
0.85905653 0.38463226 0.5473445 0.7060299 0.75048643 1.0045395 0.887747 0.95545334
1.1288822 1.2502997 0.48497173 0.9135752 0.30771044 0.2027513 0.9688204 1.363763
0.5989885 0.6489798 1.0223954 0.8992878 0.5593115 0.9234363 0.72307795 0.3417718
0.64621323 1.1667006 0.8857653 1.073098 1.3203845 0.88309926 1.1848062 0.27859294
0.39313623 1.058372 0.33519188 1.4667529 0.5677089 0.7145214 0.48207718 1.2290163
1.0585417 0.398549 1.3835566 0.5405303 1.0060779 1.4327942 0.67861265 1.0677289
1.012039 1.1309212 1.0532688 0.7340378 0.909604 0.7122283 0.56164217 1.8287126
0.82619154 0.68155473 0.4868554 0.7609343 1.5790269 1.5789242 1.0431097 1.1974856
0.85253006 0.6635329 1.1178752 0.711924 0.92618954 0.8057485 0.8496373 0.32418624
1.432633 1.1109251 0.9988131 0.74954766 1.8005975 0.9611462 0.9283826 1.0568308
0.54547024 1.7446243 0.7668128 1.2840822 0.59193087 1.0863414 1.324739 0.8396342
0.69912195 0.82992816 0.6052551 0.97681594 1.0063312 0.76467407 1.3799176 0.40992236
1.13423 1.5972893 0.38834104 1.4972274 0.5755537 1.1149366 0.99238944 1.0644354
0.56927794 0.57557815 0.6372229 0.3734345 0.5557551 0.76820934 0.90879613 1.2061589
0.7835894 1.0785657 0.84813505 1.3338482 0.66232204 1.6545451 1.2384868 0.7172544
00000000: 54ec a73f bd92 8a3f b104 df3e 5c19 ee3f
00000010: 6eb9 cc3e 9c31 de3e ae38 ca3f a1d6 0f3f
00000020: 21eb 5b3f 85ee c43e c51e 0c3f 60be 343f
00000030: e11f 403f c094 803f 6343 633f 9798 743f
00000040: 367f 903f d209 a03f 374e f83e 10e0 693f
00000050: 398c 9d3e 099e 4f3e 9d04 783f c98f ae3f
00000060: 4f57 193f 8a23 263f dadd 823f ba37 663f
00000070: 0a2f 0f3f 5266 6c3f a31b 393f b7fc ae3e
00000080: 3b6e 253f 7256 953f 84c1 623f 465b 893f
00000090: 5c02 a93f cb12 623f bba7 973f bca3 8e3e
000000a0: 2749 c93e bc78 873f 459e ab3e 8fbe bb3f
000000b0: 5f55 113f e0ea 363f d2d2 f63e 6850 9d3f
000000c0: 4b7e 873f 9d0e cc3e 6218 b13f 3260 0a3f
000000d0: 29c7 803f cd65 b73f 8fb9 2d3f 57ab 883f
000000e0: 7e8a 813f 07c2 903f 83d1 863f e7e9 3b3f
000000f0: cfdb 683f 9854 363f c8c7 0f3f 4113 ea3f
00000100: 4a81 533f 5f7a 2e3f 1c45 f93e 97cc 423f
00000110: 8e1d ca3f 301a ca3f 9e84 853f 3547 993f
00000120: 693f 5a3f 4bdd 293f 8916 8f3f a740 363f
00000130: c21a 6d3f 8945 4e3f d581 593f bdfb a53e
00000140: 8560 b73f cb32 8e3f 37b2 7f3f 5be2 3f3f
00000150: fb79 e63f ad0d 763f 7baa 6d3f 3b46 873f
00000160: f0a3 0b3f d94f df3f d84d 443f ce5c a43f
00000170: c888 173f 3c0d 8b3f 0c91 a93f 44f2 563f
00000180: a8f9 323f 2c76 543f 00f2 1a3f 9c10 7a3f
00000190: 76cf 803f aec1 433f 24a1 b03f 58e1 d13e
000001a0: 732e 913f fa73 cc3f a3d4 c63e 26a5 bf3f
000001b0: 7d57 133f 3eb6 8e3f 3c0d 7e3f 6b3f 883f
000001c0: 33bc 113f 1759 133f 0a21 233f cf32 bf3e
000001d0: f745 0e3f 5ea9 443f dda6 683f 6a63 9a3f
000001e0: 5199 483f 710e 8a3f 611f 593f 8abb aa3f
000001f0: f08d 293f 22c8 d33f bc86 9e3f fc9d 373f

net.4.bias f4 [128]
-0.06991669 -0.047176484 -0.29981798 -0.23128624 -0.4812466 -0.5796101 -0.08554439 -0.528362
-0.20650831 -0.40152732 -0.35468227 -0.36943173 -0.21850085 -0.07104652 -0.032011688 -0.065812744
-0.20888057 -0.22349301 -0.5373651 -0.3667669 -0.73446435 -0.7587062 -0.12191566 -0.011743614
-0.33182323 -0.2129374 -0.24583438 -0.1335615 -0.545906 -0.28075865 -0.49698737 -0.6984766
-0.40580872 -0.11693521 -0.29627603 -0.186837 -0.10203647 -0.24033636 -0.0635962 -0.65826094
-0.5930037 0.035048902 -0.5934838 -0.16019353 -0.5369598 -0.21996424 -0.66039217 -0.16176653
0.0052516344 -0.7041326 -0.023387324 -0.45759508 -0.18845981 -0.07389472 -0.56231624 -0.07344871
-0.11061624 -0.32990277 -0.14324184 -0.30579445 -0.2635928 -0.23173136 -0.5404882 0.15371013
-0.11180648 -0.32815903 -0.5765727 -0.4630931 -0.1955639 -0.22081198 -0.07024331 -0.18723921
-0.4052323 -0.38137 -0.14400464 -0.42922541 -0.246112 -0.18332785 -0.352438 -0.6997176
-0.10663557 -0.46387511 -0.122567825 -0.517415 0.013471287 -0.2021139 -0.36726218 -0.32002464
-0.5787652 -0.030686226 -0.31732124 -0.21234772 -0.57981783 -0.23928905 -0.080205575 -0.21025315
-0.36628458 -0.35957336 -0.33464277 -0.24613433 -0.13610376 -0.35278472 -0.25896138 -0.6459404
-0.34545726 -0.045818202 -0.63462883 -0.1058856 -0.4509775 -0.096091844 -0.27669927 -0.23144998
-0.59959346 -0.45848963 -0.6080473 -0.5379992 -0.39876792 -0.1346835 -0.39016348 -0.16808535
-0.4383145 -0.16944335 -0.26270267 -0.17772566 -0.24315599 -0.18989018 -0.065339975 -0.36317578
00000000: 7b30 8fbd 213c 41bd be81 99be 4dd6 6cbe
00000010: f465 f6be 5461 14bf e631 afbd bb42 07bf
00000020: ea76 53be fd94 cdbe ea98 b5be 2826 bdbe
00000030: b0be 5fbe d680 91bd b01e 03bd d5c8 86bd
00000040: cae4 55be 5adb 64be c290 09bf dfc8 bbbe
00000050: db05 3cbf 923a 42bf ebae f9bd 4a68 40bc
00000060: bce4 a9be 430c 5abe 02bc 7bbe 59c4 08be
00000070: 7fc0 0bbf 99bf 8fbe 2175 febe 5dcf 32bf
00000080: 29c6 cfbe ba7b efbd 7eb1 97be 3352 3fbe
00000090: 7ff8 d0bd bc1a 76be b93e 82bd ca83 28bf
000000a0: 17cf 17bf 708f 0f3d 8eee 17bf c609 24be
000000b0: 3376 09bf 4e3e 61be 760f 29bf 20a6 25be
000000c0: e715 ac3b 0942 34bf c696 bfbc e749 eabe
000000d0: 9cfb 40be 1d56 97bd f5f3 0fbf 476c 96bd
000000e0: c48a e2bd 04e9 a8be fdad 12be 1791 9cbe
000000f0: a3f5 86be fc4a 6dbe 6f5d 0abf 3066 1d3e
00000100: ccfa e4bd 7604 a8be 459a 13bf 8a1a edbe
00000110: e741 48be 891c 62be b9db 8fbd a3bb 3fbe
00000120: 9c7a cfbe ee42 c3be f475 13be 6fc3 dbbe
00000130: c904 7cbe 4cba 3bbe c172 b4be b120 33bf
00000140: c063 dabd 0a81 edbe d704 fbbd 4f75 04bf
00000150: acb6 5c3c f2f6 4ebe ca09 bcbe 45da a3be
00000160: f529 14bf ae61 fbbc ee77 a2be ae71 59be
00000170: f16e 14bf 3008 75be d242 a4bd 9a4c 57be
00000180: a789 bbbe 001a b8be 4c56 abbe a30a 7cbe
00000190: c95e 0bbe 33a0 b4be 9696 84be 5a5c 25bf
000001a0: c6df b0be deab 3bbd 0977 22bf 8dda d8bd
000001b0: 86e6 e6be cdcb c4bd 87ab 8dbe 3901 6dbe
000001c0: f57e 19bf 27bf eabe fda8 1bbf 51ba 09bf
000001d0: 4f2b ccbe 79ea 09be 82c3 c7be 911e 2cbe
000001e0: c26a e0be 8f82 2dbe f780 86be b7fd 35be
000001f0: e2fd 78be 9272 42be f7d0 85bd 2df2 b9be

net.6.weight f4 [128, 128]
0.15484568 0.13772897 0.0048162923 -0.49813864 0.18309668 -0.006917451 0.29186255 -0.10746589
0.2691155 0.010156011 0.037951782 0.05187223 0.423135 0.04662779 0.061306633 -0.30206603
-0.05809775 -0.17695999 0.08851112 0.09367772 -0.0364921 0.12679785 0.06872885 0.21894714
0.1646016 0.14998095 0.1496422 -0.08256174 0.14495587 -0.080085464 0.22605468 0.013454791
0.18126543 -0.3741207 0.49714538 -0.14274682 -0.21106297 0.016391497 0.0022493917 -0.022605883
0.13967757 0.16250375 0.12932625 0.15445301 0.03014892 0.23369232 0.13961585 0.07278477
0.08968439 0.058890205 0.4143498 -0.013001527 0.10361768 0.124319784 0.063372426 -0.1250241
-0.3380583 0.24220844 0.043819647 0.14752063 0.197811 0.08792134 0.15739816 0.20613047
0.13452251 0.3256518 0.19260243 0.16371423 0.10108535 0.12299076 0.27421573 0.24126454
0.039317787 0.058495183 -0.0017790268 -0.070664935 0.007825296 0.19806081 -0.15221202 0.003540398
0.21825877 0.21039122 0.115661785 0.064768314 -0.09687802 0.40246567 0.08868779 0.08685292
-0.20159565 0.2347779 0.03911121 0.04299766 0.11875725 0.2500691 -0.10788328 0.10112403
0.2561316 0.1555568 0.32397676 -0.05354654 0.1461296 0.29107633 -0.49744886 0.04747195
0.07090076 0.17847 0.026202908 0.07499832 -0.20710318 0.3990153 0.1933002 0.08120058
0.20871992 -0.05849809 -0.29436594 0.0578534 0.17200263 0.010752805 -0.1108454 0.20440404
0.09623882 -0.19060905 0.035334818 0.32234132 0.020517327 0.03231304 0.2521595 -0.08300114
-0.41208643 0.06889308 -0.022201993 0.43098152 0.31500936 -0.11806039 -0.5445589 -0.03808068
0.17912318 0.025644092 0.017037457 -0.113369554 0.2687901 0.100045204 0.1351266 0.1156629
0.41825038 0.052793004 -0.023829825 0.259459 -0.1467945 0.038292315 -0.008137926 0.26253706
0.08888614 0.1210066 0.31177327 0.301673 -0.08780824 0.05107009 0.25942463 -0.3215027
0.14793621 0.24285775 0.40649337 0.065621056 0.16114156 0.07557479 0.3979578 -0.05497929
0.07007289 -0.14536071 0.28070152 0.053702805 0.35467303 0.23319772 0.44017535 0.1782939
-0.27670577 0.63984126 -0.025835793 -0.03241044 -0.24103291 -0.017783072 0.12296381 0.08448286
-0.24349213 0.27664998 -0.05333421 0.24923481 0.2268275 0.2912448 -0.35653058 0.29090217
0.29651958 0.1695393 0.2660633 0.049423598 0.29675326 -0.17605157 0.17360766 0.29778725
0.41318578 0.24547079 -0.3636353 0.1828371 -0.013090819 0.19119063 -0.2982026 0.26935533
0.2854498 -0.08383874 0.060868498 0.57747644 -0.0922672 0.3202816 0.20861657 0.26583758
0.27265015 0.026714329 0.16071078 0.17510276 0.23216878 0.32994705 -0.0012387582 0.28247958
0.1105492 -0.108089514 0.40130404 0.082783565 0.06213643 0.3885596 -0.039645366 -0.14091943
0.10245049 -0.115389206 0.28759152 -0.23344642 0.21333113 0.22243014 0.17508474 -0.10072757
0.32506633 -0.20753603 -0.09278538 0.54037714 0.23250723 -0.03228854 0.14588676 -0.062524915
0.4976874 0.13783726 -0.09741197 -0.088303655 0.05507037 0.060861554 0.20954962 0.37756485
00000000: de8f 1e3e d308 0d3e fdd1 9d3b 070c ffbe
00000010: b27d 3b3e c9ab e2bb 026f 953e 1417 dcbd
00000020: 82c9 893e 6665 263c 5473 1b3d fa77 543d
00000030: 27a5 d83e c8fc 3e3d aa1c 7b3d 66a8 9abe
00000040: e8f7 6dbd 0035 35be 5145 b53d 1bda bf3d
00000050: be78 15bd 4cd7 013e b6c1 8c3d ae33 603e
00000060: 528d 283e 9b94 193e ce3b 193e 2116 a9bd
00000070: 506f 143e d903 a4bd e17a 673e 7c71 5c3c
00000080: a59d 393e c08c bfbe d789 fe3e 392c 12be
00000090: e420 58be 7647 863c 886a 133b f92f b9bc
000000a0: a307 0f3e 6267 263e 1a6e 043e ee28 1e3e
000000b0: defa f63c 0a4d 6f3e 75f7 0e3e 2e10 953d
000000c0: 73ac b73d db36 713d a825 d43e 5b04 55bc
000000d0: 8235 d43d 5f9b fe3d 67c9 813d 5106 00be
000000e0: fa15 adbe 7d05 783e 3b7c 333d a60f 173e
000000f0: f78e 4a3e 1a10 b43d fc2c 213e de13 533e
00000100: 45c0 093e d5bb a63e 9239 453e b4a4 273e
00000110: d605 cf3d 94e2 fb3d 0166 8c3e 0d0e 773e
00000120: b00b 213d a598 6f3d 3c2e e9ba c7b8 90bd
00000130: ac35 003c 74d0 4a3e 78dd 1bbe 0606 683b
00000140: 3a7f 5f3e cc70 573e 16e0 ec3d 40a5 843d
00000150: fc67 c6bd fb0f ce3e f2a1 b53d f2df b13d
00000160: 176f 4ebe 9e69 703e 1333 203d 501e 303d
00000170: 0037 f33d 0f09 803e e9f1 dcbd 1e1a cf3d
00000180: ae23 833e 484a 1f3e 48e0 a53e 9e53 5bbd
00000190: ffa2 153e f507 953e 9eb1 febe f371 423d
000001a0: 6b34 913d d7c0 363e 7ba7 d63c b898 993d
000001b0: db12 54be bc4b cc3e 7df0 453e 7d4c a63d
000001c0: adba 553e b19b 6fbd 22b7 96be b0f7 6c3d
000001d0: 7521 303e 882c 303c ea02 e3bd 4b4f 513e
000001e0: dc18 c53d 052f 43be 3ebb 103d ec09 a53e
000001f0: f413 a83c ae5a 043d 0d1b 813e 80fc a9bd
00000200: fefc d2be d117 8d3d f4e0 b5bc 9ca9 dc3e
00000210: e848 a13e a5c9 f1bd 3668 0bbf 7dfa 1bbd
00000220: 116c 373e 8f13 d23c 2392 8b3c 4c2e e8bd
00000230: db9e 893e 80e4 cc3d a15e 0a3e ace0 ec3d
00000240: ea24 d63e 7a3d 583d c436 c3bc cfd7 843e
00000250: 4c51 16be 67d8 1c3d f054 05bc 426b 863e
00000260: f009 b63d 4fd2 f73d bfa0 9f3e e274 9a3e
00000270: ced4 b3bd df2e 513d 4ed3 843e 009c a4be
00000280: 977c 173e b4af 783e e61f d03e 5564 863d
00000290: 4b02 253e f5c6 9a3d 20c1 cb3e f731 61bd
000002a0: 6082 8f3d 70d9 14be 1cb8 8f3e 79f7 5b3d
000002b0: b497 b53e 62cb 6e3e aa5e e13e ad92 363e
000002c0: 61ac 8dbe a3cc 233f 96a5 d3bc cfc0 04bd
000002d0: 55d1 76be cead 91bc 73d4 fb3d 5a05 ad3d
000002e0: 0056 79be 11a5 8d3e f974 5abd 6937 7f3e
000002f0: 7845 683e 0a1e 953e 2d8b b6be 21f1 943e
00000300: 6ad1 973e b69b 2d3e 7339 883e 6670 4a3d
00000310: 0bf0 973e dd46 34be 35c6 313e 9277 983e
00000320: 168d d33e b25c 7b3e 682e babe a639 3b3e
00000330: e07a 56bc 7ac7 433e 03ae 98be f1e8 893e
00000340: 7a26 923e a5b3 abbd 3f51 793d 7fd5 133f
00000350: 96f6 bcbd f3fb a33e 959f 553e dd1b 883e
00000360: cd98 8b3e 02d8 da3c 5e91 243e 234e 333e
00000370: a7bd 6d3e d2ee a83e d45d a2ba 2aa1 903e
00000380: 9e67 e23d 095e ddbd b977 cd3e 6e8a a93d
00000390: c582 7e3d 49f1 c63e 2e63 22bd 2f4d 10be
000003a0: 90d1 d13d 2d51 ecbd 323f 933e 940c 6fbe
000003b0: 7a73 5a3e bac4 633e 6a49 333e 424a cebd
000003c0: 186f a63e 5384 54be 4306 bebd 2856 0a3f
000003d0: 6016 6e3e fd40 04bd 5763 153e 100d 80bd
000003e0: e2d0 fe3e 3625 0d3e ed7f c7bd 8cd8 b4bd
000003f0: 7891 613d f749 793d 2d94 563e 2e50 c13e

net.6.bias f4 [128]
0.044622466 0.18725954 0.103838645 0.010430216 -0.05951038 -0.07444333 0.1794638 -0.07062766
0.10771106 -0.13285789 -0.048098538 0.075288795 -0.0471791 0.19442682 0.0942554 -0.05821266
-0.0044918256 -0.024993781 -0.13134892 0.14989944 -0.14505908 -0.109965056 -0.006418159 0.17579582
0.100209944 0.13206926 0.1523506 -0.1539401 -0.104257084 -0.034769926 0.06196297 0.120112784
0.15641208 -0.16131221 -0.06942141 0.12084879 0.35666364 0.10113923 0.115855165 0.049342163
-0.10438252 -0.09628685 0.14157161 -0.028426109 0.21006183 0.10857212 -0.14175045 0.061763123
0.06807883 0.1345371 -0.054528005 -0.08453975 -0.09173619 0.07293955 0.029494753 0.089781515
0.03213102 -0.19121675 0.12587045 0.22758915 0.13463901 0.13753548 0.04647006 0.20609258
-0.12101588 0.08317643 0.1184786 0.15284711 0.12691297 0.056652274 -0.018054647 -0.06986569
0.18457888 -0.10440558 -0.12424274 -0.005584269 0.17481685 -0.0949813 0.11401765 0.32223308
0.22608337 0.1335827 -0.11301358 0.059683774 0.10941371 0.22082591 0.07323502 0.08901252
0.026399506 0.08847117 0.10123843 0.042641155 0.09787304 0.14098425 0.074751794 0.14864074
0.24746612 0.059088796 0.06611195 -0.012551504 -0.0120604485 0.12630121 0.11657561 0.12045588
-0.041720096 0.03526049 -0.1925993 -0.18577997 -0.30615738 -0.10820927 0.01836492 -0.07448234
0.2722419 0.05288953 0.18632413 0.15006281 0.02369093 0.17881973 -0.1073993 0.32788372
0.22242711 -0.058574937 0.06258164 0.132736 0.2789568 -0.104972124 0.1999746 -0.01279721
00000000: 0cc6 363d f7c0 3f3e 5ba9 d43d 7fe3 2a3c
00000010: 28c1 73bd bf75 98bd 5cc5 373e 3ca5 90bd
00000020: 9e97 dc3d e60b 08be f902 45bd 0331 9a3d
00000030: df3e 41bd d317 473e fa08 c13d 6670 6ebd
00000040: 2a30 93bb c2bf ccbc 5580 06be 3d7f 193e
00000050: 5e8a 14be 5c35 e1bd 6c4f d2bb d203 343e
00000060: df3a cd3d 2a3d 073e cc01 1c3e 79a2 1dbe
00000070: bd84 d5bd e96a 0ebd e2cc 7d3d b1fd f53d
00000080: 7d2a 203e 072f 25be d02c 8ebd 927f f73d
00000090: 9e9c b63e 1622 cf3d 7945 ed3d 021b 4a3d
000000a0: 81c6 d5bd 0a32 c5bd 26f8 103e dfdd e8bc
000000b0: 731a 573e 0f5b de3d 0827 11be 54fb 7c3d
000000c0: ea6c 8b3d 18c4 093e c258 5fbd 2d23 adbd
000000d0: 2fe0 bbbd 5561 953d fb9e f13c 5fdf b73d
000000e0: d19b 033d 53ce 43be 2fe4 003e 210d 693e
000000f0: cfde 093e 1ad6 0c3e 6457 3e3d ef09 533e
00000100: 2cd7 f7bd 6758 aa3d e9a4 f23d f483 1c3e
00000110: 79f5 013e 370c 683d 57e7 93bc be15 8fbd
00000120: 3f02 3d3e 98d2 d5bd fa72 febd 3efc b6bb
00000130: 3003 333e 8e85 c2bd 1682 e93d bcfb a43e
00000140: 6682 673e e7c9 083e aa73 e7bd f976 743d
00000150: 4c14 e03d 3020 623e 3efc 953d 324c b63d
00000160: c743 d83c 5f30 b53d 1856 cf3d 7ea8 2e3d
00000170: a971 c83d 2d5e 103e 7817 993d 4735 183e
00000180: c267 7d3e 1807 723d b465 873d d3a4 4dbc
00000190: 3099 45bc 1b55 013e 32bf ee3d 93b1 f63d
000001a0: b1e2 2abd 4e6d 103d c038 45be 1b3d 3ebe
000001b0: a9c0 9cbe d29c ddbd 0772 963c 328a 98bd
000001c0: 4a63 8b3e b1a2 583d c1cb 3e3e 11aa 193e
000001d0: 7b13 c23c 851c 373e 2af4 dbbd 60e0 a73e
000001e0: efc3 633e 46ec 6fbd ce2a 803d f2eb 073e
000001f0: 6dd3 8e3e a0fb d6bd 24c6 4c3e 64ab 51bc

net.7.weight f4 [128]
0.580887 0.6228821 0.80172145 0.9564053 0.87835324 0.7318118 1.0731287 1.0589776
0.848399 0.93824553 0.8319671 0.74740016 0.8230226 0.2917473 0.4358592 0.65101653
0.8856794 1.0005205 0.6936121 0.8000777 1.0225124 0.8550078 1.0665549 0.49011508
0.9584201 0.45265654 0.5518456 0.80117863 0.95011383 0.7383229 0.55543005 0.86742646
0.37536222 1.1352988 0.9244421 0.46956697 0.76646423 1.38071 0.4216137 0.8063228
0.747594 0.5344442 0.3537691 0.6708311 0.6373075 0.74047095 0.74847484 0.57795155
1.1258323 0.5940545 0.9285444 0.55110306 1.0425982 0.55742425 0.795534 0.41018164
0.734183 0.7127473 0.8181321 0.4415443 0.9431404 0.50737053 0.6708661 0.9530509
0.76741594 1.33605 0.42245722 0.33947903 0.75101763 0.5574563 0.32154062 0.76150924
0.64571065 0.8346542 0.8202103 0.58212155 0.54685915 0.6658852 0.5267968 0.44054407
0.31347558 0.48289973 0.9841106 0.728956 0.7204034 0.6053868 0.7495477 0.8546338
0.70752496 0.99258095 0.8110366 0.69324654 0.72698694 0.60905105 0.7242313 0.74100536
0.71242505 0.75430954 0.7188459 0.61215335 0.96551573 0.97001284 0.7546061 0.8429281
0.6798167 0.51863736 0.6935365 1.353769 1.0494018 1.1663095 0.5963772 1.2140641
0.47449112 0.5537885 0.9662546 0.74649394 0.5560799 0.7477446 0.682184 0.32692277
0.43178156 0.53092885 1.1485763 0.6008988 0.54193246 0.7102235 0.2935724 0.697188
00000000: 03b5 143f 3475 1f3f 9e3d 4d3f fad6 743f
00000010: c2db 603f 0558 3b3f 485c 893f 948c 873f
00000020: ad30 593f dc30 703f ccfb 543f 9e55 3f3f
00000030: 9cb1 523f e75f 953e f028 df3e 05a9 263f
00000040: e3bb 623f 0e11 803f 9090 313f e4d1 4c3f
00000050: b0e1 823f cbe1 5a3f df84 883f 5df0 fa3e
00000060: 055b 753f 99c2 e73e c145 0d3f 0b1a 4d3f
00000070: a93a 733f bb02 3d3f aa30 0e3f a90f 5e3f
00000080: 7a2f c03e 7951 913f 3da8 6c3f 156b f03e
00000090: 0037 443f 1bbb b03f c0dd d73e 2c6b 4e3f
000000a0: 5262 3f3f 56d1 083f 3921 b53e 96bb 2b3f
000000b0: 9626 233f 818f 3d3f 0c9c 3f3f a2f4 133f
000000c0: 461b 903f f513 183f 16b5 6d3f 1715 0d3f
000000d0: dc73 853f 5bb3 0e3f 1ea8 4b3f 5403 d23e
000000e0: 6bf3 3b3f 9b76 363f 1b71 513f 1812 e23e
000000f0: a671 713f 09e3 013f e1bd 2b3f 25fb 733f
00000100: 5f75 443f b003 ab3f 504c d83e 32d0 ad3e
00000110: b142 403f 75b5 0e3f f9a0 a43e 45f2 423f
00000120: 4b4d 253f e6ab 553f 4df9 513f eb05 153f
00000130: f6fe 0b3f 7477 2a3f 28dc 063f fe8e e13e
00000140: df7f a03e a23e f73e acee 7b3f dc9c 3a3f
00000150: 5b6c 383f a1fa 1a3f 5ce2 3f3f 48c9 5a3f
00000160: 5b20 353f c919 7e3f 18a0 4f3f 9b78 313f
00000170: d11b 3a3f c5ea 1b3f 3967 393f 87b2 3d3f
00000180: 7d61 363f 6e1a 413f 4906 383f 15b6 1c3f
00000190: 0a2c 773f c352 783f de2d 413f 23ca 573f
000001a0: 7808 2e3f 6bc5 043f 9c8b 313f 4d48 ad3f
000001b0: cc52 863f a149 953f 2dac 183f 7466 9b3f
000001c0: 80f0 f23e 15c5 0d3f 765c 773f 3a1a 3f3f
000001d0: 415b 0e3f 316c 3f3f 9ca3 2e3f 6c62 a73e
000001e0: 7912 dd3e f4ea 073f 8c04 933f 81d4 193f
000001f0: 16bc 0a3f 35d1 353f 1f4f 963e ea7a 323f

net.7.bias f4 [128]
-0.510129 -0.32349303 -0.16613646 -0.14840777 -0.34189203 -0.4396053 -0.034640994 -0.32479614
-0.04120391 -0.011219485 -0.4162132 -0.2991071 -0.4003487 -0.6231952 -0.52686054 -0.30881113
-0.24234201 -0.38305247 -0.19561805 -0.22848849 -0.16934873 -0.3795625 -0.35907352 -0.5749046
-0.15896076 -0.432566 -0.40766916 -0.2568415 -0.3015252 -0.24240708 -0.45788938 -0.33631554
-0.5957694 -0.33797133 -0.6050741 -0.5184502 -0.17806008 -0.32104146 -0.59028214 -0.13517217
-0.31479388 -0.59235096 -0.54534906 -0.36088222 -0.45547292 -0.28282064 -0.56019104 -0.44713676
-0.03847555 -0.43553287 -0.2293214 -0.31782213 -0.11825288 -0.4379342 -0.18769988 -0.5721854
-0.37013495 -0.23565711 -0.49831817 -0.6409457 -0.11748813 -0.46918768 -0.32346398 -0.22664426
-0.42640603 -0.3588084 -0.5889032 -0.5224337 -0.33881056 -0.52156556 -0.49783123 -0.29124165
-0.32319486 -0.47829574 -0.45111254 -0.50502586 -0.4400093 -0.32436377 -0.51667887 -0.51966226
-0.5864248 -0.5499292 -0.17965631 -0.33950785 -0.24666458 -0.44647184 -0.42583624 -0.2510956
-0.5634293 -0.1356711 -0.26142982 -0.34695977 -0.49355552 -0.3423154 -0.3674771 -0.29803205
-0.28049797 -0.37281147 -0.28812182 -0.48095104 -0.42694125 -0.2786469 -0.37741515 -0.29766828
-0.3264704 -0.44245103 -0.2533065 -0.29627532 -0.23236933 -0.05906947 -0.28159514 -0.2190589
-0.55265164 -0.5480213 -0.19927177 -0.20538148 -0.41583887 -0.33674136 -0.5063734 -0.685585
-0.52391875 -0.47702113 -0.07751081 -0.39350882 -0.38554364 -0.12707414 -0.6413096 -0.16409129
00000000: d097 02bf e1a0 a5be ad1f 2abe 35f8 17be
00000010: 790c afbe f213 e1be b7e3 0dbd ae4b a6be
00000020: 6ec5 28bd eed1 37bc e619 d5be 9124 99be
00000030: 81fa ccbe b889 1fbf 55e0 06bf 7e1c 9ebe
00000040: 8128 78be 741f c4be 1950 48be e3f8 69be
00000050: c169 2dbe 0456 c2be 7cd8 b7be f32c 13bf
00000060: 9cc6 22be 4a79 ddbe 03ba d0be bb80 83be
00000070: 8361 9abe 9039 78be 7a70 eabe 8d31 acbe
00000080: 5884 18bf 940a adbe 23e6 1abf 27b9 04bf
00000090: 6255 36be 8c5f a4be bb1c 17bf 936a 0abe
000000a0: aa2c a1be 50a4 17bf ff9b 0bbf 8ec5 b8be
000000b0: bf33 e9be decd 90be ae68 0fbf 1cef e4be
000000c0: 8a98 1dbd 2afe debe 3bd3 6abe 95b9 a2be
000000d0: 912e f2bd e938 e0be 6634 40be be7a 12bf
000000e0: 5482 bdbe 1950 71be 8f23 ffbe 0415 24bf
000000f0: 9e9d f0bd 5e39 f0be 129d a5be 6f15 68be
00000100: e451 dabe bcb5 b7be 5cc2 16bf 37be 05bf
00000110: 9478 adbe 5285 05bf bce3 febe a01d 95be
00000120: cc79 a5be 2ee3 f4be 39f8 e6be 6049 01bf
00000130: e648 e1be 0213 a6be 1145 04bf 9608 05bf
00000140: f01f 16bf 29c8 0cbf d3f7 37be f9d3 adbe
00000150: a495 7cbe f597 e4be 3507 dabe 9a8f 80be
00000160: e73c 10bf 5ded 0abe 21da 85be b6a4 b1be
00000170: 4fb3 fcbe f743 afbe f525 bcbe a897 98be
00000180: 6e9d 8fbe 25e1 bebe b484 93be 373f f6be
00000190: 0b98 dabe ceaa 8ebe 8f3c c1be fa67 98be
000001a0: 2127 a7be f188 e2be 64b1 81be 66b1 97be
000001b0: 3af2 6dbe d4f2 71bd 3d2d 90be fa50 60be
000001c0: 947a 0dbf 204b 0cbf e60d 4cbe 864f 52be
000001d0: d5e8 d4be 5d69 acbe b0a1 01bf 8082 2fbf
000001e0: 8a1f 06bf 1d3c f4be fdbd 9ebd fd79 c9be
000001f0: fa65 c5be b91f 02be de2c 24bf 8c07 28be
