cp/Platform_psac3_dl10_d100_20000_May_30_2020_09_19_57_target_value2.pt (torch_old, 146147 bytes, 13 tensors)

net.0.weight f4 [128, 15]
0	0xbf948fe6	-1.1606414
1	0x3f451302	0.7698213
2	0x3feb082f	1.8361872
3	0x3dca2591	0.098704465
4	0x3e8d5e24	0.27610886
5	0x3d6d3732	0.057913966
6	0x3eda792c	0.42670572
7	0xbead6b1f	-0.3387079
8	0xbe8d614b	-0.2761329
9	0x3f92bcc5	1.1463858
10	0xbc26ca7c	-0.010180112
11	0xc034ca17	-2.8248346
12	0x3f12b2c6	0.57304037
13	0xbeb92b36	-0.3616578
14	0xbda68d8c	-0.08132467
15	0x3f2c3347	0.67265743
16	0x3ee8cab3	0.45467147
17	0x3f2afe6f	0.66794485
18	0x3de2a892	0.110673085
19	0x3c079a81	0.008276583
20	0xbe05eee2	-0.13079408
21	0x3e02f074	0.12787038
22	0xbe3d9d1c	-0.18516964
23	0x3d8e83fa	0.06958766
24	0xb8cd755c	-9.7970216e-05
25	0xbf750585	-0.9571155
26	0x40869886	4.2061186
27	0x3f5fc211	0.87405497
28	0x3f1380d3	0.57618445
29	0x3f7312be	0.94950473
30	0x3fc350a0	1.525898
31	0xbfb0f001	-1.3823243
32	0x3f510e84	0.81662774
33	0x3f5ac697	0.85459274
34	0xbd848c67	-0.06472092
35	0x3f1fcbf7	0.624206
36	0x3ebb607e	0.36597055
37	0xbecbf2aa	-0.39833575
38	0xbe0fd863	-0.14047389
39	0x3ec3ea5a	0.38264734
40	0xbe6abd38	-0.22923744
41	0x3ff8a13a	1.9424202
42	0x3f8d8f36	1.105933
43	0xbc67e4df	-0.014153688
44	0x3eb8d55b	0.36100277
45	0xbf3149eb	-0.69253415
46	0xbf18e4b9	-0.59724003
47	0x3d2eb3c9	0.042651925
48	0x3d6f048c	0.058353946
49	0x3d8d5116	0.069002315
50	0x3ec78f95	0.38976732
51	0xbdf0dda2	-0.11761023
52	0x3d076c50	0.03306228
53	0xbe6311f7	-0.22174822
54	0x3f270883	0.6524736
55	0x3ee6e2b9	0.4509485
56	0xbfe37e82	-1.7772982
57	0x3efc091c	0.492257
58	0x3fd5e46e	1.6710336
59	0xc00d3080	-2.2060852
60	0xbfa475bc	-1.284843
61	0xbd6f569e	-0.058432214
62	0x3fc726dd	1.5558735
63	0x3eac95ee	0.33708137
64	0x3e791cfe	0.24327466
65	0x3dd72362	0.105047956
66	0xbc2eb60f	-0.010663523
67	0xbd296b2b	-0.04136197
68	0x3d66922f	0.056291755
69	0x3e861862	0.26190478
70	0x3edeef70	0.4354205
71	0xbf18c289	-0.5967184
72	0xbe99618f	-0.29957244
73	0xbf2b338d	-0.66875535
74	0x3e6afc82	0.22947887
75	0x3f3eeff2	0.7458488
76	0xbf12b6e3	-0.57310313
77	0x3fb9d504	1.4518132
78	0xbe8bdea2	-0.27318293
79	0x3ef4d8ea	0.47821742
80	0x3ddad4ae	0.10685097
81	0x3ef59596	0.47965688
82	0xbea63c41	-0.32467845
83	0xbe12aded	-0.1432416
84	0xbe823f75	-0.2543904
85	0x3f9698d5	1.1765391
86	0xbcbded8d	-0.023184562
87	0xbe873226	-0.26405448
88	0x3f6bd9f0	0.9212942
89	0x3d434ef8	0.047682732
90	0x3f37cf59	0.7180076
91	0xbee76440	-0.45193672
92	0x3fa68759	1.3010055
93	0xbcfb43b4	-0.030671932
94	0xbef5de85	-0.4802133
95	0xbe58a438	-0.21156394
96	0xbef1d2ec	-0.47231233
97	0x3e0045ab	0.12526576
98	0xbf0b2d7d	-0.54366285
99	0x3f8c9f1d	1.0986058
100	0x3e4d4b68	0.20048296
101	0xbdb3a64c	-0.08771953
102	0x3e30c185	0.17261322
103	0x3e81f798	0.25384212
104	0x3e976c5c	0.2957486
105	0xbf8e9e08	-1.1141977
106	0x3d03a1b9	0.032136653
107	0x3ddbc7e8	0.107314885
108	0xbe16366e	-0.14669201
109	0x3ee249a2	0.44196802
110	0x3c1a263d	0.009408531
111	0x3e8c3397	0.2738311
112	0xbe1fcb5d	-0.1560492
113	0xbe1ab280	-0.15107155
114	0x3f25113a	0.6447941
115	0x3f162b5c	0.5865991
116	0xbf8bbe8a	-1.0917523
117	0x3d991cc7	0.07476192
118	0x3eaa543e	0.33267397
119	0xbdf05150	-0.11734259
120	0xbf80483e	-1.0022047
121	0xbe71e234	-0.23621446
122	0xbec88bbc	-0.3916911
123	0xbe3c8db8	-0.18413436
124	0x3eb7ee36	0.35923928
125	0x3e192605	0.1495591
126	0xbcd854ca	-0.026407618
127	0x3e3a109f	0.18170403
128	0xbe25b80f	-0.16183494
129	0xbf238368	-0.63872385
130	0x3d7ccb15	0.06171711
131	0x3fd20d2e	1.6410272
132	0x3f181c18	0.5941787
133	0x3fb4ec9c	1.4134707
134	0xbfa13690	-1.2594776
135	0x403071ab	2.7569377
136	0x3df53104	0.119722396
137	0x3eb634dd	0.35587206
138	0x3d8ac543	0.06775906
139	0x3e89a4f5	0.26883665
140	0x3f226810	0.63440037
141	0x3ea230f7	0.31677982
142	0xbf497ff5	-0.7871087
143	0xbf15c133	-0.58497924
144	0x3f72a622	0.9478475
145	0x3efa3355	0.48867288
146	0xbf37f502	-0.7185823
147	0x3e886185	0.26636901
148	0xbeecfc49	-0.46286228
149	0x3dc3085f	0.09523081
150	0xbf789239	-0.9709812
151	0x4006c5d3	2.1058242
152	0xbf955e4c	-1.1669402
153	0xbd7eb9a7	-0.06218877
154	0xbbd80a4d	-0.006593025
155	0xbe33e877	-0.17569147
156	0x3de2c3fd	0.11072538
157	0x3e90cd84	0.28281796
158	0x3e8ba729	0.2727597
159	0x3f0fad0d	0.5612343
160	0xbf4992d6	-0.7873968
161	0xbf5e902c	-0.8693874
162	0xbf4d55a2	-0.8020879
163	0x3f9c23d6	1.2198436
164	0x3eb056d8	0.34441257
165	0xbedc99bb	-0.43086037
166	0x3c82a434	0.015947439
167	0xbf5401f8	-0.82815504
168	0xbea5415c	-0.32276428
169	0x3e1dd7bd	0.15414329
170	0x3e047478	0.12935054
171	0x3ebab0fd	0.36463156
172	0xbe814da4	-0.25254548
173	0xbea0e828	-0.3142712
174	0x3f2026c0	0.6255913
175	0x3ec14643	0.37748918
176	0xbf8be862	-1.0930293
177	0x3e69b993	0.22824697
178	0x3e2aac4d	0.1666729
179	0xbda744f6	-0.0816745
180	0xc034b6a2	-2.823647
181	0x3ecb2b71	0.3968158
182	0xbfa6acc3	-1.3021473
183	0x3ee96865	0.4558746
184	0xbeb3866f	-0.35063502
185	0xbe6747c6	-0.22585973
186	0x3beb610f	0.007183201
187	0xbd1d79eb	-0.03844635
188	0x3e91843b	0.28421196
189	0xbd57a983	-0.052651893
190	0xbeb9effd	-0.3631591
191	0xbed409fd	-0.4141387
192	0x3e78e7be	0.24307153
193	0xbf04f1c1	-0.5193139
194	0x3de3a286	0.11114983
195	0xbe0e2b49	-0.138837
196	0xbed3e155	-0.41382852
197	0xbdafba5d	-0.08580468
198	0x3d9e83d2	0.077399865
199	0xbe0c9e24	-0.13732201
200	0xbdfc8348	-0.123297274
201	0xbed34b8d	-0.41268578
202	0x3eb2f9af	0.34956118
203	0x3e10f7b2	0.14156988
204	0x3e86fa8e	0.26363033
205	0xbf91d9c0	-1.1394577
206	0x3f57b57f	0.84261316
207	0xc031f058	-2.7802944
208	0xbd68cf44	-0.05683829
209	0xbd804c00	-0.06264496
210	0x3faa80b5	1.3320528
211	0x3f9e898a	1.2385724
212	0xbecca332	-0.39968258
213	0x3edca9d6	0.43098325
214	0x3e3aac69	0.18229832
215	0x3e9e54c3	0.30924043
216	0x3e7e7c2a	0.24852052
217	0xbe8987d5	-0.26861444
218	0xbe560982	-0.20902064
219	0x3e73a130	0.23791957
220	0x3f17f89a	0.5936371
221	0x3f26b8f2	0.65125954
222	0x3e858e4e	0.26085132
223	0xbff40743	-1.9064716
224	0xbd8be2ed	-0.06830392
225	0xbfa9f94a	-1.3279202
226	0xbeb17d5e	-0.3466596
227	0xbe27be29	-0.16381134
228	0x3ee54615	0.4478003
229	0xbe750adf	-0.23929928
230	0x3d14c67a	0.036322095
231	0xbe62ba33	-0.22141342
232	0x3e8c09dc	0.27351272
233	0xbbd60f50	-0.006532587
234	0x3f5856fe	0.8450774
235	0xbfb6cebd	-1.4281842
236	0xbf86195f	-1.0476493
237	0x3fc35d12	1.5262778
238	0xbe55a6a7	-0.20864354
239	0x3e0a7d3a	0.13524333
240	0xbf931d77	-1.1493367
241	0xbbd20065	-0.0064087384
242	0x3db955d2	0.09049572
243	0xbdc6ba4f	-0.09703504
244	0x3e8271d3	0.25477466
245	0x3e1b2cad	0.15153761
246	0x3e518dc5	0.20464237
247	0xbe06b18b	-0.13153665
248	0xbed0f3bc	-0.40810955
249	0x3ec975e5	0.3934776
250	0x3dee8085	0.11645607
251	0xbf8e6b72	-1.112654
252	0x3e693f4e	0.22778055
253	0x3e75a2ba	0.23987857
254	0xbe12d990	-0.14340806
255	0x401fec26	2.4987884

net.0.bias f4 [128]
0	0x3ee82d97	0.45347282
1	0x3ea6ea0e	0.32600445
2	0x3e16834b	0.14698522
3	0x3e0c50fe	0.13702771
4	0x3ebf9d15	0.37424532
5	0x3e1e2ee7	0.1544758
6	0x3f1d1065	0.6135314
7	0x3e3871f6	0.18012223
8	0x3e539a56	0.20664343
9	0x3eba9ef2	0.3644939
10	0x3dff49ef	0.124652736
11	0x3dde1fd6	0.10845916
12	0xbe1dbcb2	-0.15404013
13	0xbed6fc8c	-0.41989553
14	0x3e44f2c6	0.19233236
15	0xbd3d412e	-0.04620474
16	0x3ede8ba8	0.43465924
17	0x3e822714	0.2542044
18	0x3e1dedae	0.15422699
19	0xbe63a53d	-0.22231002
20	0xbdd09718	-0.10185069
21	0xbdc57f62	-0.09643437
22	0x3de33974	0.11094943
23	0x3f0b2b71	0.5436316
24	0xbe2a0a59	-0.1660551
25	0x3d512c3e	0.051067583
26	0xbbcc4302	-0.006233574
27	0x3ddc8854	0.1076819
28	0x3eb666c4	0.3562528
29	0xbe07d32f	-0.13264154
30	0x3e3b83bf	0.18311976
31	0x3d73eac1	0.05955005
32	0x3efa997c	0.48945224
33	0xbd60007d	-0.054687966
34	0x3e60eeac	0.21966046
35	0x3e294d90	0.16533494
36	0x3ebb979c	0.36639106
37	0x3c91586c	0.017742358
38	0x3e31d34c	0.1736576
39	0x3f070525	0.52742225
40	0x3e2ad7b6	0.1668385
41	0x3e7d48a9	0.24734749
42	0xbc52f04c	-0.012874674
43	0x3e04669e	0.1292977
44	0xbe456cec	-0.19279832
45	0x3ed02dcc	0.4065994
46	0xbdd85b4f	-0.10564291
47	0x3f02e20e	0.5112618
48	0x3d42ffce	0.047607236
49	0x3e3cd6c5	0.18441303
50	0x3f0bd8d1	0.5462771
51	0x3ed05dd2	0.4069658
52	0x3e80ec9e	0.25180525
53	0x3ef8a108	0.48560357
54	0x3ddce7e1	0.10786415
55	0x3e8b106f	0.27160975
56	0x3d7e93da	0.06215272
57	0xbcfbb07a	-0.030723799
58	0x3ed5ac60	0.41733074
59	0x3eee8e2a	0.46592838
60	0x3ef2123b	0.47279534
61	0x3eb11b7a	0.34591275
62	0x3f036ffb	0.51342744
63	0x3f10101b	0.56274575
64	0xbe901bb8	-0.28146148
65	0xbd3d7896	-0.046257578
66	0xbdb1d276	-0.0868272
67	0x3dce81db	0.10083362
68	0x3e54cb7a	0.20780745
69	0x3e70eed2	0.23528603
70	0x3ea0ad0f	0.31382033
71	0x3ee5bcf5	0.44870725
72	0xbe4dbcb5	-0.20091517
73	0x3ec36d64	0.38169396
74	0x3ec37778	0.38177085
75	0x3e855fd0	0.26049662
76	0xbda6debf	-0.08147954
77	0x3e1d0688	0.15334523
78	0x3f0a31e6	0.5398239
79	0x3ee7b79e	0.45257276
80	0x3e517cbd	0.2045774
81	0x3dea1740	0.11430216
82	0x3da93fc6	0.08264117
83	0x3cc5b7ea	0.024135549
84	0x3d68ee48	0.056867868
85	0xbe00e882	-0.12588695
86	0x3ece8008	0.40332055
87	0x3ea5e51f	0.32401368
88	0xbec616e4	-0.3868934
89	0x3edcd147	0.43128416
90	0x3f07696f	0.52895254
91	0x3f496dcd	0.7868317
92	0x3ead8881	0.33893207
93	0xbd5531bd	-0.052049387
94	0x3e3c8fcb	0.18414228
95	0x3ef1bc89	0.47214153
96	0xbe78394a	-0.24240604
97	0x3f03dc2d	0.51507837
98	0xbda7123b	-0.08157774
99	0x3ec61a52	0.38691956
100	0xbd3ffe20	-0.04687321
101	0x3c5653dc	0.013081517
102	0xbcd7ba79	-0.026334034
103	0x3e69f718	0.22848165
104	0x3ecc1d9b	0.39866337
105	0x3e81205b	0.25219998
106	0x3f16b659	0.5887199
107	0x3e01639c	0.12635654
108	0xbdfc0b6f	-0.12306868
109	0x3e206d23	0.15666632
110	0x3e62705e	0.22113177
111	0x3e9f184d	0.31073228
112	0x3daca420	0.08429742
113	0x3ecaf967	0.39643404
114	0xbe0b05a6	-0.13576373
115	0x3ec3624c	0.38160932
116	0x3e3e9fe9	0.18615688
117	0xbc5d70c3	-0.013515654
118	0x3ef5bd6d	0.47996083
119	0x3e59d52f	0.2127273
120	0x3ec42a37	0.38313457
121	0x3e4c2f9f	0.19940041
122	0x3e843d4f	0.25828025
123	0x3e847310	0.25869036
124	0x3d867016	0.065643474
125	0x3d4d7f4c	0.050170228
126	0x3e8b30d8	0.27185702
127	0x3eef875b	0.46782956

net.1.weight f4 [128]
0	0x3f672e54	0.90305066
1	0x3ff4ebd7	1.9134473
2	0x3fbe7beb	1.4881567
3	0x3f81d332	1.0142577
4	0x3f6d5281	0.92704016
5	0x3f85fb6f	1.0467356
6	0x3fdf95bc	1.746757
7	0x3e6a8ffe	0.22906491
8	0x3f1f23b9	0.62163883
9	0x404301bb	3.0469806
10	0x3fa45cb0	1.2840786
11	0x3e4e3ab5	0.20139582
12	0x40257019	2.584967
13	0x40620020	3.5312576
14	0x3f8b6778	1.0890951
15	0x3fa52ef7	1.2904958
16	0x3e8cede2	0.2752524
17	0x3fcdb337	1.6070317
18	0x3f9f213e	1.243202
19	0x3fa42e89	1.2826701
20	0x3f430ee9	0.76194626
21	0x3fedaab8	1.8567724
22	0x3fdd43dc	1.7286334
23	0x3eba9664	0.36442864
24	0x400befe4	2.1865168
25	0x3e7d9a48	0.24765885
26	0x3fce30a1	1.610859
27	0x3f0f9ecf	0.561017
28	0x3eeaf94d	0.45893326
29	0x3f3de014	0.7417004
30	0x3e8fade1	0.28062347
31	0x3f34026d	0.703162
32	0x4002022c	2.0313826
33	0x3fa72331	1.3057615
34	0x3ec1670b	0.37773928
35	0x3f6e24a1	0.9302464
36	0x3e91fce7	0.28513262
37	0x3f709026	0.93969953
38	0x3f72daa5	0.94864875
39	0x3f017655	0.50571185
40	0x3eb3cab7	0.35115597
41	0x3ff56ca2	1.9173777
42	0x3fa28625	1.2697188
43	0x3ea92aea	0.33040553
44	0x3fd209a6	1.6409194
45	0x3ea53748	0.3226874
46	0x3f1b5ef2	0.6069175
47	0x3f08eaa3	0.5348303
48	0x3ff6c243	1.9278034
49	0x3e8ff492	0.2811628
50	0x3f64ecd9	0.894239
51	0x3f219f72	0.6313392
52	0x3f880369	1.0626041
53	0x3e986651	0.2976556
54	0x400116d9	2.0170195
55	0x3f57174b	0.8401992
56	0x3f47aea7	0.78000873
57	0x3fb52090	1.4150562
58	0x3fa1769b	1.261432
59	0x3fd7e355	1.6866251
60	0x3f614dfc	0.8800962
61	0x3e48bb8b	0.19602792
62	0x3fcf99c9	1.6218807
63	0x3e42b21b	0.19013254
64	0x3f54f354	0.8318379
65	0x3fb73b68	1.4315004
66	0x3fe88b60	1.8167534
67	0x3f8c52fd	1.0962826
68	0x3ee3797b	0.4442862
69	0x3e6c44c7	0.23073111
70	0x3f53959d	0.82650167
71	0x3e95e696	0.29277486
72	0x3f37f293	0.71854514
73	0x40210762	2.5160756
74	0x3f14873b	0.58018845
75	0x3e08c45a	0.13356152
76	0x3f518543	0.81843966
77	0x3f7c205b	0.9848687
78	0x3e840ee4	0.2579261
79	0x3f65f40c	0.8982551
80	0x3f1ffcec	0.62495303
81	0x3f5d4b80	0.8644333
82	0x3f6b4ae1	0.9191113
83	0x3f0d28b1	0.55140215
84	0x3fd28d93	1.6449455
85	0x3e9db7e0	0.30804348
86	0x3ea2ee7c	0.31822574
87	0x3ee33334	0.44375002
88	0x3fc8bc99	1.5682555
89	0x3f3072ce	0.6892518
90	0x3eb80a03	0.35945138
91	0x3f92419d	1.1426274
92	0x3f90706c	1.1284308
93	0x3f7c7815	0.9862073
94	0x3faaf57f	1.335617
95	0x3fa9db5c	1.3270068
96	0x3fde9746	1.7389915
97	0x3fdb5f47	1.7138451
98	0x3f89f204	1.0776982
99	0x3f46ecee	0.77705276
100	0x3f8228df	1.0168723
101	0x3fd8d2ac	1.6939292
102	0x4011d4ea	2.2786202
103	0x3eb6ac4c	0.35678327
104	0x3eb7ca2a	0.35896426
105	0x3feadfe5	1.8349577
106	0x4052e740	3.2953644
107	0x3e71819b	0.23584597
108	0x3fa1eea2	1.265095
109	0x3f0678ea	0.5252825
110	0x3ea8f88b	0.33002123
111	0x3e8d3e1c	0.27586448
112	0x3fe83b60	1.814312
113	0x3e980c23	0.2969676
114	0x3fb5fce5	1.4217802
115	0x3e7e00b0	0.2480495
116	0x3e8d9814	0.2765509
117	0x400deb1d	2.2174752
118	0x3e07cb98	0.13261259
119	0x3fec2cce	1.8451173
120	0x3eec68a4	0.46173584
121	0x3e9fc9f2	0.3120876
122	0x3f02f543	0.5115549
123	0x3e72b53e	0.23701951
124	0x3f9805e8	1.1876802
125	0x3f82ae0f	1.0209368
126	0x3fa5435f	1.2911185
127	0x3ebe42b7	0.37160274

net.1.bias f4 [128]
0	0xbe182c57	-0.14860664
1	0x3d4c3b1f	0.04986107
2	0xbe59f98f	-0.21286605
3	0xbec1d340	-0.37856483
4	0xbe9a6d57	-0.30161545
5	0xbf64ce26	-0.8937706
6	0xbee84a91	-0.4536939
7	0xbf154e6d	-0.58322793
8	0xbee8cec3	-0.45470247
9	0xbc2dd3e7	-0.0106096035
10	0xbec58222	-0.38575846
11	0xbed3ca41	-0.41365245
12	0xbe786cfa	-0.24260321
13	0x3e1977a1	0.14987041
14	0xbd6530ae	-0.055954628
15	0xbe9316c3	-0.28728303
16	0xbf1828f5	-0.59437495
17	0x3da8dc9d	0.08245204
18	0xbc16b98d	-0.009199512
19	0x3bcddf0d	0.0062826932
20	0xbef4edeb	-0.47837767
21	0xbe04f79f	-0.12985085
22	0x3e592f15	0.21209367
23	0xbf30157c	-0.6878278
24	0x3e50bd42	0.20384696
25	0xbee4dc97	-0.44699547
26	0xbeaba482	-0.33523947
27	0xbf15977a	-0.5843426
28	0xbf33002f	-0.69922155
29	0xbf0e023c	-0.5547216
30	0xbf1029a5	-0.56313545
31	0xbf0658eb	-0.5247943
32	0xbe1ccad0	-0.15311742
33	0xbf317aba	-0.6932789
34	0xbf0e78cc	-0.5565307
35	0xbed8c86f	-0.4234042
36	0xbf06fdbd	-0.52730924
37	0xbdb05d8d	-0.086115934
38	0xbe5d8ff3	-0.21636944
39	0xbf2f45f9	-0.68466145
40	0xbf34bff5	-0.70605403
41	0xbeeffc4c	-0.46872175
42	0xbe7f3ba5	-0.24925096
43	0xbf15c8f1	-0.5850974
44	0xbe7c3bcf	-0.2463219
45	0xbf027fa2	-0.50976
46	0xbeaf16fc	-0.34197223
47	0xbf1184b9	-0.56843144
48	0xbf39e013	-0.72607535
49	0xbf1e4932	-0.6183044
50	0xbf3c382f	-0.7352323
51	0xbeb008d4	-0.34381735
52	0xbf13d56c	-0.5774753
53	0xbf0b3772	-0.5438148
54	0xbe46d5e8	-0.19417536
55	0xbe86aa8e	-0.26301998
56	0xbe82d525	-0.2555324
57	0xbe109dd5	-0.14122708
58	0xbf0fae2e	-0.5612515
59	0x3dc95517	0.09830683
60	0xbeb9472b	-0.3618711
61	0xbf1ebbd5	-0.6200536
62	0xbf791871	-0.9730292
63	0xbeab92d0	-0.33510447
64	0xbd7abad9	-0.061213348
65	0xbead9e7c	-0.33909976
66	0xbdcdbd23	-0.100458406
67	0xbed81fba	-0.42211705
68	0xbf190cc8	-0.5978513
69	0xbeda642d	-0.42654553
70	0xbf120c0e	-0.57049644
71	0xbf2b0252	-0.66800416
72	0xbe715608	-0.23567975
73	0x3e9167f5	0.28399625
74	0xbcfec1e7	-0.03109832
75	0xbed6e576	-0.4197194
76	0xbee49a97	-0.44649193
77	0xbe38e3b4	-0.18055612
78	0xbf0a7608	-0.5408635
79	0xbec10876	-0.37701768
80	0xbf2fc52a	-0.68660223
81	0xbf0b14f4	-0.54328847
82	0xbe5ec615	-0.2175525
83	0xbe9fad5b	-0.31186947
84	0xbd26c57b	-0.040715676
85	0xbf2c0c4b	-0.6720626
86	0xbee88e82	-0.45421225
87	0xbf640179	-0.8906475
88	0xbec90ff3	-0.3926998
89	0xbf0a29e5	-0.53970176
90	0xbf063123	-0.52418727
91	0xbe8e7a80	-0.27827835
92	0xbf1fb7fb	-0.62390107
93	0xbe1ed333	-0.15510254
94	0xbedbc24f	-0.42921683
95	0xbdbe7207	-0.09299093
96	0x3d837354	0.064184815
97	0xbf139221	-0.5764485
98	0xbf004a5f	-0.5011348
99	0xbe893910	-0.26801348
100	0xbe6ef993	-0.23337393
101	0xbd20483a	-0.03913138
102	0x3cd1a5d4	0.025591768
103	0xbf1238d0	-0.5711794
104	0xbf222d7d	-0.6335066
105	0xbd3af855	-0.045646984
106	0x3e97509c	0.29553688
107	0xbf1855bc	-0.5950582
108	0x3cf1858d	0.029482627
109	0xbf033cfa	-0.5126492
110	0xbf3368de	-0.7008189
111	0xbf08c3bc	-0.53423667
112	0x3d213645	0.039358396
113	0xbf1e336e	-0.61797225
114	0xbecc207e	-0.3986854
115	0xbf123e34	-0.57126164
116	0xbf0dc8cc	-0.55384517
117	0xbc219a3c	-0.0098634325
118	0xbf1ea996	-0.6197752
119	0xbf821cfd	-1.0165097
120	0xbf297e41	-0.66208273
121	0xbedffb2f	-0.43746325
122	0xbe294f20	-0.1653409
123	0xbee47d3b	-0.44626793
124	0xbe725874	-0.23666555
125	0xbec9d9d8	-0.39424014
126	0xbf5ea176	-0.8696512
127	0xbf258041	-0.64648825

net.3.weight f4 [128, 128]
0	0x3fb33d03	1.4002994
1	0x3fb48037	1.4101628
2	0xbf714f76	-0.9426187
3	0x3e3dbe3e	0.18529603
4	0xbd62bceb	-0.055355947
5	0xbf4b3c9f	-0.79389375
6	0x3e0be4e1	0.13661529
7	0x3e5415ea	0.20711485
8	0xbf1b4ca8	-0.60663843
9	0xbed19b97	-0.40939018
10	0xbe4d23be	-0.20033166
11	0x3e6a67fd	0.22891231
12	0xbef62166	-0.48072356
13	0x40277766	2.6166625
14	0x3f383949	0.7196241
15	0xbcf67199	-0.030083464
16	0xbd946219	-0.07245273
17	0x3e9c424c	0.3051933
18	0x3e1f1828	0.15536559
19	0x3f6a0905	0.9142001
20	0xbf19c87d	-0.60071546
21	0x3ec225f4	0.3791958
22	0x3fc3fec5	1.5312124
23	0xbc840917	-0.016117616
24	0x3efff5a5	0.499921
25	0xbeced16b	-0.40394148
26	0xbda65180	-0.08121014
27	0xbf7a96c6	-0.9788631
28	0x3c825e68	0.015914157
29	0x3f9429dc	1.1575274
30	0x3d108add	0.03528868
31	0x3e0344d0	0.12819219
32	0x3ec42289	0.38307598
33	0x3f8059bc	1.0027385
34	0x3e913c51	0.2836633
35	0x3f211850	0.6292772
36	0xbe8e72c8	-0.27821946
37	0x3f54da28	0.8314538
38	0x3e936142	0.2878514
39	0x3e8d090b	0.27545962
40	0x3d50376e	0.050834112
41	0x3c2a5c15	0.010397931
42	0x3e8d06ef	0.27544352
43	0x3c6637d1	0.014051394
44	0x3fcf747e	1.6207426
45	0x3e8a0dc2	0.2696362
46	0x3ec609e5	0.38679424
47	0xbdb45049	-0.08804376
48	0xbde9d0bf	-0.11416768
49	0x3d82bfe5	0.06384257
50	0xbe118206	-0.14209756
51	0xbe4dff3c	-0.20116895
52	0xbd0cf229	-0.03441063
53	0x3de8a762	0.11360051
54	0x3ec9c9d1	0.39411786
55	0xbd181efc	-0.037138924
56	0x3e91f587	0.28507635
57	0xbf95bc43	-1.1698078
58	0xbf5025b3	-0.81307524
59	0xbe9bfcf2	-0.3046642
60	0xbe266f66	-0.16253433
61	0x3a01cbf4	0.0004951351
62	0x3f2f9bc9	0.68597084
63	0x3ec1375e	0.37737554
64	0x3dbb2536	0.09137957
65	0x3d1479b7	0.03624889
66	0x3ed58273	0.41701087
67	0x3f82c78b	1.0217146
68	0xbe730292	-0.23731449
69	0xbb95a75c	-0.00456707
70	0xbde48341	-0.11157847
71	0x3e556e0a	0.20842758
72	0x3d1af902	0.03783513
73	0xbeeca0b3	-0.46216354
74	0xbef16398	-0.47146297
75	0xbc8f6fb2	-0.017509315
76	0x3d994a96	0.07484929
77	0xbfa1ae45	-1.2631308
78	0x3dccdd9d	0.10003207
79	0x3f59db9d	0.8510073
80	0x3d0b29d9	0.033975456
81	0x3eb372b9	0.35048464
82	0x3f309a52	0.68985474
83	0x3ee8e3fa	0.45486432
84	0x3f46f05e	0.7771052
85	0x3d98c6eb	0.074598156
86	0xbe57b211	-0.2106402
87	0x3e4aec4b	0.19816701
88	0x3f2f2be5	0.6842635
89	0x3f149de9	0.5805345
90	0x3de7117c	0.11282632
91	0x3ed9732b	0.4247068
92	0x3f102b47	0.56316036
93	0xbf5ee3b7	-0.87066215
94	0xbe7a763c	-0.24459165
95	0x3e30e8bc	0.17276281
96	0x3ec46827	0.38360712
97	0xbea74214	-0.326676
98	0xbe977217	-0.2957923
99	0x3d00639c	0.031344995
100	0x3e7f1b03	0.24912648
101	0x3e390a4b	0.18070333
102	0xbdac9b92	-0.0842811
103	0x3dc187cc	0.09449729
104	0xbe5bd848	-0.21469223
105	0x3e007f1c	0.12548488
106	0xbf41ee9c	-0.75754714
107	0xbd511611	-0.051046435
108	0x3eb90c28	0.36142087
109	0x3e8c75e6	0.274337
110	0x3e58eb16	0.21183428
111	0x3cc99283	0.024605995
112	0xbede165d	-0.43376437
113	0x3de14219	0.10998935
114	0x3fd2c320	1.6465797
115	0x3d8300fc	0.06396672
116	0x3e2156ee	0.15755817
117	0x3ea4c642	0.3218251
118	0xbdf49bc7	-0.11943775
119	0x3edb91ba	0.42884618
120	0xbd661959	-0.056176517
121	0x3dabc59a	0.08387299
122	0x3ef998e5	0.48749462
123	0xbcf7c477	-0.030245049
124	0xbf6c3163	-0.9226286
125	0xbfad61ea	-1.3545506
126	0x3eab9519	0.3351219
127	0xbdf894cd	-0.121377565
128	0xbf01f8ac	-0.5077007
129	0xbea1ba12	-0.31587273
130	0xbf4a5a2f	-0.7904386
131	0xbe658435	-0.22413714
132	0xbe96d829	-0.29461792
133	0xbe8aa139	-0.27076128
134	0x3eead26b	0.4586366
135	0xbc7762d3	-0.015099245
136	0xbe6971e3	-0.2279735
137	0xbee4ad09	-0.44663265
138	0xbe6ba3bd	-0.2301168
139	0xbd9b0fb8	-0.075713575
140	0x3ee94dd3	0.45567188
141	0xbf390836	-0.72278154
142	0xbf705987	-0.9388661
143	0x3f44340d	0.76641923
144	0x3decf8ec	0.115709156
145	0xbe9b4af6	-0.30330628
146	0x3d13ed22	0.03611482
147	0x3eda7766	0.4266922
148	0x3f6087d8	0.8770728
149	0xbf0e3ac9	-0.5555845
150	0x3f3ff854	0.74988294
151	0xbed7dbbc	-0.42159832
152	0x3f9f6dec	1.245542
153	0x3e4e4548	0.20143616
154	0x3e562b5e	0.20914981
155	0x3f4952b4	0.7864182
156	0x3e0865d3	0.13320093
157	0x3f724f46	0.9465221
158	0x3e88c0d5	0.2670962
159	0x3e1092d3	0.14118509
160	0xbf426a00	-0.75942993
161	0x3fb0c333	1.380957
162	0x3e94418d	0.2895626
163	0xbd808b29	-0.06276543
164	0x3d88f18c	0.066866964
165	0x3f75225a	0.9575554
166	0xbf3080da	-0.6894661
167	0xbe6c0483	-0.23048596
168	0x3e82ee89	0.25572613
169	0xbef75c83	-0.48312768
170	0xbf1c6e09	-0.611054
171	0x3edaf2cc	0.42763364
172	0xbf2020db	-0.62550133
173	0xbd0240fa	-0.031800248
174	0x3f9cf488	1.2262125
175	0xbdf33db5	-0.11877004
176	0x3f642c35	0.89129955
177	0xbd6472a8	-0.055773407
178	0x3e2df641	0.1698847
179	0x3fb8123b	1.4380563
180	0x3f56df25	0.8393424
181	0x3cb39bdd	0.021924907
182	0xbdd773fe	-0.10520171
183	0xbf07c5da	-0.5303627
184	0xbe9a99df	-0.3019552
185	0x3f411fca	0.7543913
186	0xbf8b5837	-1.0886296
187	0x3e5ff3bf	0.21870326
188	0xbda723b8	-0.0816111
189	0x3d2815f6	0.04103657
190	0x3fd10062	1.6328242
191	0x3f306d61	0.689169
192	0x3ed474e6	0.41495436
193	0xbf0871a2	-0.5329839
194	0x3e489921	0.19589664
195	0x3eaad8a3	0.33368406
196	0xbdb71921	-0.0894034
197	0x3e847faa	0.2587865
198	0x3f22de5c	0.63620543
199	0x3ec520a3	0.38501462
200	0x3ee8a2a8	0.45436597
201	0xbe1c1998	-0.15244138
202	0x3cd2daa3	0.02573902
203	0xbe8faf55	-0.28063455
204	0x3f74d116	0.9563154
205	0xc0538b60	-3.3053818
206	0x3dc5a623	0.09650829
207	0x3f99bd7e	1.2010953
208	0x3c4452d2	0.0119826365
209	0x3d306cb1	0.043072406
210	0xbedf537f	-0.4361839
211	0xbf2dbcf4	-0.67866445
212	0x3eacbdfa	0.3373869
213	0xbd775c31	-0.060390655
214	0x3ed83654	0.4222895
215	0x3e80a18b	0.25123248
216	0x3f559537	0.8343081
217	0xbed21517	-0.41031715
218	0xbc52c64b	-0.01286466
219	0x3ebe6e68	0.37193608
220	0xbf91c4b4	-1.1388154
221	0x3d8c8715	0.06861702
222	0x3fe80141	1.8125383
223	0x3d691719	0.056906793
224	0xbf7fc7f3	-0.99914473
225	0x3ee4bf6b	0.4467729
226	0x3f1c8e1f	0.6115436
227	0xbe130543	-0.14357476
228	0x3e8f675a	0.28008538
229	0x3f6da186	0.9282459
230	0x3f0b64e7	0.5445084
231	0x3e401fb7	0.18762098
232	0x3eb85d24	0.3600856
233	0x3fc3b780	1.5290375
234	0xbf989c27	-1.1922654
235	0xbdf699f3	-0.12041082
236	0x3f351579	0.7073589
237	0x3f4ea63e	0.80722415
238	0x3e05e014	0.1307376
239	0x3e8cd888	0.2750895
240	0x3f3881ee	0.72073257
241	0xbc98f097	-0.01866941
242	0x3f044e7f	0.51682276
243	0xbd1a0e0b	-0.03761105
244	0x3cf17a8f	0.029477386
245	0x3c32f704	0.010923151
246	0x3c88ef44	0.016715653
247	0x3f2ecbe9	0.6827989
248	0xbef8811c	-0.48536003
249	0x3f68ebca	0.90984786
250	0xbe548f37	-0.20757757
251	0x3d9c26be	0.07624577
252	0x3f89741d	1.073856
253	0xbfa0b4b1	-1.2555143
254	0x3dfe6719	0.12422008
255	0x3efd1607	0.49430868

net.3.bias f4 [128]
0	0xbf8a6c8f	-1.081438
1	0x3f2028b8	0.6256213
2	0x3f1a5c55	0.6029714
3	0x3f8b99e1	1.0906335
4	0x3f0e655a	0.556234
5	0x3ea0416d	0.31299916
6	0xbed644c8	-0.4184935
7	0xbeb76410	-0.3581853
8	0x3f23574d	0.63805085
9	0x3ed9e05e	0.4255399
10	0x3f8aaa6e	1.0833261
11	0x3cfc8f14	0.030829944
12	0x3e29312d	0.16522665
13	0x3ff60ebc	1.9223247
14	0x3f317657	0.693212
15	0x3efd92c2	0.4952603
16	0x3ffe8188	1.988328
17	0x3fb316cd	1.3991333
18	0x3ffcf2fc	1.9761653
19	0x3f5b69e5	0.8570846
20	0x3f59b719	0.8504501
21	0xbe8bea68	-0.27327275
22	0x3e8d2a20	0.275712
23	0xbc06bc99	-0.008223676
24	0xbf2508d9	-0.64466625
25	0x3d506fd1	0.050887886
26	0x3f090555	0.5352376
27	0x3fd3baa6	1.6541336
28	0x3dd3126d	0.10306249
29	0x3fa7ea94	1.3118463
30	0x3fd03226	1.6265304
31	0x3f966887	1.1750649
32	0x400284bc	2.0393515
33	0x3e570aef	0.21000265
34	0x3f154a3a	0.58316386
35	0x3f898315	1.0743128
36	0x3fe98095	1.8242365
37	0xbe339dea	-0.17540708
38	0x3ff06f53	1.8783973
39	0x3f141268	0.57840586
40	0x3d806670	0.062695384
41	0x3ea223e9	0.31668022
42	0x3ec90a63	0.39265737
43	0x3ec3d809	0.3825076
44	0x40060435	2.0940068
45	0xbe7b89e8	-0.24564326
46	0x3ff43cfd	1.9081112
47	0x400257ef	2.036617
48	0x3efdb1d0	0.49549723
49	0x3fca2ef2	1.5795577
50	0xbf064e16	-0.524629
51	0x3f38fa8c	0.72257304
52	0x3dd2bfe7	0.10290509
53	0xbda53f4e	-0.08068715
54	0x3f67b278	0.90506697
55	0x3e8788b2	0.26471478
56	0x3eb7f918	0.3593223
57	0xbe0497be	-0.1294851
58	0x3f19355f	0.5984706
59	0xbe36ff91	-0.17870928
60	0x3ebaf563	0.3651534
61	0x3f50a25e	0.8149775
62	0x3ede08c0	0.4336605
63	0x3fd8e5e4	1.6945157
64	0x3ff9452e	1.9474237
65	0x3f277166	0.6540741
66	0x3e85b579	0.26115015
67	0x3f5fbdf8	0.87399244
68	0x3e0cda53	0.13755159
69	0x3fef864e	1.8712862
70	0xbeafe98b	-0.34357867
71	0xbe265f5c	-0.16247314
72	0x3e9f05bb	0.3105906
73	0x3ed6ea32	0.41975552
74	0xbf347380	-0.7048874
75	0x3f8d06ea	1.1017735
76	0x3ec452bc	0.3834437
77	0x3ed345b2	0.4126411
78	0x3eba52f8	0.36391425
79	0x3f4c36df	0.79771227
80	0x3c81e534	0.015856363
81	0xbcf9201e	-0.030410822
82	0xbea38848	-0.31939912
83	0x3fd4c498	1.6622496
84	0x3db1e24f	0.08685743
85	0xbf1d241e	-0.61383235
86	0x3ffa77c9	1.9567806
87	0xbe58f304	-0.21186453
88	0x3f313369	0.6921907
89	0x3feae0ef	1.8349894
90	0x3db7fb58	0.08983487
91	0x3f067812	0.5252696
92	0x3ea730bb	0.32654366
93	0x3ff1e285	1.8897253
94	0x3eb2e813	0.34942684
95	0x3f230aa2	0.636881
96	0x3f4aa635	0.7915986
97	0x3eacce90	0.33751345
98	0x3f3fa551	0.7486163
99	0x3fd45522	1.658848
100	0x3f2b5940	0.6693306
101	0x3f4dea43	0.8043558
102	0x3f53c5d0	0.8272371
103	0xbe8ae442	-0.27127272
104	0x3f52f04a	0.823979
105	0xbebb98d2	-0.3664003
106	0x3cdeae64	0.027182765
107	0xbdd1c41c	-0.10242483
108	0x3f5c9c2c	0.861758
109	0x3f42a6f3	0.76035994
110	0xbbfbafda	-0.0076808752
111	0x3e92d3ce	0.2867722
112	0x3e0cea6e	0.13761303
113	0x3f1602d3	0.5859806
114	0x3ec14bd5	0.37753168
115	0x3f9828d7	1.1887463
116	0x3ee343b0	0.4438758
117	0x3d88a698	0.066724
118	0x3dd89c83	0.10576727
119	0x3e30a96b	0.17252128
120	0x3f3a4091	0.7275477
121	0xbd9e5afa	-0.07732196
122	0x3ee002f9	0.43752268
123	0x3e1b592c	0.15170735
124	0x3f110963	0.5665495
125	0x4000e69e	2.0140758
126	0x3f3a9965	0.7289031
127	0x3fa0fb78	1.2576742

net.4.weight f4 [128]
0	0x401b7eea	2.4296212
1	0x3f9a342d	1.2047173
2	0x3f5ee1ae	0.8706311
3	0x3e210dc0	0.15727901
4	0x3f951ecd	1.1650025
5	0x3fd86c87	1.690812
6	0x4051bc7c	3.2771292
7	0x3ff80087	1.9375161
8	0x3f6836b1	0.9070845
9	0x3fb1f200	1.3901978
10	0x3f933c5b	1.1502794
11	0x3f9713b9	1.1802894
12	0x3fb8aa2d	1.4426934
13	0x3e6b6f77	0.22991739
14	0x3f9f476d	1.2443672
15	0x3faadcf6	1.3348682
16	0x3e888417	0.26663277
17	0x3f6f877e	0.9356612
18	0x3e596fc4	0.21234041
19	0x3f3e037d	0.7422407
20	0x3f62e979	0.886375
21	0x40428600	3.0394287
22	0x4039018b	2.8907192
23	0x3ff5def3	1.9208664
24	0x40138cc3	2.3054664
25	0x4015651e	2.3342967
26	0x3fd1137c	1.6334071
27	0x3e1b99c7	0.1519538
28	0x3fbecac3	1.4905628
29	0x3f6e36d0	0.9305239
30	0x3ebd1833	0.36932525
31	0x3f8ed506	1.115876
32	0x3e336b90	0.175215
33	0x3fb2232a	1.3916981
34	0x3fcf8684	1.6212926
35	0x3f6a1034	0.91430974
36	0x3e7743bb	0.24146931
37	0x3ffa3fb0	1.9550686
38	0x3e7f376f	0.2492349
39	0x3f443773	0.7664711
40	0x402afe78	2.6717815
41	0x3ff25502	1.8932192
42	0x3f99c096	1.2011898
43	0x3f616f98	0.88060904
44	0x3e7fc3c7	0.24977027
45	0x4006a2d5	2.1036885
46	0x3e2112ef	0.15729879
47	0x3e616f49	0.22015108
48	0x3fb64f02	1.4242861
49	0x3ebea000	0.37231445
50	0x3fe609b1	1.7971708
51	0x3f815992	1.010546
52	0x3fab772c	1.3395743
53	0x3fc9aead	1.5756432
54	0x3f80a048	1.0048914
55	0x3f500b24	0.81267
56	0x3fbf37a7	1.4938859
57	0x3fac6df8	1.347106
58	0x3fa0493e	1.2522352
59	0x4026551d	2.598945
60	0x3f9abe6e	1.2089365
61	0x3f478bce	0.779477
62	0x3fc9e334	1.5772462
63	0x3e87c8e5	0.26520458
64	0x3e601305	0.21882255
65	0x3f89a40e	1.075319
66	0x3f9a6223	1.2061199
67	0x3fa7303f	1.3061599
68	0x3f6bf717	0.92173904
69	0x3e7389ba	0.23783007
70	0x400001ae	2.0001025
71	0x401b3c33	2.4255493
72	0x3fa8890c	1.3166823
73	0x3f84f2ef	1.0386637
74	0x40157e63	2.335839
75	0x3f91d2d1	1.1392461
76	0x3f4c0dc1	0.79708487
77	0x3f7f89ba	0.9981953
78	0x3fe3ea7c	1.7805934
79	0x3f8a6d91	1.0814687
80	0x40216693	2.5218856
81	0x3fe68dbb	1.8012003
82	0x3fd20487	1.6407632
83	0x3ea8f252	0.32997376
84	0x3fe61ea8	1.7978106
85	0x40121559	2.282553
86	0x3e76dbdf	0.24107312
87	0x3fafff60	1.3749809
88	0x3fb94230	1.4473324
89	0x3e7ff6c6	0.2499648
90	0x3faf1472	1.3678114
91	0x40004014	2.003911
92	0x3fd933c5	1.6968924
93	0x3eb18d1c	0.3467797
94	0x3fdb8b65	1.7151915
95	0x3f6ab784	0.9168627
96	0x3f0a313b	0.5398137
97	0x3f9a2b2a	1.2044423
98	0x3f70013c	0.93751884
99	0x3ec2425f	0.37941262
100	0x400717e1	2.1108325
101	0x3f55ad27	0.83467335
102	0x3f5cbd29	0.86226135
103	0x401afaf3	2.4215667
104	0x3fbd4f3d	1.4789807
105	0x3f953f4e	1.1659944
106	0x3fc7b9a9	1.5603534
107	0x400769c1	2.1158297
108	0x3f84959b	1.0358156
109	0x3f2eb3d4	0.68243146
110	0x3fa23814	1.2673364
111	0x3fb54ffc	1.4165034
112	0x4006fbad	2.109111
113	0x3fb5b123	1.4194683
114	0x40204e7e	2.5047908
115	0x3f37a3f2	0.71734536
116	0x3f654888	0.895638
117	0x3fa02770	1.2512035
118	0x3fff3fec	1.9941382
119	0x400141b9	2.0196364
120	0x3f9c7b69	1.2225162
121	0x3faaccf5	1.3343798
122	0x3fb2940f	1.3951434
123	0x3f909e51	1.1298314
124	0x3faf01da	1.367244
125	0x3e4b4643	0.19851021
126	0x3f242914	0.6412518
127	0x3efac060	0.48974895

net.4.bias f4 [128]
0	0xbd8f031a	-0.069830135
1	0xbecf527f	-0.40492627
2	0xbf886366	-1.0655334
3	0xbee95762	-0.4557448
4	0xbea87ea0	-0.32909107
5	0xbf05dcf7	-0.5229029
6	0xbd5b8d4e	-0.053601556
7	0xbed02e9c	-0.4066056
8	0xbf46a6ed	-0.7759846
9	0xbf55cd44	-0.83516335
10	0xbf122c22	-0.5709859
11	0xbe7515bc	-0.23934072
12	0xbf22e07e	-0.636238
13	0xbf37cf25	-0.7180045
14	0xbe0aea61	-0.13565971
15	0xbebf2682	-0.37334067
16	0xbf6cd120	-0.925066
17	0xbd60d9ea	-0.05489532
18	0xbf346845	-0.704716
19	0xbf53daac	-0.8275554
20	0xbf34b50b	-0.7058875
21	0xbe8838c7	-0.26605818
22	0xbe9fcae2	-0.31209475
23	0xbf06d56c	-0.52669406
24	0xbeb0a511	-0.34500936
25	0xbecd4b9b	-0.40096745
26	0xbf4c7cd7	-0.7987799
27	0xbf0040f0	-0.50099087
28	0xbf54435e	-0.82915294
29	0xbf86d650	-1.0534153
30	0xbf5f1d5f	-0.8715419
31	0xbe21e4f9	-0.15810002
32	0xbf2d7f92	-0.6777278
33	0xbed5b4e6	-0.41739577
34	0x3da24dd4	0.07925001
35	0xbea4229e	-0.3205766
36	0xbf018153	-0.5058796
37	0xbe714e78	-0.2356509
38	0xbf25bc5f	-0.64740556
39	0xbf2698c1	-0.65076834
40	0xbf0fa1f1	-0.5610648
41	0xbf168578	-0.5879741
42	0xbde85790	-0.11344826
43	0xbf055647	-0.52084774
44	0xbf26c054	-0.6513722
45	0xbdf7c538	-0.12098163
46	0xbf5163cf	-0.8179292
47	0xbf457889	-0.7713705
48	0xbda17a68	-0.07884675
49	0xbf65b3fa	-0.8972775
50	0xbe70f478	-0.23530757
51	0xbf78eb09	-0.97233635
52	0xbf3bb4d8	-0.7332282
53	0xbef75595	-0.4830748
54	0xbf6b3982	-0.91884625
55	0xbe948bce	-0.29012913
56	0xbf3ef546	-0.7459301
57	0xbe8e1f08	-0.2775805
58	0xbf4b2bf6	-0.79363954
59	0xbd688e83	-0.056776535
60	0xbf3d4a36	-0.7394136
61	0xbf5fcdb1	-0.87423235
62	0xbf62d011	-0.88598734
63	0xbf490eac	-0.7853801
64	0xbf379e03	-0.7172548
65	0xbf166af6	-0.5875696
66	0xbe2faa58	-0.17154825
67	0xbf818c8e	-1.0121019
68	0xbf466a24	-0.7750571
69	0xbf2535d6	-0.6453527
70	0xbf2e4f5c	-0.6808984
71	0xbee8dd2f	-0.4548125
72	0xbf2b3a5e	-0.66885936
73	0x3c17d6a8	0.009267487
74	0xbe973408	-0.29531884
75	0xbe9fc308	-0.31203485
76	0xbf45973f	-0.7718391
77	0xbecaa084	-0.3957559
78	0xbec99ecb	-0.39378962
79	0xbeeb06ca	-0.45903617
80	0x3d799258	0.06093058
81	0xbeaa38e3	-0.33246526
82	0xbe04a67f	-0.12954138
83	0xbf55b134	-0.83473516
84	0xbcf1d1e7	-0.029519035
85	0xbec3b725	-0.38225666
86	0xbf524e45	-0.8215068
87	0xbed6b949	-0.41938236
88	0xbd874489	-0.06604869
89	0xbf3bc0e9	-0.7334123
90	0xbf05b186	-0.52224004
91	0xbec8b613	-0.39201412
92	0xbec3fb91	-0.38277867
93	0xbf55baf3	-0.83488387
94	0xbf07a5bd	-0.5298727
95	0xbf44c268	-0.7685914
96	0xbefb02f3	-0.49025688
97	0xbee5eba6	-0.44906348
98	0xbf500acc	-0.81266475
99	0xbf61ba8a	-0.8817526
100	0xbf5a2f97	-0.85228866
101	0xbf85a255	-1.0440165
102	0xbf451f13	-0.7700054
103	0xbd75f28d	-0.060045768
104	0xbf14e2fc	-0.5815885
105	0xbe41575d	-0.18880983
106	0xbe7e75b0	-0.24849582
107	0xbf07af7b	-0.53002137
108	0xbea78886	-0.32721347
109	0xbf1d838e	-0.6152886
110	0xbf02ccd7	-0.5109381
111	0xbf012cf1	-0.504592
112	0xbe1309ec	-0.14359254
113	0xbf2b4d87	-0.6691517
114	0xbe8ebd92	-0.27879006
115	0xbf3de1ab	-0.74172467
116	0xbea94681	-0.33061603
117	0xbd1bffa7	-0.038085606
118	0xbe27b023	-0.16375785
119	0x3da601c7	0.08105808
120	0xbf5f0340	-0.87114334
121	0xbf3c847b	-0.7363965
122	0xbe85e6ee	-0.26152748
123	0xbe6a78fb	-0.22897713
124	0xbf125a69	-0.57169205
125	0xbf442e4d	-0.7663315
126	0xbf302050	-0.68799305
127	0xbf6e9890	-0.9320154

net.6.weight f4 [128, 128]
0	0x3e0449b6	0.12918743
1	0x3f4b0671	0.79306704
2	0x3ef42ddc	0.47691238
3	0x3ef71f75	0.48266187
4	0x3ebb6ddd	0.36607257
5	0x3f3ecda6	0.74532545
6	0x3ca5c3f4	0.02023504
7	0x3ed4e00e	0.4157719
8	0x3f0d582d	0.5521267
9	0x3e6d5c99	0.23179854
10	0x3f3ea195	0.74465305
11	0x3f86f4e1	1.0543481
12	0x3e6b4296	0.2297462
13	0x3e3307a5	0.17483385
14	0x3f988929	1.1916858
15	0x3eaaa661	0.33330062
16	0x3e559716	0.20858416
17	0x3f3272ea	0.69706595
18	0x3e12d0c4	0.1433745
19	0x3ec300c5	0.38086525
20	0xbe505f21	-0.20348789
21	0x3f121f09	0.57078606
22	0x3ea31e76	0.31859177
23	0x3ef48f15	0.47765413
24	0x3fa8c02f	1.318365
25	0xbd97df5a	-0.07415648
26	0x3f5efbfc	0.8710325
27	0x3f026931	0.5094176
28	0x3ee2fcf0	0.443336
29	0x3ef64a03	0.4810334
30	0x3eebfca4	0.46091187
31	0x3f284b49	0.65739876
32	0xbabb8461	-0.001430642
33	0x3f058bf5	0.5216668
34	0xbda4e241	-0.08050967
35	0x3f279055	0.6545461
36	0x3de8aa4a	0.11360605
37	0x3f61fe65	0.882788
38	0x3e594a3e	0.21219727
39	0x3edab1a6	0.4271366
40	0xbde8afcd	-0.11361656
41	0x3e69bb5c	0.22825378
42	0xbd26f1c3	-0.040757906
43	0x3f262848	0.64905214
44	0x3e095c84	0.13414198
45	0x3dd98001	0.10620118
46	0xbd175e36	-0.03695508
47	0x3e4bf114	0.19916183
48	0x3f41c252	0.75687134
49	0x3ecceaac	0.4002279
50	0x3f5fef7b	0.87474793
51	0x3e0d96b3	0.13827018
52	0x3cc050e0	0.023476064
53	0x3e924229	0.285661
54	0xbe85bd03	-0.26120767
55	0x3e34bc6e	0.17650005
56	0x3deb7557	0.1149699
57	0x3e3a0073	0.18164234
58	0x3f492405	0.78570586
59	0x3b9dcaa6	0.0048154173
60	0x3ede1509	0.43375424
61	0x3f082734	0.5318482
62	0x3e8dcee6	0.27696913
63	0xbe250c5f	-0.16118
64	0x3dc2677b	0.094923936
65	0xbf388206	-0.720734
66	0x3f080065	0.531256
67	0x3ecd40bc	0.4008845
68	0xbe9abeb3	-0.30223617
69	0x3eb0fa23	0.3456584
70	0x3f83d6d1	1.0299932
71	0x3eee951a	0.4659813
72	0x3edd5dd0	0.43235636
73	0x3ed82f00	0.42223358
74	0x3efc86c8	0.4932158
75	0x3f60f507	0.8787388
76	0x3e215bd5	0.15757687
77	0x3eaf33b0	0.34219122
78	0xbebbafe8	-0.36657643
79	0x3f2b8a1e	0.67007625
80	0x3f2e14ff	0.6800079
81	0x3f8fe154	1.124064
82	0x3dd6489f	0.1046307
83	0x3f03bf16	0.5146345
84	0xbea233c5	-0.31680122
85	0x3f0761ae	0.5288342
86	0x3e013cb4	0.12620813
87	0xbea79bc1	-0.32736018
88	0x3f04e2ed	0.5190876
89	0x3dd65ac6	0.104665324
90	0x3f101b62	0.5629178
91	0xbde0b5b8	-0.1097216
92	0x3fabb94a	1.3415921
93	0x3eb7e2d6	0.3591525
94	0x3ebd36b2	0.36955792
95	0x3f5aa5fe	0.85409534
96	0x3f3a0bb5	0.72674114
97	0x3e1f6df4	0.15569288
98	0xbd476343	-0.048678648
99	0x3d2aa28c	0.041658923
100	0x3e8249ff	0.2544708
101	0x3e288013	0.16455106
102	0x3edec49e	0.43509382
103	0x3e27a687	0.16372119
104	0xbd303911	-0.043023173
105	0x3ea9ae9d	0.33141032
106	0x3f1bfbd0	0.6093111
107	0x3eb3df4f	0.35131308
108	0x3f29ce19	0.66330105
109	0x3f0bc2bd	0.5459402
110	0x3f19272e	0.5982541
111	0xbdde18df	-0.108445875
112	0xbf4e8cc7	-0.8068356
113	0x3eee1a2b	0.4650434
114	0x3f5a13dc	0.85186553
115	0x3f32b16b	0.6980197
116	0x3eeb902f	0.4600844
117	0x3dd57686	0.10422997
118	0x3e3caed4	0.18426067
119	0x3e8a5d16	0.27024144
120	0x3f1f7052	0.6228076
121	0x3e2ad1fc	0.16681665
122	0x3ec5ed12	0.38657433
123	0x3c9dd547	0.019266738
124	0x3fa018f1	1.2507612
125	0x3e94cf58	0.2906444
126	0x3f25af5b	0.64720696
127	0x3efe73f3	0.49697837
128	0x3e9133d8	0.28359866
129	0x3e7c95ec	0.24666566
130	0x3efc073f	0.49224278
131	0x3e4b90e5	0.19879492
132	0x3f30e9e6	0.691069
133	0xbd215933	-0.039391708
134	0xbe4d856c	-0.20070428
135	0x3f95ea2b	1.1712087
136	0x3e925be0	0.2858572
137	0x3f505fe7	0.81396335
138	0x3f278a70	0.65445614
139	0xbf97ba57	-1.1853741
140	0x3f0823bd	0.5317953
141	0xbb3ee118	-0.0029125866
142	0xbeecbf09	-0.46239498
143	0x3e9b985e	0.30389684
144	0xbe9de723	-0.30840406
145	0x3f16d0e6	0.58912504
146	0x3d4556be	0.048178427
147	0x3f586dee	0.8454274
148	0x3eb0c140	0.34522438
149	0x3f8374a2	1.0269969
150	0x3e92b876	0.28656358
151	0x3f19147d	0.5979689
152	0x3d87e736	0.06635897
153	0x3f8b979a	1.090564
154	0x3f8cfa90	1.1013966
155	0x3eab5f67	0.33471224
156	0x3e1a0b4f	0.15043376
157	0x3e533c39	0.20628442
158	0x3e5f8644	0.21828562
159	0x3e5e28b7	0.21695219
160	0x3d188711	0.037238184
161	0x3e9fb513	0.31192836
162	0x3eb831f9	0.35975626
163	0x3f26fff4	0.65234303
164	0xbb7d4d94	-0.0038650976
165	0x3e7434ea	0.2384831
166	0x3e0fcf0d	0.14043827
167	0xbd0bb777	-0.034110513
168	0x3d99579b	0.074874125
169	0x3f621eb0	0.88328075
170	0x3dfcdce4	0.12346819
171	0x3f4bbe6a	0.79587424
172	0x3c673abe	0.014113126
173	0x3f2041c8	0.62600374
174	0xbe27e8c4	-0.16397387
175	0xbe197048	-0.14984238
176	0x3f50730d	0.81425554
177	0x3ea26752	0.31719452
178	0x3e229a2b	0.15879123
179	0x3f753e9d	0.95798665
180	0x3e81f91b	0.25385365
181	0xbdb4f697	-0.08836096
182	0x3e46cb11	0.19413401
183	0xbe84a3b7	-0.25906155
184	0xbd06ba44	-0.03289248
185	0x3daf308d	0.08554182
186	0x3f481ee7	0.78172153
187	0x3f065d5c	0.52486205
188	0x3e3bf28e	0.18354246
189	0x3e822db7	0.25425503
190	0x3f001df1	0.50045687
191	0xbe03d227	-0.12873136
192	0x3d259038	0.04042074
193	0x3ebe31c0	0.3714733
194	0xbe7820d5	-0.24231274
195	0x3f6f496d	0.93471414
196	0x3f52032d	0.82036096
197	0x3e08514e	0.13312265
198	0x3f47db61	0.7806912
199	0x3b0a6199	0.0021115302
200	0x3f539b65	0.8265899
201	0x3e7738d9	0.2414278
202	0x3f1c00a1	0.6093846
203	0x3eec346d	0.46133748
204	0x3eca8013	0.39550838
205	0x3e8f950e	0.28043407
206	0x3f10faf3	0.5663292
207	0x3e05eb86	0.13078126
208	0x3f095036	0.5363802
209	0xbf3dcec9	-0.74143654
210	0x3e911cc8	0.2834227
211	0x3e2074f9	0.15669622
212	0x3e792e6e	0.24334118
213	0x3f7f2adc	0.99674773
214	0x3dd6a2b5	0.10480253
215	0xbd3c9c31	-0.046047393
216	0x3ed8e44b	0.42361674
217	0x3d27d335	0.040972907
218	0x3e767888	0.24069417
219	0x3d582de9	0.05277816
220	0x3f956a21	1.1673013
221	0x3ea26c18	0.31723094
222	0x3f728a91	0.94742686
223	0x3f1343e6	0.5752548
224	0x3f1c1f89	0.6098562
225	0x3e7ebafe	0.2487602
226	0x3e1f2f9c	0.15545505
227	0x3e148166	0.14502487
228	0xbe4a77cb	-0.1977226
229	0x3ed69c70	0.41916227
230	0x3f0c1b12	0.54728806
231	0x3f5893e2	0.8460065
232	0xbe464052	-0.19360474
233	0x3f2999e4	0.66250443
234	0x3dd17efa	0.10229297
235	0x3f0fd7cc	0.56188655
236	0x3f6dfb86	0.9296192
237	0x3f03471a	0.5128037
238	0x3f0bf742	0.5467416
239	0xbe59c1f9	-0.21265401
240	0x3c6f52d6	0.014607152
241	0xbdfe68ed	-0.12422357
242	0x3f4a9b2b	0.7914302
243	0x3f10e789	0.56603295
244	0x3ecc2b44	0.3987676
245	0x3eea2198	0.45728755
246	0x3f261b6c	0.6488559
247	0xbcebdd99	-0.02879219
248	0x3fa4608f	1.2841967
249	0xbf27c164	-0.65529466
250	0x3ed26fc8	0.41100907
251	0xbbe99ffd	-0.007129668
252	0xbf55db85	-0.83538085
253	0xbe428555	-0.18996175
254	0xbd4f9fc3	-0.05068947
255	0x3e717c37	0.2358254

net.6.bias f4 [128]
0	0x3f68546f	0.90753835
1	0x3f260d51	0.6486407
2	0x3f807a76	1.0037372
3	0xbe6276ad	-0.22115584
4	0x3f6dd1b4	0.92898107
5	0x3f4da68e	0.8033227
6	0x3e0ac22d	0.13550635
7	0x3f097dc8	0.5370755
8	0xbe43efa4	-0.19134384
9	0xbedc8e4d	-0.43077317
10	0x3f6c85b2	0.923915
11	0xbedd5768	-0.43230748
12	0x3f4dcdef	0.80392355
13	0x3d172f26	0.0369102
14	0xbd13efdd	-0.036117423
15	0x3edfa725	0.4368221
16	0x3eb1787b	0.34662232
17	0x3e7b1e51	0.24523284
18	0xbe766db0	-0.2406528
19	0xbf0177bc	-0.50573325
20	0x3f5df83a	0.8670689
21	0x3efdb8dc	0.495551
22	0xbef690af	-0.4815726
23	0xbfbff1c0	-1.4995651
24	0x3ee8f842	0.45501906
25	0x3f463e52	0.77438843
26	0x3f0d8032	0.55273736
27	0xbd4cb3bd	-0.0499761
28	0x3f2f7214	0.68533444
29	0xbe467701	-0.19381334
30	0x3f98b965	1.1931578
31	0xbf1994de	-0.5999278
32	0x3f24848f	0.6426477
33	0xbe64fa34	-0.2236107
34	0x3f4bd60c	0.79623485
35	0xbf0675ba	-0.52523386
36	0x3eab97ea	0.3351434
37	0x3f92efb6	1.1479404
38	0x3ebdfe5e	0.3710813
39	0xbe9bee81	-0.30455402
40	0x3f3746fb	0.7159268
41	0x3f8c353f	1.095375
42	0xbf0b7049	-0.5446821
43	0x3f0d1aed	0.5511921
44	0xbe9fe48b	-0.31229052
45	0x3e17a27a	0.14808074
46	0xbebad255	-0.36488596
47	0x3f697ebb	0.91209
48	0xbde6d38b	-0.11270817
49	0x3f3a4710	0.7276468
50	0x3f539923	0.82655543
51	0x3f5d9563	0.8655607
52	0xbe4a31f7	-0.19745623
53	0x3d8d5766	0.069014356
54	0xbf120307	-0.5703587
55	0x3ee08089	0.43848065
56	0x3f581de7	0.8442063
57	0xbc1d0078	-0.009582631
58	0xbf7cb104	-0.98707604
59	0x3f13417a	0.57521784
60	0xbf496db2	-0.78683007
61	0x3f1ec61e	0.6202105
62	0x3f7dbf18	0.9911971
63	0xbea7056b	-0.3262132
64	0x3f61dddf	0.88229173
65	0x3e8bdc4d	0.27316514
66	0x3eb9b17b	0.3626822
67	0x3ec6620f	0.38746688
68	0x3f96775c	1.1755176
69	0x3f62ca1f	0.8858966
70	0x3ea7490f	0.32672927
71	0xbe385f3a	-0.18005076
72	0x3f897c9d	1.0741154
73	0xbee9f4e0	-0.45694637
74	0x3f6b1186	0.91823614
75	0x3f244cd1	0.6417971
76	0xbf6b7a07	-0.91983074
77	0x3dfae0ad	0.12249885
78	0xbd7dd909	-0.06197456
79	0x3eb0052a	0.3437894
80	0xbf0187d5	-0.5059789
81	0x3f0e27e9	0.5552965
82	0x3f7b6db3	0.9821426
83	0x3f1e7c94	0.6190884
84	0x3dc2b0e4	0.095063955
85	0x3f2a0aeb	0.6642291
86	0x3ece6c1b	0.40316853
87	0x3e87fc50	0.26559687
88	0xbf888d5e	-1.0668142
89	0xbe8bb6ac	-0.27287805
90	0x3f4025fe	0.7505797
91	0x3df1f1f6	0.118137285
92	0x3f0a89ab	0.54116315
93	0xbf8f1017	-1.1176785
94	0x3f85fddb	1.0468096
95	0x3e616fd5	0.22015317
96	0x3f2cb30a	0.6746069
97	0x3e10e045	0.14148052
98	0x3f5a9659	0.8538566
99	0xbedb4320	-0.4282465
100	0x3f7a306e	0.9773015
101	0x3d9d5539	0.076822706
102	0x3e9b0b68	0.3028214
103	0x3ec0679d	0.3757905
104	0x3e886339	0.266382
105	0xbdccd0cd	-0.10000763
106	0x3fa8f462	1.319958
107	0x3dfd27ee	0.123611316
108	0x3f9fcf8c	1.2485213
109	0x3ee17571	0.44034913
110	0x3f08cb95	0.5343564
111	0xbed32ed6	-0.4124667
112	0x3eb9af3a	0.362665
113	0x3e639078	0.22223079
114	0x3ee8efeb	0.45495543
115	0x3f57b03f	0.84253305
116	0x3f9c3aec	1.2205482
117	0x3f1a9e58	0.60397863
118	0x3e7543cb	0.23951642
119	0x3eb15263	0.3463317
120	0x3ea0c893	0.31403026
121	0xbf99754f	-1.1988925
122	0x3f15c40c	0.5850227
123	0xbe44e7b5	-0.19229014
124	0x3e4b6dd1	0.1986611
125	0x3f6aee46	0.91769826
126	0xbe85b39a	-0.26113588
127	0x3f097a48	0.5370221

net.7.weight f4 [128]
0	0x3ea90afd	0.33016196
1	0x3ec874da	0.3915165
2	0x3ea7b101	0.3275223
3	0x3eb9266e	0.36162132
4	0x3e9329e7	0.28742906
5	0x3eb6443b	0.3559893
6	0x3ee724c3	0.45145234
7	0x3e79bbcb	0.24388044
8	0x3eaf9e48	0.34300447
9	0x3f0850e2	0.5324842
10	0x3e97976d	0.29607716
11	0x3f6874ef	0.90803427
12	0x3eafbbb8	0.34322906
13	0x3f3e6e89	0.74387413
14	0x3eeae5d1	0.4587846
15	0x3ebe7973	0.37202033
16	0x3e81129f	0.2520952
17	0x3eef7028	0.46765256
18	0x3f98cd8d	1.1937729
19	0x3eb47f46	0.35253352
20	0x3eb8c24e	0.36085743
21	0x3ee9f0fe	0.45691675
22	0x3ed9148d	0.42398492
23	0x3fb54234	1.4160829
24	0x3ec85557	0.3912761
25	0x3ec8e500	0.39237213
26	0x3ed9ea48	0.42561555
27	0x3ef72dd9	0.48277166
28	0x3eb4d835	0.35321203
29	0x3f84df48	1.038064
30	0x3e110bce	0.1416466
31	0x3f9ab315	1.2085901
32	0x3eb6ce80	0.35704422
33	0x3ea62bb1	0.3245521
34	0x3eb9f3de	0.36318868
35	0x3f670f48	0.9025769
36	0x3eb7ce1a	0.3589943
37	0x3e3369e8	0.17520869
38	0x3ef7dc83	0.48410425
39	0x3eec22fd	0.46120444
40	0x3ebc3a2e	0.36763138
41	0x3e77413e	0.24145982
42	0x3fb7571d	1.432346
43	0x3ef6da36	0.48213357
44	0x3e3d360d	0.1847765
45	0x3f68c042	0.9091836
46	0x3f3baf2e	0.7331418
47	0x3e73dac8	0.23813927
48	0x3f3f03e6	0.74615324
49	0x3ebe9b06	0.37227648
50	0x3edb990e	0.4289021
51	0x3ea72335	0.32644048
52	0x3f07f403	0.5310671
53	0x3ee694e5	0.45035473
54	0x3e932c98	0.2874496
55	0x3f096676	0.5367197
56	0x3eb4b3ee	0.35293525
57	0x3f5c693b	0.8609807
58	0x3f98e3db	1.1944536
59	0x3e9698a7	0.2941334
60	0x3f39795a	0.7245079
61	0x3ee1e5dd	0.44120684
62	0x3e6a544a	0.22883716
63	0x3f68ce2e	0.90939605
64	0x3e6ead4b	0.23308294
65	0x3eae84f9	0.34085825
66	0x3ea91a8b	0.33028063
67	0x3ef18eaa	0.47179157
68	0x3e4303fd	0.1904449
69	0x3e465dce	0.19371721
70	0x3ed6ffc9	0.41992024
71	0x3f46843b	0.7754552
72	0x3e4db81b	0.20089762
73	0x3f7c820c	0.98635936
74	0x3ea173be	0.31533617
75	0x3eca3890	0.3949628
76	0x3f79a039	0.97510105
77	0x3e4704af	0.1943538
78	0x3f63b18e	0.889428
79	0x3eedeb0d	0.46468392
80	0x3f21c9c2	0.63198483
81	0x3f092a34	0.5358002
82	0x3e8dcd5b	0.27695736
83	0x3eae039e	0.33987135
84	0x3ec5aecf	0.3860993
85	0x3e6b32ee	0.22968647
86	0x3f0b82b1	0.54496294
87	0x3e5b65a4	0.21425492
88	0x3e9adf9f	0.30248734
89	0x3f258bdd	0.6466654
90	0x3ea9d235	0.33168188
91	0x3f256c8f	0.6461877
92	0x3f0eee43	0.5583231
93	0x3fa8c4ee	1.3185098
94	0x3e6df3c2	0.23237517
95	0x3e59698c	0.21231669
96	0x3eae3277	0.34022877
97	0x3e780e78	0.2422427
98	0x3e94c565	0.2905685
99	0x3f80fcee	1.0077188
100	0x3e88f082	0.26745993
101	0x3eda933b	0.42690453
102	0x3f0411cb	0.5158965
103	0x3ef6e1ad	0.48219052
104	0x3eeeb319	0.46621016
105	0x3f0c0cc1	0.5470696
106	0x3e3d3c10	0.18479943
107	0x3f6c4f02	0.92308056
108	0x3e22baa8	0.15891516
109	0x3eb4f0ab	0.35339865
110	0x3ef1cff7	0.47228977
111	0x3f72e160	0.94875145
112	0x3f00c89d	0.5030611
113	0x3e25086e	0.16116497
114	0x3e899ea4	0.26878846
115	0x3eb20e43	0.34776506
116	0x3e4abe46	0.19799146
117	0x3e835553	0.25651035
118	0x3eb8b9ce	0.36079258
119	0x3e1bcb1e	0.15214202
120	0x3ecfa43e	0.40554994
121	0x3f6cdd25	0.9252494
122	0x3eab940d	0.3351139
123	0x3f4229cb	0.7584502
124	0x3ee35b01	0.44405368
125	0x3e556c60	0.20842123
126	0x3e9e1277	0.30873463
127	0x3edc887d	0.43072882

net.7.bias f4 [128]
0	0xbf3fe0e8	-0.74952555
1	0xbf072aba	-0.5279957
2	0xbf3dfd45	-0.74214584
3	0xbf3b86a9	-0.7325235
4	0xbf1c7c28	-0.6112695
5	0xbf12f540	-0.5740547
6	0xbf09fed5	-0.5390447
7	0xbf262d8f	-0.64913267
8	0xbf35d554	-0.7102864
9	0xbf3948d9	-0.7237678
10	0xbf17e773	-0.5933754
11	0x3cc56aab	0.024098715
12	0xbf147987	-0.57997936
13	0xbef1f68d	-0.47258416
14	0xbf51a8d7	-0.81898254
15	0x3ea5a68f	0.32353637
16	0xbf1d8ea0	-0.61545753
17	0xbf49d5e4	-0.78841996
18	0xbf325061	-0.696539
19	0xbf4ba8bc	-0.79554343
20	0xbf0129f2	-0.5045463
21	0xbf02ce9d	-0.51096517
22	0xbf4e035c	-0.80473876
23	0xbe9c9966	-0.30585784
24	0xbf1a0e0b	-0.6017768
25	0xbf62db1b	-0.8861558
26	0xbf29ccd2	-0.66328156
27	0xbf11bdc6	-0.56930196
28	0xbf128cc5	-0.5724605
29	0xbca2ffaf	-0.01989731
30	0xbf4b0e80	-0.79319
31	0xbae2ae7f	-0.0017294436
32	0xbf107fad	-0.5644482
33	0xbf2b202d	-0.6684597
34	0xbf09b963	-0.537985
35	0xbf01fa51	-0.5077258
36	0xbf251e34	-0.6449921
37	0xbf2c1b02	-0.6722871
38	0xbf107b52	-0.5643817
39	0xbed50d05	-0.41611496
40	0xbf06b175	-0.5261453
41	0xbf369a44	-0.7132914
42	0x3cbd57e5	0.0231132
43	0xbf0ff039	-0.56225926
44	0xbf212fc0	-0.62963486
45	0xbef0d419	-0.47036818
46	0xbe4c356f	-0.19942258
47	0xbf463c05	-0.7743533
48	0xbef6ba5b	-0.48189053
49	0xbf1eaaa1	-0.6197911
50	0xbf158d72	-0.58418953
51	0xbf1aa421	-0.6040669
52	0xbf3cd32c	-0.7375972
53	0xbf3426f8	-0.7037196
54	0xbf384b51	-0.71989924
55	0xbf01fd65	-0.50777274
56	0xbf1ffb14	-0.6249249
57	0xbf2a4449	-0.66510445
58	0xbeb80409	-0.3594058
59	0xbf1e3620	-0.6180134
60	0xbf3027ef	-0.68810934
61	0xbef6a274	-0.48170817
62	0xbf2a9939	-0.6664005
63	0xbf264bb5	-0.6495927
64	0xbf206a66	-0.6266235
65	0xbf0b245f	-0.5435237
66	0xbf15deb4	-0.58542943
67	0xbf0574e8	-0.5213151
68	0xbf45c784	-0.7725756
69	0xbf4bc6cc	-0.79600215
70	0xbf23714b	-0.63844746
71	0xbf28a926	-0.658831
72	0xbf359be8	-0.7094102
73	0xbf3aaedd	-0.7292307
74	0xbf1ab5c0	-0.6043358
75	0xbf1bdcf3	-0.60884017
76	0xbf2ce9e6	-0.675444
77	0xbf3eea6d	-0.74576455
78	0xbefa9e75	-0.48949018
79	0xbf0a2426	-0.5396141
80	0xbd56fe30	-0.052488506
81	0x3e77e81b	0.24209635
82	0xbf280eb5	-0.6564744
83	0xbf18fb93	-0.5975887
84	0xbf2a970a	-0.6663672
85	0xbf382b9a	-0.7194153
86	0xbefe7a61	-0.49702743
87	0xbeb7880a	-0.35845977
88	0xbf494f25	-0.7863639
89	0x3e4e630b	0.2015497
90	0xbf084725	-0.5323356
91	0xbf5191d5	-0.8186315
92	0x3e2b1003	0.16705327
93	0xbea7c291	-0.3276563
94	0xbf282760	-0.6568508
95	0xbf3ec33f	-0.7451667
96	0xbf244380	-0.64165497
97	0xbf40adb9	-0.7526508
98	0xbf23f736	-0.6404909
99	0xbeebfd90	-0.4609189
100	0xbf1850f7	-0.5949854
101	0xbf060388	-0.5234914
102	0xbf0b8fc1	-0.54516226
103	0xbf0b1750	-0.5433245
104	0xbf0900ae	-0.5351666
105	0xbf4b5d7c	-0.7943952
106	0xbf2133b1	-0.629695
107	0xbeef4280	-0.46730423
108	0xbf4634c3	-0.7742426
109	0xbf297206	-0.6618961
110	0xbf12ccd3	-0.57343787
111	0xbf191049	-0.59790474
112	0xbf01c2a0	-0.506876
113	0xbf4406ea	-0.7657305
114	0xbf4316dc	-0.76206756
115	0xbf147033	-0.579837
116	0xbf348fdd	-0.7053202
117	0x3e3084bd	0.17238136
118	0xbf44e737	-0.76915306
119	0xbf25945d	-0.6467951
120	0xbf115e1c	-0.56784225
121	0xbf45dcde	-0.7729014
122	0xbf60b7d4	-0.877805
123	0xbec98ae0	-0.39363766
124	0xbf0f69e4	-0.5602095
125	0xbf3dabcd	-0.7409027
126	0xbf18e66e	-0.5972661
127	0xbf0ff710	-0.5623636
