cp/Platform_psac3_dl10_d100_20000_May_30_2020_09_19_57_value2.pt (torch_old, 146147 bytes, 13 tensors)

net.0.weight f4 [128, 15]
0	0xbf94ba63	-1.1619381
1	0x3f43c1f2	0.7646781
2	0x3feb2798	1.8371458
3	0x3dc5101c	0.09622213
4	0x3e8d53a5	0.27602878
5	0x3d712daf	0.058881458
6	0x3eda760d	0.4266819
7	0xbeadb6f5	-0.33928648
8	0xbe8d6dcf	-0.2762284
9	0x3f935d3a	1.1512825
10	0xbc3f62e3	-0.011681291
11	0xc034e41f	-2.8264234
12	0x3f137084	0.5759356
13	0xbeba7ce7	-0.36423418
14	0xbda86fac	-0.08224425
15	0x3f2a2807	0.66467327
16	0x3ee752df	0.45180413
17	0x3f296c04	0.66180444
18	0x3de8460b	0.11341485
19	0x3c22e073	0.009941208
20	0xbdfc72a6	-0.12326555
21	0x3e052dda	0.13005772
22	0xbe431ca5	-0.19053896
23	0x3d8b0348	0.06787735
24	0x3c2e7b18	0.010649465
25	0xbf75ed54	-0.9606526
26	0x40870163	4.2189193
27	0x3f5fef7e	0.8747481
28	0x3f1331cc	0.5749786
29	0x3f73247e	0.9497756
30	0x3fc2c565	1.521649
31	0xbfb11666	-1.383496
32	0x3f4fba55	0.81143695
33	0x3f5bd8bd	0.8587759
34	0xbd752651	-0.059850994
35	0x3f2159d9	0.6302772
36	0x3ebdeb3c	0.37093532
37	0xbeced45c	-0.40396392
38	0xbe14f316	-0.14545855
39	0x3ec4de3d	0.38450804
40	0xbe61c2cd	-0.22046967
41	0x3ffabb26	1.9588363
42	0x3f8e1c46	1.1102378
43	0xbbad429b	-0.005287481
44	0x3ebc16f1	0.36736253
45	0xbf31a33c	-0.693897
46	0xbf17acf3	-0.59248275
47	0x3d360f3e	0.04444813
48	0x3d59565a	0.053060867
49	0x3d89a97b	0.06721779
50	0x3ec7ca47	0.39021513
51	0xbdf43635	-0.11924402
52	0x3d0951dc	0.033525333
53	0xbe61593c	-0.22006696
54	0x3f26a9a8	0.65102625
55	0x3ee62fc1	0.44958308
56	0xbfe1c992	-1.7639639
57	0x3efc84c3	0.4932004
58	0x3fd5f33d	1.6714855
59	0xc00d602e	-2.2089953
60	0xbfa4907e	-1.2856596
61	0xbd87e3c2	-0.06635238
62	0x3fc76dae	1.5580347
63	0x3eaed226	0.34144706
64	0x3e7df356	0.24799857
65	0x3dd2164b	0.10258158
66	0xbbc6cb05	-0.0060666823
67	0xbd2dbc60	-0.042415977
68	0x3d563850	0.052299798
69	0x3e8701a9	0.26368454
70	0x3ee0cf9c	0.43908393
71	0xbf12117b	-0.57057923
72	0xbe9af241	-0.3026295
73	0xbf2c226c	-0.67240024
74	0x3e683718	0.22677267
75	0x3f3df33d	0.7419928
76	0xbf15713f	-0.58375925
77	0x3fb9b534	1.4508424
78	0xbe8cdac8	-0.27510667
79	0x3ef605c1	0.48051265
80	0x3dddd926	0.108324334
81	0x3ef6d300	0.48207855
82	0xbea7c270	-0.32765532
83	0xbe14fedb	-0.14550345
84	0xbe7d235b	-0.24720518
85	0x3f962726	1.1730697
86	0xbcc387ea	-0.02386852
87	0xbe872a0d	-0.2639927
88	0x3f68d545	0.90950423
89	0x3d3a7c3d	0.04552864
90	0x3f368955	0.713033
91	0xbeee5159	-0.46546438
92	0x3fa672ed	1.3003823
93	0xbccd6f88	-0.025077596
94	0xbef6badb	-0.48189434
95	0xbe53a4db	-0.20668356
96	0xbef2815f	-0.47364327
97	0x3dfa3f50	0.12219107
98	0xbf0a9675	-0.5413583
99	0x3f8ce757	1.1008099
100	0x3e489883	0.19589429
101	0xbda8cc1b	-0.08242055
102	0x3e363a8e	0.17795774
103	0x3e80f748	0.2518866
104	0x3e9713a7	0.2950718
105	0xbf8e848d	-1.1134201
106	0x3cbe490e	0.023228195
107	0x3de138e2	0.10997178
108	0xbe17d726	-0.14828166
109	0x3ee1c5e1	0.44096282
110	0x3bf0e126	0.0073510585
111	0x3e8ba5f5	0.27275053
112	0xbe1e14ee	-0.15437672
113	0xbe1985cd	-0.14992447
114	0x3f27112d	0.65260583
115	0x3f135119	0.5754562
116	0xbf88f80d	-1.0700699
117	0x3d97f6a6	0.07420091
118	0x3ea5342f	0.32266375
119	0xbdf25890	-0.11833298
120	0xbf7fcc5a	-0.9992119
121	0xbe79562b	-0.24349277
122	0xbec6bdad	-0.38816586
123	0xbe40811d	-0.18799253
124	0x3eb6333b	0.3558596
125	0x3e153738	0.14571846
126	0xbcf447a9	-0.029819326
127	0x3e3dd1db	0.18537085
128	0xbe223176	-0.1583918
129	0xbf219a5d	-0.63126165
130	0x3d6358e6	0.055504702
131	0x3fd380e4	1.6523709
132	0x3f178470	0.5918646
133	0x3fb3ef70	1.4057446
134	0xbfa1d87e	-1.2644193
135	0x40307002	2.7568364
136	0x3df1596b	0.11784633
137	0x3eb5f8da	0.3554142
138	0x3d8dd084	0.06924537
139	0x3e8a115c	0.2696637
140	0x3f22a1f9	0.635284
141	0x3ea29d80	0.31760788
142	0xbf49b87b	-0.7879712
143	0xbf15f92c	-0.5858333
144	0x3f72ab40	0.94792557
145	0x3efac84f	0.48980948
146	0xbf317548	-0.6931958
147	0x3e89d01d	0.2691659
148	0xbeeab7b1	-0.4584327
149	0x3dc7d844	0.09758046
150	0xbf7a229a	-0.9770905
151	0x400765c8	2.1155872
152	0xbf962196	-1.1729
153	0xbd6959d7	-0.056970444
154	0xba097a9d	-0.0005244406
155	0xbe2e1578	-0.17000377
156	0x3def23ed	0.11676774
157	0x3e8dd03a	0.27697927
158	0x3e8890cb	0.26672968
159	0x3f0ddf3d	0.5541876
160	0xbf46e4ec	-0.7769306
161	0xbf5d8492	-0.8653041
162	0xbf4f2310	-0.80912876
163	0x3f9cb893	1.2243828
164	0x3ead8268	0.33888555
165	0xbedbc1a4	-0.42921174
166	0x3bdc614d	0.0067254663
167	0xbf531216	-0.8244947
168	0xbea65b83	-0.32491693
169	0x3e1c1555	0.15242513
170	0x3e017086	0.1264058
171	0x3eb9c305	0.362816
172	0xbe80047e	-0.25003427
173	0xbe9ff527	-0.31241724
174	0x3f2218dc	0.6331918
175	0x3ebb908f	0.36633727
176	0xbf891da5	-1.0712172
177	0x3e69dd2c	0.22838277
178	0x3e20aea7	0.15691625
179	0xbda901b5	-0.08252279
180	0xc034b94d	-2.8238099
181	0x3ecd33fa	0.40078717
182	0xbfa68f54	-1.301249
183	0x3ee8f365	0.45498195
184	0xbeb3f79e	-0.35149854
185	0xbe682c19	-0.22673072
186	0x3bcf125c	0.0063193273
187	0xbd19ebb3	-0.037578296
188	0x3e91f591	0.28507665
189	0xbd5b01bd	-0.053468455
190	0xbeba2bc0	-0.36361504
191	0xbecf4f6b	-0.4049028
192	0x3e75928c	0.23981684
193	0xbf06412f	-0.5244321
194	0x3dd5b3c5	0.10434679
195	0xbe0d77c8	-0.13815224
196	0xbed4ef24	-0.415887
197	0xbdb098b8	-0.08622879
198	0x3d9d9b28	0.07695609
199	0xbe0c82d1	-0.13721777
200	0xbdfdb6ca	-0.1238838
201	0xbed344e6	-0.41263503
202	0x3eb32391	0.34988073
203	0x3e10e940	0.14151478
204	0x3e876464	0.2644378
205	0xbf9290bc	-1.145042
206	0x3f4e934c	0.8069351
207	0xc03204b1	-2.7815363
208	0xbd7ff344	-0.062487856
209	0xbd8079a3	-0.062732
210	0x3faaf045	1.3354574
211	0x3f9d5773	1.2292312
212	0xbece9b59	-0.40352896
213	0x3ee769e4	0.45197976
214	0x3e3b19d0	0.18271565
215	0x3e9e37b9	0.30901888
216	0x3e7ee400	0.24891663
217	0xbe898c77	-0.2686498
218	0xbe564acb	-0.20926969
219	0x3e79f3d9	0.24409427
220	0x3f1520f3	0.582534
221	0x3f3172e5	0.6931594
222	0x3e82ab81	0.25521472
223	0xbff38fb2	-1.9028227
224	0xbd9175fb	-0.07102581
225	0xbfaa6d55	-1.3314615
226	0xbeb5514d	-0.3541359
227	0xbe2b599e	-0.16733405
228	0x3ee856d0	0.45378733
229	0xbe713a7e	-0.23557469
230	0x3d1fbb64	0.03899707
231	0xbe5f0f27	-0.21783124
232	0x3e8a7309	0.2704089
233	0xbc2da624	-0.010598693
234	0x3f5a09cc	0.851712
235	0xbfb71003	-1.4301761
236	0xbf84fec1	-1.0390245
237	0x3fc3081e	1.5236852
238	0xbe5608e7	-0.20901833
239	0x3e0abd60	0.13548803
240	0xbf92fa2d	-1.1482598
241	0xbc7733b8	-0.015088014
242	0x3dbf4847	0.09339958
243	0xbdca1cb3	-0.09868755
244	0x3e81d5dc	0.25358474
245	0x3e18c5bf	0.14919184
246	0x3e503fdd	0.20336862
247	0xbe04b8d1	-0.12961127
248	0xbed04393	-0.40676555
249	0x3ecd4f42	0.4009953
250	0x3dd893a5	0.10575036
251	0xbf8b95db	-1.0905107
252	0x3e690a25	0.22757776
253	0x3e6c00f8	0.23047245
254	0xbe13d263	-0.14435725
255	0x401fde66	2.4979491

net.0.bias f4 [128]
0	0x3ee83a1b	0.4535683
1	0x3ea7ca3f	0.3277149
2	0x3e1b9e00	0.15196991
3	0x3e0a983e	0.13534638
4	0x3ec1a853	0.37823734
5	0x3e207fd3	0.15673761
6	0x3f1c7962	0.61122715
7	0x3e374543	0.17897515
8	0x3e5013c2	0.20320037
9	0x3ebb0ee1	0.3653479
10	0x3e05d1b2	0.13068274
11	0x3dda53c9	0.10660512
12	0xbe1e9f5a	-0.15490475
13	0xbed6f551	-0.41984037
14	0x3e45340f	0.1925814
15	0xbd2c9994	-0.04213865
16	0x3edddb78	0.43331504
17	0x3e82ecee	0.25571388
18	0x3e1dde77	0.15416895
19	0xbe683978	-0.22678173
20	0xbdcff29e	-0.101536974
21	0xbdad3371	-0.08457077
22	0x3dd35914	0.10319725
23	0x3f0a89fc	0.541168
24	0xbe2d9999	-0.16953124
25	0x3d4cc13e	0.049988978
26	0xbc1bc6f9	-0.009507888
27	0x3de7cdd3	0.11318555
28	0x3eb57709	0.3544238
29	0xbe0ad021	-0.13555957
30	0x3e397f71	0.18115021
31	0x3d7304e2	0.05933083
32	0x3ef953f0	0.48696852
33	0xbd520528	-0.05127445
34	0x3e5ecd3b	0.21757977
35	0x3e279250	0.16364408
36	0x3ebab40c	0.3646549
37	0x3c999385	0.0187471
38	0x3e3d085f	0.18460225
39	0x3f06a49f	0.5259494
40	0x3e29253d	0.16518112
41	0x3e7d2fab	0.24725215
42	0xbc0bd4ff	-0.008534669
43	0x3e0221f6	0.12708268
44	0xbe421830	-0.1895454
45	0x3ecf5feb	0.40502867
46	0xbddf31f1	-0.108981974
47	0x3f01583c	0.5052526
48	0x3d3ab836	0.045585833
49	0x3e3b20f3	0.18274288
50	0x3f0b3076	0.5437082
51	0x3ed067a2	0.40704066
52	0x3e80f710	0.25188494
53	0x3ef838ce	0.4848084
54	0x3dbe9229	0.093052216
55	0x3e913a32	0.28364712
56	0x3d84eafc	0.06490132
57	0xbd0dc97d	-0.034615982
58	0x3ed392b5	0.41322866
59	0x3eedc52f	0.46439502
60	0x3ef44d95	0.4771544
61	0x3eb029bf	0.3440685
62	0x3f0502a8	0.5195718
63	0x3f0fe6f2	0.5621177
64	0xbe90b341	-0.2826176
65	0xbd3f6bbe	-0.04673361
66	0xbdb00fac	-0.08596739
67	0x3dd11b8f	0.102103345
68	0x3e5359fd	0.20639797
69	0x3e6e7bd9	0.23289432
70	0x3ea1731c	0.31533134
71	0x3ee4da4a	0.4469779
72	0xbe453414	-0.19258147
73	0x3ec3b6db	0.38225445
74	0x3ebe4a2c	0.37165964
75	0x3e84484c	0.25836408
76	0xbd9e8f68	-0.07742196
77	0x3e17b975	0.1481684
78	0x3f09bd41	0.53804404
79	0x3ee956d5	0.4557406
80	0x3e3da344	0.18519312
81	0x3dd1ac86	0.10237984
82	0x3db30e95	0.08743016
83	0x3d14e8ef	0.036354955
84	0x3d8127ca	0.06306417
85	0xbe02389b	-0.12716906
86	0x3ecde6d8	0.40215182
87	0x3ea50bcf	0.32235572
88	0xbec55763	-0.38543233
89	0x3edc5639	0.43034533
90	0x3f071534	0.5276673
91	0x3f4938be	0.78602207
92	0x3ead0dcf	0.33799598
93	0xbd62ded9	-0.055388305
94	0x3e3e0459	0.18556346
95	0x3ef331ba	0.47498876
96	0xbe71c3e5	-0.23609884
97	0x3f05c642	0.5225564
98	0xbdb13e12	-0.08654417
99	0x3ecb58af	0.39716098
100	0xbd315318	-0.043292135
101	0x3c93c9bb	0.018040529
102	0xbce65785	-0.028117904
103	0x3e68a04c	0.22717398
104	0x3ecb1bd4	0.3966967
105	0x3e80af4d	0.25133744
106	0x3f167b9b	0.58782357
107	0x3dfee745	0.12446455
108	0xbdf63da9	-0.120234795
109	0x3e13a1c3	0.14417176
110	0x3e60553c	0.21907514
111	0x3e9db870	0.30804777
112	0x3db8c351	0.09021629
113	0x3eca29a7	0.39484903
114	0xbe0c20c7	-0.13684379
115	0x3ec2dd33	0.38059387
116	0x3e3d023a	0.1845788
117	0xbc396563	-0.011315676
118	0x3ef5114e	0.47864765
119	0x3e58683b	0.21133511
120	0x3ec3528d	0.3814892
121	0x3e4b55b7	0.19856916
122	0x3e869da7	0.26292154
123	0x3e83ec5f	0.25766274
124	0x3d84ed00	0.06490517
125	0x3d56e5a5	0.0524651
126	0x3e8b3980	0.27192307
127	0x3eeeb96f	0.4662585

net.1.weight f4 [128]
0	0x3f67b4c2	0.9051019
1	0x3ff4614f	1.9092196
2	0x3fbf204c	1.4931731
3	0x3f81eed0	1.0151005
4	0x3f6f154f	0.9339189
5	0x3f85eebd	1.0463482
6	0x3fdf78e4	1.7458768
7	0x3e6a8fd0	0.22906423
8	0x3f1dfc82	0.6171342
9	0x4042ed53	3.0457351
10	0x3fa5d127	1.2954453
11	0x3e4e3aa9	0.20139565
12	0x4025b126	2.5889373
13	0x406266a1	3.537514
14	0x3f8a6231	1.0811216
15	0x3fa5dabc	1.2957377
16	0x3e8ceddd	0.27525225
17	0x3fce2b1e	1.6106908
18	0x3f9efbfc	1.242065
19	0x3fa2d59c	1.2721438
20	0x3f41d863	0.75720805
21	0x3fee4bde	1.8616903
22	0x3fdc7ff6	1.722655
23	0x3eba9645	0.36442772
24	0x400bee67	2.186426
25	0x3e7d9a28	0.24765837
26	0x3fce6314	1.6123986
27	0x3f119bf3	0.56878585
28	0x3eeaf92a	0.45893222
29	0x3f3d25b4	0.73885655
30	0x3e8fadd3	0.28062305
31	0x3f33c1da	0.7021767
32	0x4002017f	2.0313413
33	0x3fa78cab	1.3089803
34	0x3ec166f7	0.37773868
35	0x3f6e75b8	0.93148375
36	0x3e91fd19	0.2851341
37	0x3f711d0c	0.94184947
38	0x3f76b847	0.96374935
39	0x3f01763e	0.5057105
40	0x3eb3cab5	0.3511559
41	0x3ff567a0	1.9172249
42	0x3fa27639	1.2692329
43	0x3ea92ae5	0.33040538
44	0x3fd2557a	1.6432335
45	0x3ea5372d	0.32268658
46	0x3f1a0402	0.60162365
47	0x3f054e8b	0.5207297
48	0x3ff64553	1.9239906
49	0x3e8ff45f	0.28116128
50	0x3f643abb	0.89152116
51	0x3f216ed1	0.6305972
52	0x3f8884a2	1.0665476
53	0x3e98663a	0.29765493
54	0x4001223c	2.0177145
55	0x3f5ada08	0.8548894
56	0x3f4829fe	0.78189075
57	0x3fb4c46e	1.4122446
58	0x3fa0759f	1.2535895
59	0x3fd71ebd	1.6806256
60	0x3f62ad6b	0.88545865
61	0x3e48bb88	0.19602787
62	0x3fd0f84d	1.6325775
63	0x3e42b1ea	0.19013181
64	0x3f53e52a	0.8277155
65	0x3fb6f2dc	1.4292865
66	0x3fe7ebf3	1.8118881
67	0x3f8c56ff	1.0964049
68	0x3ee3796e	0.4442858
69	0x3e6c44b2	0.2307308
70	0x3f53f98d	0.8280266
71	0x3e95e6a6	0.29277533
72	0x3f3bf1b4	0.73415685
73	0x4020de62	2.5135732
74	0x3f125a00	0.5716858
75	0x3e08c432	0.13356093
76	0x3f52bd8d	0.8232048
77	0x3f7bdf25	0.98387367
78	0x3e840eb2	0.25792462
79	0x3f6687ef	0.9005117
80	0x3f171900	0.5902252
81	0x3f5686db	0.83799523
82	0x3f6d00db	0.9257943
83	0x3f110eb0	0.56663036
84	0x3fd3411a	1.6504242
85	0x3e9db7c0	0.30804253
86	0x3ea2ee61	0.31822494
87	0x3ee3332e	0.44374985
88	0x3fc8f9b2	1.5701201
89	0x3f303ed8	0.6884589
90	0x3eb809e4	0.35945046
91	0x3f9290ca	1.1450436
92	0x3f90b257	1.1304425
93	0x3f7a315c	0.97731566
94	0x3fab80a1	1.339863
95	0x3fa9da12	1.3269675
96	0x3fdf0dd1	1.7426091
97	0x3fdc44db	1.7208513
98	0x3f898c28	1.0745897
99	0x3f490af1	0.7853232
100	0x3f825107	1.0180978
101	0x3fd98597	1.6993893
102	0x40119406	2.2746596
103	0x3eb6ac37	0.35678264
104	0x3eb7ca27	0.35896417
105	0x3feae488	1.8350992
106	0x4052fdaf	3.2967336
107	0x3e71817b	0.23584549
108	0x3fa28840	1.269783
109	0x3efb8562	0.491252
110	0x3ea8f8bc	0.3300227
111	0x3e8d3dfe	0.2758636
112	0x3fe8808e	1.8164232
113	0x3e980bf5	0.29696622
114	0x3fb61f83	1.4228367
115	0x3e7e00a9	0.2480494
116	0x3e8d97f1	0.27654985
117	0x400e2e0a	2.22156
118	0x3e07cbc9	0.13261332
119	0x3feb5525	1.8385359
120	0x3eec6891	0.46173528
121	0x3e9fc9c9	0.31208637
122	0x3f03076e	0.5118321
123	0x3e72b53c	0.23701948
124	0x3f981772	1.1882155
125	0x3f832d4c	1.0248199
126	0x3fa5297c	1.2903285
127	0x3ebe428f	0.37160155

net.1.bias f4 [128]
0	0xbe184cb6	-0.14873013
1	0x3d4a5a8a	0.04940275
2	0xbe542db1	-0.20720555
3	0xbec27a97	-0.37984154
4	0xbe976534	-0.295694
5	0xbf64c69c	-0.89365554
6	0xbeea1935	-0.45722356
7	0xbf154e81	-0.5832291
8	0xbeeab602	-0.45841986
9	0xbc207d7f	-0.009795546
10	0xbec24fab	-0.37951407
11	0xbed3ca55	-0.41365305
12	0xbe794ed1	-0.24346472
13	0x3e19f071	0.15033127
14	0xbd6ad1d9	-0.057329033
15	0xbe9123bf	-0.28347585
16	0xbf182903	-0.5943758
17	0x3dab7d7e	0.08373545
18	0xbc15abb3	-0.009135175
19	0x3a814456	0.0009862285
20	0xbef78369	-0.48342445
21	0xbdf387b7	-0.1189112
22	0x3e507e75	0.2036074
23	0xbf30158d	-0.68782884
24	0x3e4da518	0.2008251
25	0xbee4dcc6	-0.44699687
26	0xbead595f	-0.33857247
27	0xbf1418a8	-0.5785012
28	0xbf330042	-0.6992227
29	0xbf0ed7cd	-0.55798036
30	0xbf1029bc	-0.5631368
31	0xbf06813a	-0.52540934
32	0xbe1fc791	-0.15603472
33	0xbf30b101	-0.69020087
34	0xbf0e78e7	-0.5565323
35	0xbeda0e0c	-0.42588842
36	0xbf06fd9e	-0.5273074
37	0xbdad8bdf	-0.08473944
38	0xbe52dc41	-0.20591833
39	0xbf2f4628	-0.68466425
40	0xbf34c026	-0.70605695
41	0xbeefe76b	-0.46856245
42	0xbe7aea3e	-0.24503419
43	0xbf15c8fe	-0.58509815
44	0xbe78bb18	-0.2429012
45	0xbf027fbe	-0.5097617
46	0xbeb10055	-0.34570566
47	0xbf1502aa	-0.5820719
48	0xbf39fb06	-0.72648656
49	0xbf1e4940	-0.6183052
50	0xbf3cce5f	-0.737524
51	0xbeb04d27	-0.34433863
52	0xbf14041d	-0.57818776
53	0xbf0b377c	-0.5438154
54	0xbe55c3a8	-0.20875418
55	0xbe7e88d1	-0.24856879
56	0xbe80a088	-0.25122476
57	0xbe140def	-0.1445844
58	0xbf10dee7	-0.5659012
59	0x3dc6198d	0.09672842
60	0xbeb62f8f	-0.3558316
61	0xbf1ebbe0	-0.62005424
62	0xbf76c32e	-0.9639157
63	0xbeab92dd	-0.33510485
64	0xbd808aaf	-0.06276452
65	0xbeae08fc	-0.3399123
66	0xbdcbd903	-0.09953501
67	0xbed80dbd	-0.4219798
68	0xbf190cf9	-0.5978542
69	0xbeda643c	-0.42654598
70	0xbf11b069	-0.56909806
71	0xbf2b0231	-0.6680022
72	0xbe62da58	-0.22153604
73	0x3e91ce04	0.2847749
74	0xbd2bea7f	-0.04197168
75	0xbed6e595	-0.41972032
76	0xbee27638	-0.4423082
77	0xbe3cfcf0	-0.18455863
78	0xbf0a7619	-0.5408645
79	0xbebf8051	-0.37402585
80	0xbf3883db	-0.72076195
81	0xbf10abca	-0.5651213
82	0xbe59c3e1	-0.21266128
83	0xbe9856f2	-0.29753834
84	0xbd0bd5e7	-0.03413954
85	0xbf2c0c7d	-0.67206556
86	0xbee88e9e	-0.45421308
87	0xbf640199	-0.8906494
88	0xbec8370b	-0.39104494
89	0xbf0a7295	-0.5408109
90	0xbf063128	-0.52418756
91	0xbe8e00a9	-0.2773488
92	0xbf1fec9b	-0.62470406
93	0xbe227793	-0.15865926
94	0xbedae0b4	-0.4274956
95	0xbdb7d8dd	-0.0897691
96	0x3d8ff743	0.07029583
97	0xbf117a86	-0.5682758
98	0xbf01ea10	-0.50747776
99	0xbe842084	-0.25806057
100	0xbe6ac015	-0.22924836
101	0xbd0fae6f	-0.035078462
102	0x3cc18c00	0.023626328
103	0xbf1238e0	-0.57118034
104	0xbf222d8b	-0.63350743
105	0xbd3f2d39	-0.046673987
106	0x3e96ebdd	0.29476824
107	0xbf1855eb	-0.595061
108	0x3d040a4f	0.032236394
109	0xbf0c4729	-0.5479608
110	0xbf3368da	-0.70081866
111	0xbf08c3da	-0.53423846
112	0x3d38eb2d	0.045146156
113	0xbf1e338e	-0.61797416
114	0xbecca70b	-0.39971194
115	0xbf123e5a	-0.5712639
116	0xbf0dc8d7	-0.5538458
117	0xbbef3d13	-0.007300982
118	0xbf1ea973	-0.6197731
119	0xbf825ad0	-1.0183964
120	0xbf297e50	-0.6620836
121	0xbedffb5d	-0.43746462
122	0xbe23c1da	-0.15991917
123	0xbee47d6b	-0.44626936
124	0xbe7306d5	-0.23733075
125	0xbec8f1b3	-0.39246902
126	0xbf5e6165	-0.8686736
127	0xbf258074	-0.6464913

net.3.weight f4 [128, 128]
0	0x3fb2410d	1.3926102
1	0x3fb45262	1.4087641
2	0xbf6d8047	-0.9277386
3	0x3e3b689e	0.18301627
4	0xbd852967	-0.065020375
5	0xbf513bf3	-0.817321
6	0x3e0d3e0a	0.13793197
7	0x3e5415d0	0.20711446
8	0xbf1ac519	-0.60457
9	0xbece1947	-0.4025366
10	0xbe4b573e	-0.19857499
11	0x3e6a6800	0.22891235
12	0xbef3c966	-0.47614592
13	0x4027decc	2.6229734
14	0x3f305874	0.6888497
15	0xbcf5c913	-0.030003106
16	0xbd9461ef	-0.07245242
17	0x3e9fe24c	0.31227338
18	0x3e235c6a	0.15953222
19	0x3f698ab2	0.9122726
20	0xbf197c06	-0.5995487
21	0x3ec6cd29	0.388284
22	0x3fc40fc4	1.5317311
23	0xbc840939	-0.016117679
24	0x3effc60e	0.4995579
25	0xbeced172	-0.4039417
26	0xbdc336aa	-0.09531911
27	0xbf7ac586	-0.97957647
28	0x3c825e44	0.01591409
29	0x3f93e353	1.1553749
30	0x3d108aaf	0.03528851
31	0x3df6b014	0.12045303
32	0x3ebccfc9	0.36877277
33	0x3f802ce9	1.0013705
34	0x3e913c23	0.28366193
35	0x3f20d657	0.62827057
36	0xbe8e72c7	-0.27821943
37	0x3f565f45	0.8373912
38	0x3e8fea00	0.28108215
39	0x3e8d091a	0.27546006
40	0x3d5037a4	0.050834313
41	0xbccddae7	-0.025128795
42	0x3e87a6b4	0.26494372
43	0x3c6637c1	0.014051379
44	0x3fcfca9e	1.6233709
45	0x3e8a0df3	0.26963767
46	0x3ec58763	0.38579854
47	0xbdb4da56	-0.08830707
48	0xbdd98908	-0.1062184
49	0x3d82c00d	0.06384287
50	0xbe0cc077	-0.13745295
51	0xbe4dfd79	-0.20116223
52	0xbd0e1173	-0.03468461
53	0x3de8a739	0.1136002
54	0x3eca69a7	0.3953373
55	0xbd1ca714	-0.038245276
56	0x3e927091	0.28601506
57	0xbf95288d	-1.1653
58	0xbf50ba47	-0.81534237
59	0xbe97bb79	-0.29635218
60	0xbe2a2522	-0.16615728
61	0x3a01cc09	0.0004951363
62	0x3f3230db	0.696058
63	0x3ec13738	0.3773744
64	0x3dc1c78b	0.09461888
65	0x3d39d1c8	0.04536608
66	0x3ed6cb31	0.41951898
67	0x3f823ee0	1.0175438
68	0xbe7302ad	-0.2373149
69	0xbb95a785	-0.004567089
70	0xbded9f43	-0.116026424
71	0x3e556e2f	0.20842813
72	0x3c76bf7e	0.015060304
73	0xbee96ac3	-0.45589265
74	0xbeee91ea	-0.465957
75	0xbc8f6fbe	-0.017509338
76	0x3d9249fb	0.07143017
77	0xbfa1cf80	-1.2641449
78	0x3dccddb2	0.100032225
79	0x3f5a28da	0.85218585
80	0x3d16fded	0.036863256
81	0x3eb02de1	0.34410003
82	0x3f2d8721	0.67784315
83	0x3ee8c194	0.45460188
84	0x3f46cd1b	0.77656716
85	0x3d98c6cc	0.074597925
86	0xbe57b1e0	-0.21063948
87	0x3e4aec25	0.19816644
88	0x3f2fc274	0.68656087
89	0x3f14b4d2	0.5808841
90	0x3de71170	0.11282623
91	0x3edac766	0.42730254
92	0x3f0d48e3	0.5518934
93	0xbf5e16e2	-0.86753666
94	0xbe7e4479	-0.24830808
95	0x3e2dc128	0.16968215
96	0x3ec0291d	0.37531367
97	0xbea713b7	-0.3263223
98	0xbe9e6d52	-0.3094278
99	0x3cced188	0.025246397
100	0x3e7460e1	0.23865081
101	0x3e38a390	0.18031144
102	0xbd9dc6f7	-0.07703965
103	0x3dc187ae	0.09449707
104	0xbe5bd82e	-0.21469185
105	0x3dfc1235	0.1230816
106	0xbf403e09	-0.7509466
107	0xbd5115f8	-0.05104634
108	0x3eb99ddf	0.3625326
109	0x3e90081b	0.28131184
110	0x3e58eae5	0.21183355
111	0x3cc9926a	0.024605948
112	0xbede3a49	-0.43403843
113	0x3de14247	0.109989695
114	0x3fd3b26a	1.6538823
115	0x3d8300f9	0.0639667
116	0x3e21571b	0.15755884
117	0x3ea6fece	0.32616276
118	0xbdf49ba8	-0.119437516
119	0x3ed96c1c	0.42465293
120	0xbd661981	-0.056176666
121	0x3dabc5ca	0.08387335
122	0x3f012d0b	0.50459355
123	0xbcf7c460	-0.030245006
124	0xbf6c022e	-0.92190826
125	0xbfaf6c5e	-1.3704946
126	0x3eada56b	0.33915266
127	0xbdf894ca	-0.12137754
128	0xbf02c82f	-0.51086706
129	0xbea31446	-0.31851405
130	0xbf4ad2eb	-0.79228085
131	0xbe6cfb1a	-0.23142663
132	0xbe97d497	-0.2965438
133	0xbe8abc79	-0.27096918
134	0x3ee9a116	0.4563071
135	0xbc7762b7	-0.015099219
136	0xbe6ef0b9	-0.23334016
137	0xbee6768e	-0.45012325
138	0xbe6e4df8	-0.2327193
139	0xbd9b0fe8	-0.07571393
140	0x3ee8221a	0.45338517
141	0xbf398f81	-0.72484595
142	0xbf709eb1	-0.93992144
143	0x3f44f9a4	0.7694342
144	0x3decf8c9	0.115708895
145	0xbe9bcfc4	-0.3043195
146	0x3d021a77	0.03176352
147	0x3ed69e38	0.41917586
148	0x3f6176b7	0.8807177
149	0xbf0dc2d2	-0.553754
150	0x3f41435e	0.7549342
151	0xbed7dbad	-0.42159787
152	0x3f9ee140	1.2412491
153	0x3e4e456d	0.20143671
154	0x3e4f404d	0.20239373
155	0x3f498976	0.78725374
156	0x3e0865e7	0.13320123
157	0x3f6ee14a	0.93312514
158	0x3e88c106	0.26709765
159	0x3e189b94	0.14903098
160	0xbf405af5	-0.7513879
161	0x3fb27840	1.3942947
162	0x3e944165	0.28956142
163	0xbd5530d3	-0.052048516
164	0x3d88f199	0.06686706
165	0x3f713c20	0.9423237
166	0xbf3477e7	-0.70495456
167	0xbe6c0470	-0.23048568
168	0x3e82ee89	0.25572613
169	0xbeeb9bba	-0.46017247
170	0xbf1f05d0	-0.62118244
171	0x3edaf2b7	0.42763302
172	0xbf200261	-0.6250363
173	0xbd02410d	-0.03180032
174	0x3f9c6565	1.2218443
175	0xbdf4f74c	-0.11961231
176	0x3f646a80	0.89225006
177	0xbd6472a3	-0.05577339
178	0x3e2e9148	0.17047608
179	0x3fb81120	1.4380226
180	0x3f5763da	0.84136736
181	0x3cb39bc2	0.021924857
182	0xbdd83068	-0.10556108
183	0xbf0771e2	-0.52908146
184	0xbe9c1b28	-0.3048947
185	0x3f41d23d	0.75711423
186	0xbf8a181e	-1.078861
187	0x3e60f91a	0.21970025
188	0xbdaa2fef	-0.08309924
189	0x3d2815d6	0.04103645
190	0x3fd00bfb	1.6253656
191	0x3f306d7d	0.68917066
192	0x3ed38242	0.41310316
193	0xbf0bfc87	-0.546822
194	0x3e454543	0.19264702
195	0x3eaaf7c7	0.33392164
196	0xbdb718f5	-0.08940307
197	0x3e847f7a	0.25878507
198	0x3f232fdc	0.637449
199	0x3ec520c5	0.38501564
200	0x3ee1bb67	0.4408829
201	0xbe1f78e8	-0.15573466
202	0x3cd36071	0.025802823
203	0xbe8faf3b	-0.28063378
204	0x3f7608c8	0.9610715
205	0xc0534c08	-3.3015156
206	0x3dc5a616	0.09650819
207	0x3f98a8b4	1.1926484
208	0xbca83af0	-0.020535916
209	0x3c3de36a	0.011589864
210	0xbee1532e	-0.44008774
211	0xbf33df7e	-0.70262897
212	0x3eb0007c	0.3437537
213	0xbd775c05	-0.06039049
214	0x3ed8366e	0.42229027
215	0x3e80a1ab	0.25123343
216	0x3f54ed05	0.83174163
217	0xbed13c36	-0.4086625
218	0xbc52c644	-0.012864653
219	0x3ebe1c66	0.3713104
220	0xbf92f331	-1.1480466
221	0x3d8ca3b2	0.0686716
222	0x3fe8a1a2	1.8174326
223	0x3d70ff1c	0.05883704
224	0xbf8185e8	-1.011899
225	0x3ee1deae	0.44115204
226	0x3f1b6ae7	0.60709995
227	0xbe1030cd	-0.14081116
228	0x3e927178	0.28602195
229	0x3f6e9a07	0.9320378
230	0x3f095a1a	0.5365311
231	0x3e401fa0	0.18762064
232	0x3eb85d07	0.36008474
233	0x3fc290c0	1.5200424
234	0xbf98283a	-1.1887276
235	0xbdf699c8	-0.1204105
236	0x3f34eff3	0.70678633
237	0x3f4c9d4f	0.79927534
238	0x3e05e00e	0.13073751
239	0x3e8cd856	0.275088
240	0x3f3829ae	0.719386
241	0xbc98f09c	-0.018669419
242	0x3f01f15c	0.5075891
243	0xbd1a0e0d	-0.037611056
244	0x3cf17a76	0.02947734
245	0x3c7a13b2	0.015263485
246	0x3c88ef56	0.016715687
247	0x3f2d7e80	0.6777115
248	0xbef88116	-0.48535985
249	0x3f68eb9c	0.9098451
250	0xbe4c1782	-0.19930843
251	0x3d9c26ba	0.07624574
252	0x3f89587f	1.0730132
253	0xbfa0bba5	-1.2557265
254	0x3dff2628	0.124584496
255	0x3efd163b	0.49431023

net.3.bias f4 [128]
0	0xbf89e2e4	-1.0772367
1	0x3f1e3420	0.61798286
2	0x3f185ee4	0.5951979
3	0x3f8a8a7b	1.0823511
4	0x3f0f94f2	0.5608665
5	0x3e9f4174	0.31104624
6	0xbed70227	-0.4199383
7	0xbebd56e4	-0.36980355
8	0x3f225bc6	0.63421285
9	0x3ed626c0	0.4182644
10	0x3f8a2d64	1.0795102
11	0x3ce058fb	0.02738618
12	0x3e2789d2	0.16361168
13	0x3ff4b5ce	1.9117982
14	0x3f2fc3ac	0.68657947
15	0x3ef9ee88	0.48814797
16	0x3ffd1b1c	1.9773898
17	0x3fb46103	1.4092106
18	0x3ffba1cd	1.9658753
19	0x3f5a4250	0.85257435
20	0x3f5936ba	0.8484913
21	0xbe8bb118	-0.2728355
22	0x3e905a79	0.28194025
23	0xbc841c8b	-0.016126892
24	0xbf23ad71	-0.63936526
25	0x3d740d82	0.059583195
26	0x3f08a25e	0.5337275
27	0x3fd278f9	1.6443168
28	0x3dbee1db	0.09320422
29	0x3fa74fc8	1.3071222
30	0x3fcedfea	1.6162083
31	0x3f95ea52	1.1712134
32	0x4001d961	2.0288928
33	0x3e4d787d	0.20065494
34	0x3f1687fd	0.5880125
35	0x3f8a532c	1.0806632
36	0x3fe83cf4	1.8143601
37	0xbe3959ee	-0.18100712
38	0x3fef1dba	1.8680947
39	0x3f10e612	0.5660106
40	0x3d8889a7	0.0666688
41	0x3e9ff488	0.3124125
42	0x3ecd739f	0.40127274
43	0x3ec5d73b	0.3864077
44	0x4005571b	2.0834415
45	0xbe814d7b	-0.25254425
46	0x3ff2d58a	1.8971417
47	0x4001ab8f	2.026096
48	0x3f001f1a	0.5004746
49	0x3fc8e66f	1.5695323
50	0xbf08b2e3	-0.5339796
51	0x3f35bbc4	0.7098963
52	0x3ddbee77	0.10738843
53	0xbd89438a	-0.06702335
54	0x3f6caaef	0.92448324
55	0x3e87a04c	0.26489484
56	0x3ecabbaf	0.39596316
57	0xbe08e410	-0.13368249
58	0x3f191419	0.5979629
59	0xbe34a5f7	-0.17641436
60	0x3eb8adae	0.36070007
61	0x3f4c8e1d	0.7990435
62	0x3edc9421	0.43081763
63	0x3fd7b7c8	1.685296
64	0x3ff7ed9e	1.936939
65	0x3f29c9c5	0.663235
66	0x3e86f67e	0.26359934
67	0x3f5dbfb9	0.8662067
68	0x3e0a53f7	0.13508593
69	0x3fee2d00	1.8607483
70	0xbea5d59e	-0.3238954
71	0xbe179f66	-0.148069
72	0x3e9f6a06	0.31135577
73	0x3ed52b18	0.4163444
74	0xbf329814	-0.697633
75	0x3f8ce897	1.1008481
76	0x3ec23a6f	0.37935206
77	0x3ed460a4	0.4147998
78	0x3eba6ba0	0.36410236
79	0x3f4ceab4	0.8004563
80	0x3c97f3d1	0.018548878
81	0xbcbb9f53	-0.02290312
82	0xbea10308	-0.31447625
83	0x3fd38bc5	1.6527029
84	0x3db5cb12	0.08876623
85	0xbf1cd89b	-0.61268014
86	0x3ff914c6	1.9459465
87	0xbe4c773b	-0.19967358
88	0x3f30ffe8	0.6914048
89	0x3fe991ec	1.8247657
90	0x3db5557d	0.08854196
91	0x3f0560db	0.52100915
92	0x3ea9263d	0.33036986
93	0x3ff08eef	1.879362
94	0x3eb48ebd	0.3526515
95	0x3f20cd68	0.62813425
96	0x3f4b8dce	0.7951325
97	0x3eb27299	0.34853056
98	0x3f411ec9	0.754376
99	0x3fd302f4	1.6485276
100	0x3f241358	0.64092016
101	0x3f4cb71c	0.799669
102	0x3f503fe0	0.81347466
103	0xbe8ba28e	-0.27272457
104	0x3f53958a	0.82650054
105	0xbeb924a0	-0.36160755
106	0x3d2d2b3e	0.042277567
107	0xbdcbd437	-0.09952586
108	0x3f5b0c15	0.8556531
109	0x3f41ab53	0.75652045
110	0xbbeae7f9	-0.0071687666
111	0x3e93c085	0.28857818
112	0x3e0b327f	0.13593481
113	0x3f16342f	0.58673376
114	0x3ec3301c	0.38122642
115	0x3f987bea	1.1912816
116	0x3ee2505b	0.4420193
117	0x3d798272	0.060915418
118	0x3dda7f16	0.10668771
119	0x3e347813	0.1762393
120	0x3f3bdf47	0.7338757
121	0xbdadc95f	-0.08485674
122	0x3edfa093	0.43677196
123	0x3e29e68e	0.16591856
124	0x3f0f0f31	0.55882555
125	0x40003548	2.003252
126	0x3f369da2	0.7133428
127	0x3f9ffdcf	1.2499331

net.4.weight f4 [128]
0	0x401b5bfe	2.4274898
1	0x3f995260	1.1978264
2	0x3f5e042c	0.86725116
3	0x3e210db6	0.15727887
4	0x3f966445	1.174935
5	0x3fd89e4c	1.6923308
6	0x4051e35e	3.2795024
7	0x3ff807ae	1.9377344
8	0x3f675d24	0.90376496
9	0x3fb202c2	1.3907092
10	0x3f935fb7	1.1513585
11	0x3f96c794	1.1779656
12	0x3fb89e6a	1.4423344
13	0x3e6b6f61	0.22991706
14	0x3f9e8a69	1.238599
15	0x3fa9c3d2	1.3262885
16	0x3e8883f5	0.26663175
17	0x3f7190c0	0.94361496
18	0x3e596fba	0.21234027
19	0x3f3d6603	0.7398378
20	0x3f61bcb0	0.8817854
21	0x404221d5	3.033315
22	0x4039c2d0	2.9025154
23	0x3ff54e9d	1.9164616
24	0x4013d5f0	2.3099327
25	0x4015857a	2.3362718
26	0x3fd0f547	1.6324853
27	0x3e1b9999	0.15195312
28	0x3fbd53de	1.4791219
29	0x3f6def20	0.92943
30	0x3ebd1814	0.36932433
31	0x3f8d55c4	1.1041799
32	0x3e336b66	0.17521438
33	0x3fb072c0	1.3785019
34	0x3fcf7acf	1.6209353
35	0x3f6b573a	0.9192997
36	0x3e77439e	0.24146888
37	0x3ff958a9	1.9480182
38	0x3e7f376b	0.24923484
39	0x3f41a69d	0.75644857
40	0x402b8a32	2.6803098
41	0x3ff1fb7e	1.8904874
42	0x3f9c7d20	1.2225685
43	0x3f643b91	0.8915339
44	0x3e7fc3c3	0.24977021
45	0x40068af1	2.1022303
46	0x3e2112d4	0.15729839
47	0x3e616f29	0.2201506
48	0x3fb632c7	1.4234246
49	0x3ebe9ff2	0.37231404
50	0x3fe5e2de	1.7959859
51	0x3f7f6356	0.9976095
52	0x3fac0067	1.3437623
53	0x3fcbf987	1.5935525
54	0x3f82e695	1.0226618
55	0x3f4fcd54	0.8117268
56	0x3fc2a264	1.5205808
57	0x3faba3bb	1.3409342
58	0x3fa0e809	1.2570812
59	0x40266b20	2.6002884
60	0x3f9bcf30	1.2172604
61	0x3f438836	0.76379716
62	0x3fc9a1af	1.5752467
63	0x3e87c8e4	0.26520455
64	0x3e6012d7	0.21882187
65	0x3f8af9ba	1.085746
66	0x3f9ac9c0	1.2092819
67	0x3fa63678	1.2985373
68	0x3f6c3513	0.92268485
69	0x3e738987	0.23782931
70	0x40013409	2.018801
71	0x401c496a	2.4419808
72	0x3fa905bd	1.3204876
73	0x3f84150a	1.0318921
74	0x4015eb54	2.3424883
75	0x3f90cbb9	1.1312171
76	0x3f4c793d	0.79872495
77	0x3f8166ab	1.0109457
78	0x3fe3b63d	1.778999
79	0x3f8aef94	1.0854363
80	0x4021a1df	2.5255048
81	0x3fe6f371	1.8043042
82	0x3fd2eb62	1.6478083
83	0x3ea8f24f	0.32997367
84	0x3fe5a63c	1.7941356
85	0x401279ff	2.288696
86	0x3e76dbaf	0.2410724
87	0x3fb1e92b	1.3899282
88	0x3fb9cea6	1.4516189
89	0x3e7ff69c	0.24996418
90	0x3faec14a	1.3652737
91	0x40008ced	2.0086014
92	0x3fd85116	1.6899745
93	0x3eb18cfc	0.34677875
94	0x3fdb902f	1.7153376
95	0x3f6929bc	0.91079307
96	0x3f0ddf2e	0.5541867
97	0x3f9b135a	1.2115281
98	0x3f70ac1a	0.94012606
99	0x3ec24230	0.37941122
100	0x40053053	2.0810745
101	0x3f55bd85	0.8349231
102	0x3f5ac390	0.85454655
103	0x401ad1a3	2.4190452
104	0x3fbe716d	1.4878365
105	0x3f95ba30	1.1697445
106	0x3fc847cd	1.5646912
107	0x4007e23e	2.1231837
108	0x3f84a96f	1.0364207
109	0x3f2e1f8d	0.6801689
110	0x3fa264be	1.2686994
111	0x3fb55b01	1.4168397
112	0x400693cd	2.102771
113	0x3fb61a3e	1.4226758
114	0x40205871	2.505398
115	0x3f396a43	0.7242777
116	0x3f63eda3	0.8903448
117	0x3f9f8425	1.2462202
118	0x3fff4fcd	1.9946228
119	0x4001d711	2.0287516
120	0x3f9e1679	1.2350608
121	0x3fa9bcbf	1.3260726
122	0x3fb27b0a	1.3943799
123	0x3f9173af	1.1363429
124	0x3fae0c2a	1.3597462
125	0x3e4b4617	0.19850956
126	0x3f2162e5	0.63041526
127	0x3efac086	0.4897501

net.4.bias f4 [128]
0	0xbd85c4a8	-0.0653165
1	0xbed22810	-0.4104619
2	0xbf88bb4a	-1.0682156
3	0xbee95771	-0.45574525
4	0xbea50359	-0.32229117
5	0xbf061d45	-0.5238841
6	0xbd56c6bb	-0.052435618
7	0xbed5e5fc	-0.41777027
8	0xbf475f96	-0.7788023
9	0xbf561b47	-0.8363537
10	0xbf1252aa	-0.57157385
11	0xbe76a7a4	-0.24087387
12	0xbf22ce15	-0.63595706
13	0xbf37cf48	-0.7180066
14	0xbe1090ab	-0.14117686
15	0xbec1fb0d	-0.3788685
16	0xbf6cd132	-0.92506707
17	0xbd35a8da	-0.044350483
18	0xbf346871	-0.70471865
19	0xbf54668e	-0.82968986
20	0xbf356952	-0.7086383
21	0xbe88c7a8	-0.26714826
22	0xbe9dc761	-0.30816177
23	0xbf087a35	-0.53311473
24	0xbeac5bb7	-0.33663723
25	0xbeca2769	-0.39483193
26	0xbf4c4bc6	-0.7980312
27	0xbf004108	-0.5009923
28	0xbf56d74f	-0.83922285
29	0xbf86f8c4	-1.0544667
30	0xbf5f1d85	-0.8715442
31	0xbe25b8de	-0.16183802
32	0xbf2d7f93	-0.6777279
33	0xbed9cb18	-0.4253776
34	0x3dacce9e	0.084378466
35	0xbea1ed3e	-0.31626314
36	0xbf018164	-0.5058806
37	0xbe75c9e4	-0.24002796
38	0xbf25bc80	-0.64740753
39	0xbf288ea7	-0.6584267
40	0xbf0e47fd	-0.55578595
41	0xbf170956	-0.5899862
42	0xbdc4a798	-0.096022785
43	0xbf03e586	-0.515221
44	0xbf26c056	-0.6513723
45	0xbe01b741	-0.12667562
46	0xbf5163d6	-0.8179296
47	0xbf4578ae	-0.7713727
48	0xbd961dd8	-0.07329911
49	0xbf65b418	-0.89727926
50	0xbe777272	-0.24164751
51	0xbf7b1520	-0.9807911
52	0xbf3a2d63	-0.72725505
53	0xbef08cf1	-0.4698253
54	0xbf66d470	-0.90167904
55	0xbe936168	-0.28785253
56	0xbf35bd4f	-0.70991987
57	0xbe8f7849	-0.28021458
58	0xbf4b2d5b	-0.7936608
59	0xbd5def1e	-0.054183118
60	0xbf3b86ff	-0.7325286
61	0xbf62bfa2	-0.8857366
62	0xbf636800	-0.88830566
63	0xbf490ed2	-0.7853824
64	0xbf379e2b	-0.7172572
65	0xbf13e5fb	-0.577728
66	0xbe2d204c	-0.16906852
67	0xbf826367	-1.0186585
68	0xbf460347	-0.7734875
69	0xbf253609	-0.64535576
70	0xbf295fcf	-0.6616182
71	0xbee0f30b	-0.43935427
72	0xbf2ad10b	-0.66725224
73	0x3bece8c5	0.0072298967
74	0xbe94442a	-0.28958255
75	0xbea13153	-0.31482944
76	0xbf4546da	-0.77061236
77	0xbec6a22d	-0.38795605
78	0xbec9d5fe	-0.39421076
79	0xbee81fef	-0.45336863
80	0x3d8ec1d2	0.06970562
81	0xbea61a1c	-0.32441795
82	0xbdff8015	-0.124756016
83	0xbf55b166	-0.83473814
84	0xbcc3c003	-0.02389527
85	0xbec3915a	-0.38196832
86	0xbf524e6a	-0.821509
87	0xbed038d9	-0.4066837
88	0xbd871531	-0.06595839
89	0xbf3bc0f0	-0.73341274
90	0xbf05f9d7	-0.5233435
91	0xbecad879	-0.3961828
92	0xbec569b7	-0.38557217
93	0xbf55bb0e	-0.8348855
94	0xbf07491b	-0.52845925
95	0xbf45e12c	-0.7729671
96	0xbef54db4	-0.47910845
97	0xbedf940d	-0.4366764
98	0xbf4f7f42	-0.81053555
99	0xbf61baaf	-0.8817548
100	0xbf60f3ce	-0.87872016
101	0xbf85e160	-1.0459404
102	0xbf475211	-0.778596
103	0xbd7b652b	-0.06137578
104	0xbf136fb7	-0.5759234
105	0xbe3a50a0	-0.18194818
106	0xbe7301a0	-0.23731089
107	0xbf060439	-0.52350193
108	0xbeab4b38	-0.33455825
109	0xbf1dfa12	-0.617097
110	0xbf022057	-0.50830597
111	0xbf00f209	-0.50369316
112	0xbe14e415	-0.14540131
113	0xbf2ae263	-0.6675169
114	0xbe8ec9fc	-0.27888477
115	0xbf3c9107	-0.73658794
116	0xbea9efb3	-0.33190688
117	0xbd31e0af	-0.043427166
118	0xbe26ebaf	-0.16300844
119	0x3daf4d24	0.08559635
120	0xbf5be22f	-0.85892004
121	0xbf3e3b1d	-0.7430895
122	0xbe85d434	-0.2613846
123	0xbe5ec302	-0.21754077
124	0xbf144480	-0.5791702
125	0xbf442e79	-0.7663341
126	0xbf32b002	-0.69799817
127	0xbf6e9867	-0.932013

net.6.weight f4 [128, 128]
0	0x3e04b054	0.12957889
1	0x3f4963f7	0.7866816
2	0x3ef77964	0.483348
3	0x3ef71fa9	0.48266342
4	0x3ebbcada	0.366782
5	0x3f3fe315	0.74955875
6	0x3cbb9bef	0.022901503
7	0x3edfe773	0.4373127
8	0x3f0e248e	0.5552453
9	0x3e733b29	0.23753037
10	0x3f3e36aa	0.7430216
11	0x3f857a66	1.0427978
12	0x3e739d46	0.23790464
13	0x3e330777	0.17483316
14	0x3f96e13f	1.178749
15	0x3eae7c2c	0.3407911
16	0x3e559743	0.20858483
17	0x3f3178f1	0.69325167
18	0x3e12d0e5	0.143375
19	0x3ec518a7	0.3849537
20	0xbe472118	-0.19446218
21	0x3f112853	0.56702155
22	0x3ea7cb88	0.3277247
23	0x3ef1da4a	0.47236854
24	0x3fa9b678	1.325881
25	0xbd83e27b	-0.06439682
26	0x3f6278a8	0.88465357
27	0x3f026947	0.5094189
28	0x3ee3edc9	0.44517353
29	0x3eeeb9c8	0.46626115
30	0x3eebfcc7	0.4609129
31	0x3f2680d3	0.6504032
32	0xbabb847a	-0.0014306449
33	0x3f06b380	0.52617645
34	0xbdaeb717	-0.08531015
35	0x3f279c92	0.6547328
36	0x3de8aa64	0.113606244
37	0x3f615923	0.88026637
38	0x3e594a37	0.21219717
39	0x3ef03a9f	0.46919724
40	0xbddf9691	-0.1091739
41	0x3e7c4d29	0.2463881
42	0xbd1cbb69	-0.038264666
43	0x3f25ef3d	0.64818174
44	0x3e095c87	0.13414203
45	0x3deb6c3d	0.11495254
46	0xbd175e36	-0.03695508
47	0x3e4bf112	0.1991618
48	0x3f42d867	0.76111454
49	0x3eccea7f	0.40022656
50	0x3f618b53	0.88103217
51	0x3e278534	0.16359407
52	0x3cd479ca	0.02593698
53	0x3e9b9027	0.30383417
54	0xbe92d174	-0.28675425
55	0x3e323f1d	0.17406888
56	0x3dfce9ca	0.12349279
57	0x3e45e1ce	0.19324419
58	0x3f48d418	0.7844863
59	0x3a3b0f37	0.0007135751
60	0x3ede3768	0.43401647
61	0x3f0a3bd8	0.53997564
62	0x3e8a3de0	0.27000332
63	0xbe250c37	-0.16117941
64	0x3dc267a4	0.09492424
65	0xbf3b00e3	-0.7304823
66	0x3f04f043	0.5192911
67	0x3eca748b	0.3954204
68	0xbe9a9d47	-0.30198118
69	0x3eb0fa41	0.3456593
70	0x3f8388dd	1.0276142
71	0x3eedc7b2	0.46441418
72	0x3ee21cd9	0.44162634
73	0x3ed8ebcc	0.423674
74	0x3efb2136	0.49048775
75	0x3f612b4e	0.879567
76	0x3e235356	0.15949759
77	0x3eaa1032	0.3321548
78	0xbeb63e0a	-0.35594207
79	0x3f2b57ef	0.6693105
80	0x3f2e2627	0.68026966
81	0x3f8fc2dc	1.1231341
82	0x3dc2106f	0.09475791
83	0x3f03bf1a	0.5146347
84	0xbea4abee	-0.32162422
85	0x3f045a83	0.5170061
86	0x3e013c94	0.12620765
87	0xbead97ff	-0.33905026
88	0x3f043ede	0.5165843
89	0x3dd65aad	0.10466514
90	0x3f106e29	0.5641809
91	0xbdc32267	-0.09528046
92	0x3fa9ac83	1.3255771
93	0x3eb7e2dd	0.3591527
94	0x3ed1a935	0.40949407
95	0x3f59fad6	0.8514837
96	0x3f3a0699	0.7266632
97	0x3e3fad88	0.1871854
98	0xbd1c09ab	-0.038095158
99	0x3d2aa258	0.04165873
100	0x3e85eeee	0.2615885
101	0x3e2c7ebc	0.1684522
102	0x3eddceb0	0.43321753
103	0x3e1f3aff	0.15549849
104	0xbd5d3d18	-0.05401334
105	0x3ea9fd46	0.33201045
106	0x3f1d33ae	0.6140698
107	0x3eb728e0	0.35773373
108	0x3f2810de	0.6565074
109	0x3f0b3933	0.54384154
110	0x3f1af60d	0.60531694
111	0xbde42a45	-0.11140875
112	0xbf522e4b	-0.8210189
113	0x3eea9376	0.4581563
114	0x3f5b5a81	0.85684973
115	0x3f32cb92	0.69841874
116	0x3eea30ab	0.45740256
117	0x3dc5b02a	0.09652741
118	0x3e386e02	0.18010715
119	0x3e8608e2	0.26178652
120	0x3f21c837	0.6319613
121	0x3e461e2f	0.19347452
122	0x3ec31151	0.3809915
123	0x3c9c1756	0.019054096
124	0x3f9e8f11	1.238741
125	0x3e94cf59	0.29064444
126	0x3f295295	0.66141635
127	0x3efe73cd	0.49697724
128	0x3e90e4d9	0.28299597
129	0x3e773533	0.24141388
130	0x3eff3513	0.4984518
131	0x3e4b90f6	0.19879517
132	0x3f306c7a	0.6891552
133	0xbd228b65	-0.03968372
134	0xbe4b2d12	-0.19841412
135	0x3f97ba66	1.1853759
136	0x3e94523e	0.28968996
137	0x3f52a87b	0.8228833
138	0x3f2729de	0.6529826
139	0xbf98cada	-1.1936905
140	0x3f0af8f4	0.5428612
141	0xbb3ee0f0	-0.0029125772
142	0xbeeff26b	-0.46864638
143	0x3ea046cb	0.3130401
144	0xbe9de6ff	-0.308403
145	0x3f156c56	0.5836843
146	0x3d4556ea	0.04817859
147	0x3f599173	0.8498756
148	0x3eb62ce2	0.35581118
149	0x3f8304e1	1.0235864
150	0x3e970efb	0.29503617
151	0x3f16fbea	0.5897814
152	0x3d926099	0.07147331
153	0x3f8d0bc2	1.1019213
154	0x3f8ee841	1.1164628
155	0x3eab5f98	0.3347137
156	0x3e1c9486	0.15291032
157	0x3e474ad2	0.19462135
158	0x3e5f864e	0.21828577
159	0x3e570e4b	0.21001546
160	0x3d1886f6	0.037238084
161	0x3ea23dc2	0.31687742
162	0x3eb5e705	0.35527816
163	0x3f2731be	0.65310276
164	0xbb7d4d8e	-0.0038650963
165	0x3e71f66d	0.2362916
166	0x3e0fcedc	0.14043754
167	0x3c2df435	0.0106173055
168	0x3db9af09	0.090665884
169	0x3f66d23a	0.9016453
170	0x3e04cc5b	0.1296858
171	0x3f4bb4af	0.79572576
172	0x3c673aef	0.014113172
173	0x3f2109f0	0.6290579
174	0xbe27e8af	-0.16397355
175	0xbe197023	-0.14984183
176	0x3f51a33a	0.8188969
177	0x3ea2671f	0.317193
178	0x3e270153	0.16309099
179	0x3f7c0ce9	0.984572
180	0x3e836876	0.25665635
181	0xbd8a8d5e	-0.06765245
182	0x3e2cff77	0.16894327
183	0xbe8849c8	-0.2661879
184	0xbcc26107	-0.023727907
185	0x3dbfd7dc	0.09367344
186	0x3f49fe0f	0.7890329
187	0x3f0530ea	0.5202776
188	0x3e3c01d7	0.18360077
189	0x3e867125	0.26258197
190	0x3efdb02d	0.49548474
191	0xbe03d204	-0.12873083
192	0x3d259064	0.040420905
193	0x3eba38de	0.3637151
194	0xbe7d68fc	-0.2474708
195	0x3f6dddae	0.9291638
196	0x3f519a71	0.81876284
197	0x3e08516a	0.13312307
198	0x3f4911bb	0.7854268
199	0x3b0d35b3	0.00215469
200	0x3f55ba5b	0.8348748
201	0x3e729591	0.23689868
202	0x3f1ca063	0.6118223
203	0x3eec5557	0.4615886
204	0x3ecb1366	0.39663237
205	0x3e8d8bec	0.27645814
206	0x3f1418ec	0.5785053
207	0x3e040507	0.12892543
208	0x3f09a859	0.53772503
209	0xbf3df2c7	-0.74198574
210	0x3e8d2808	0.27569604
211	0x3e207528	0.15669692
212	0x3e74803a	0.2387704
213	0x3f7d497e	0.98940265
214	0x3dd6a287	0.104802184
215	0xbd529126	-0.051407956
216	0x3ed6f2fe	0.41982263
217	0x3d27d32e	0.04097288
218	0x3e784eac	0.24248761
219	0x3d8802af	0.06641137
220	0x3f938eaa	1.1527913
221	0x3ea26c2e	0.3172316
222	0x3f7c0502	0.9844514
223	0x3f12c480	0.57331085
224	0x3f1bdc9a	0.60883486
225	0x3e8c79db	0.27436718
226	0x3e2a94c5	0.16658314
227	0x3e148150	0.14502454
228	0xbe413814	-0.18869048
229	0x3ed85c6a	0.42258006
230	0x3f0a90c6	0.54127157
231	0x3f579b37	0.84221214
232	0xbe51a731	-0.20473935
233	0x3f28db4c	0.6595962
234	0x3dd5b3d1	0.10434688
235	0x3f10764c	0.56430507
236	0x3f6b8c2c	0.9201076
237	0x3f025ab3	0.50919646
238	0x3f0d3045	0.5515178
239	0xbe62c067	-0.22143708
240	0xb9a31099	-0.0003110215
241	0xbe037d49	-0.12840761
242	0x3f4c75de	0.7986735
243	0x3f11a329	0.5688959
244	0x3ecd4d7b	0.40098175
245	0x3ee758a2	0.4518481
246	0x3f24e7bf	0.64416116
247	0xbd0d4c14	-0.034496382
248	0x3fa5ab13	1.2942833
249	0xbf216261	-0.6304074
250	0x3ed2568d	0.41081658
251	0xbc4773c0	-0.012173593
252	0xbf5986ed	-0.84971505
253	0xbe428575	-0.18996222
254	0xbd190cb7	-0.03736564
255	0x3e717c0c	0.23582476

net.6.bias f4 [128]
0	0x3f66a066	0.900885
1	0x3f24cd7f	0.6437606
2	0x3f7f48c7	0.99720424
3	0xbe6142c1	-0.21998121
4	0x3f6c25d9	0.9224525
5	0x3f4bf752	0.79674256
6	0x3e05d6b0	0.13070178
7	0x3f07fbd7	0.5311865
8	0xbe4242af	-0.1897075
9	0xbeda1cf6	-0.4260022
10	0x3f6adf7d	0.91747266
11	0xbedb7550	-0.4286294
12	0x3f4c587d	0.7982252
13	0x3d2c1e5b	0.042021137
14	0xbd2c6c6a	-0.04209558
15	0x3ee0e9c5	0.43928352
16	0x3eafd2cc	0.34340513
17	0x3e776782	0.24160579
18	0xbe763d99	-0.24046935
19	0xbf017349	-0.50566536
20	0x3f5c3628	0.86020136
21	0x3efa6282	0.4890328
22	0xbef7cda0	-0.48399067
23	0xbfbf3212	-1.4937155
24	0x3ee5784e	0.44818348
25	0x3f453a4b	0.77042073
26	0x3f0bcb29	0.5460687
27	0xbd660671	-0.056158487
28	0x3f2dc19c	0.6787355
29	0xbe4559a8	-0.19272482
30	0x3f9838af	1.1892298
31	0xbf186c7a	-0.5954052
32	0x3f228773	0.6348793
33	0xbe6896ee	-0.22713825
34	0x3f4a6840	0.7906532
35	0xbf06c2ad	-0.526408
36	0x3ea93cd4	0.3305422
37	0x3f921d98	1.1415281
38	0x3ebb87fa	0.3662718
39	0xbe9ca2df	-0.3059301
40	0x3f35dafa	0.71037257
41	0x3f8b60c5	1.0888907
42	0xbf0b6132	-0.54445183
43	0x3f0b764a	0.5447737
44	0xbea4f2c5	-0.32216468
45	0x3e148d15	0.14506944
46	0xbeb8a874	-0.3606602
47	0x3f6892d9	0.9084907
48	0xbdd06ea8	-0.10177356
49	0x3f38ad13	0.7213909
50	0x3f51f849	0.8201948
51	0x3f5bf872	0.8592597
52	0xbe4d4f61	-0.20049812
53	0x3d825321	0.06363512
54	0xbf12098b	-0.5704581
55	0x3edcf714	0.43157256
56	0x3f566cd3	0.837598
57	0xbd07cd0b	-0.03315453
58	0xbf7ae8e2	-0.980116
59	0x3f10d540	0.56575394
60	0xbf4ac44c	-0.79205775
61	0x3f1d80f7	0.6152491
62	0x3f7beca2	0.9840795
63	0xbea1cfc2	-0.3160382
64	0x3f5ff225	0.8747886
65	0x3e8a2c7c	0.26987064
66	0x3eb7a292	0.3586622
67	0x3ec364f3	0.38162956
68	0x3f95ca7a	1.1702416
69	0x3f617aff	0.880783
70	0x3ea584a4	0.3232776
71	0xbe3cb6b4	-0.1842907
72	0x3f8924b0	1.0714321
73	0xbeeab7be	-0.4584331
74	0x3f696900	0.9117584
75	0x3f22b5c4	0.635586
76	0xbf6cbc67	-0.9247498
77	0x3df15726	0.117842
78	0xbd821216	-0.06351106
79	0x3ead0192	0.3379026
80	0xbf020379	-0.5078655
81	0x3f0d46c8	0.5518613
82	0x3f79ab73	0.97527236
83	0x3f1c6afe	0.6110076
84	0x3dba219c	0.09088442
85	0x3f28bd95	0.6591428
86	0x3ecb3827	0.39691278
87	0x3e83a940	0.25715065
88	0xbf8806e0	-1.0627098
89	0xbe8c870b	-0.2744678
90	0x3f3e4498	0.74323416
91	0x3df174b7	0.1178984
92	0x3f0b9b9b	0.5453431
93	0xbf8f0de8	-1.1176119
94	0x3f850fcd	1.0395447
95	0x3e567e3e	0.20946595
96	0x3f2b0ba7	0.66814655
97	0x3e0c899b	0.13724367
98	0x3f58f211	0.84744364
99	0xbed7f005	-0.42175308
100	0x3f7899ee	0.9710988
101	0x3d951e5b	0.072811805
102	0x3e980303	0.29689798
103	0x3ebe0a17	0.37117073
104	0x3e84a74e	0.25908893
105	0xbdda15b1	-0.106486686
106	0x3fa828c9	1.3137447
107	0x3df81536	0.12113421
108	0x3f9f76d6	1.2458141
109	0x3ede021f	0.43360993
110	0x3f075819	0.528688
111	0xbed3c55b	-0.41361508
112	0x3eb66e30	0.3563094
113	0x3e59ab23	0.2125669
114	0x3ee8e6a2	0.4548846
115	0x3f569ad4	0.8383
116	0x3f9b614a	1.2139065
117	0x3f1b2294	0.6059964
118	0x3e7058c7	0.23471366
119	0x3eac8094	0.33691847
120	0x3e9e580c	0.3092655
121	0xbf9979f5	-1.1990343
122	0x3f15e9f5	0.58560115
123	0xbe503515	-0.20332749
124	0x3e45d714	0.19320327
125	0x3f693eee	0.9111165
126	0xbe86ccd9	-0.2632816
127	0x3f08259c	0.5318239

net.7.weight f4 [128]
0	0x3ea90acc	0.3301605
1	0x3ec874aa	0.39151508
2	0x3ea7b0f1	0.32752183
3	0x3eb92665	0.36162105
4	0x3e9329ba	0.28742772
5	0x3eb6440a	0.35598785
6	0x3ee724ab	0.45145163
7	0x3e79bba5	0.24387987
8	0x3eaf9e2b	0.3430036
9	0x3f0850e1	0.5324841
10	0x3e979755	0.29607645
11	0x3f6a1eae	0.91453063
12	0x3eafbbad	0.34322873
13	0x3f400173	0.7500221
14	0x3eeae5bb	0.45878395
15	0x3ebf8ac9	0.37410572
16	0x3e811282	0.25209433
17	0x3eef7021	0.46765235
18	0x3f98cd7d	1.193771
19	0x3eb47f27	0.3525326
20	0x3eb8c229	0.36085632
21	0x3ee9f0e4	0.45691597
22	0x3ed91473	0.42398414
23	0x3fb5d300	1.4205017
24	0x3ec85546	0.39127558
25	0x3ec8e4df	0.39237115
26	0x3ed9ea3b	0.42561516
27	0x3ef6ed82	0.4822808
28	0x3eb4d811	0.35321096
29	0x3f850228	1.0391283
30	0x3e110bbd	0.14164634
31	0x3f9b5491	1.2135183
32	0x3eb6ce54	0.3570429
33	0x3ea62b97	0.3245513
34	0x3eb9f3dd	0.36318865
35	0x3f679f9d	0.90477926
36	0x3eb7cde9	0.35899284
37	0x3e3369c2	0.17520812
38	0x3ef7dc58	0.48410296
39	0x3eec22cb	0.46120295
40	0x3ebc3a20	0.36763096
41	0x3e77413b	0.24145977
42	0x3fb7571c	1.4323459
43	0x3ef6da0c	0.48213232
44	0x3e3d35e3	0.18477587
45	0x3f68c02e	0.9091824
46	0x3f3c11a5	0.73464423
47	0x3e73daa4	0.23813874
48	0x3f42afc3	0.7604944
49	0x3ebe9af3	0.37227592
50	0x3edb98e9	0.428901
51	0x3ea72323	0.32643995
52	0x3f07f401	0.53106695
53	0x3ee694e5	0.45035473
54	0x3e932c71	0.28744844
55	0x3f096653	0.5367176
56	0x3eb4b3df	0.3529348
57	0x3f54c243	0.8310892
58	0x3f986d40	1.190834
59	0x3e969889	0.2941325
60	0x3f397957	0.72450775
61	0x3ee1e5b0	0.4412055
62	0x3e6a544a	0.22883716
63	0x3f6bdc63	0.9213316
64	0x3e6ead3c	0.23308271
65	0x3eae84d7	0.34085724
66	0x3ea91a8e	0.33028072
67	0x3ef18e8d	0.4717907
68	0x3e4303fc	0.19044489
69	0x3e465dc8	0.19371712
70	0x3ed6ffb6	0.41991967
71	0x3f468704	0.7754977
72	0x3e4db810	0.20089746
73	0x3f7c57ff	0.9857177
74	0x3ea17399	0.31533507
75	0x3eca3889	0.39496258
76	0x3f79a00a	0.97509825
77	0x3e470498	0.19435346
78	0x3f63d4fe	0.88996875
79	0x3eedeae4	0.4646827
80	0x3f2224f7	0.63337654
81	0x3f08bd0c	0.5341346
82	0x3e8dcd53	0.27695712
83	0x3eae0372	0.33987004
84	0x3ec46bd9	0.3836353
85	0x3e6b32e8	0.22968638
86	0x3f0b8297	0.5449614
87	0x3e5b657e	0.21425435
88	0x3e9adf6e	0.30248588
89	0x3f25c62a	0.647555
90	0x3ea9d212	0.33168083
91	0x3f256c8c	0.64618754
92	0x3f108aa6	0.5646156
93	0x3fa92801	1.3215333
94	0x3e6df3c3	0.23237519
95	0x3e596977	0.21231638
96	0x3eae324d	0.3402275
97	0x3e780e58	0.24224222
98	0x3e94c550	0.29056787
99	0x3f81f3d4	1.0152535
100	0x3e88f073	0.26745948
101	0x3eda9318	0.4269035
102	0x3f04119a	0.5158936
103	0x3ef6e19d	0.48219004
104	0x3eeeb2ea	0.46620876
105	0x3f0c0c9d	0.54706746
106	0x3e3d3c0f	0.18479942
107	0x3f6b73db	0.91973656
108	0x3e22ba9a	0.15891495
109	0x3eb4f0a7	0.35339853
110	0x3ef1cfe3	0.47228917
111	0x3f73f9b1	0.95302874
112	0x3f00c882	0.5030595
113	0x3e250865	0.16116484
114	0x3e899ea0	0.26878834
115	0x3eb20e2a	0.3477643
116	0x3e4abe33	0.19799118
117	0x3e8a932d	0.2706541
118	0x3eb8b9c3	0.36079225
119	0x3e1bcb0b	0.15214173
120	0x3ecfa439	0.4055498
121	0x3f6cdcfa	0.92524683
122	0x3eab93fe	0.33511347
123	0x3f3f3e6a	0.7470461
124	0x3ee35ad9	0.4440525
125	0x3e556c5a	0.20842114
126	0x3e9e1264	0.30873406
127	0x3edc8858	0.43072772

net.7.bias f4 [128]
0	0xbf3fe0eb	-0.7495257
1	0xbf072ac5	-0.52799636
2	0xbf3dfd4a	-0.74214613
3	0xbf3b86c5	-0.73252517
4	0xbf1c7c57	-0.6112723
5	0xbf12f566	-0.574057
6	0xbf09fefc	-0.539047
7	0xbf262dac	-0.6491344
8	0xbf35d56d	-0.71028787
9	0xbf3948ec	-0.72376895
10	0xbf17e7a2	-0.5933782
11	0x3cf938c0	0.030422568
12	0xbf1479b5	-0.5799821
13	0xbeee5a1d	-0.46553126
14	0xbf51a8ef	-0.818984
15	0x3ea76c5f	0.32699868
16	0xbf1d8eb2	-0.6154586
17	0xbf49d60c	-0.78842235
18	0xbf325079	-0.6965404
19	0xbf4ba8c2	-0.7955438
20	0xbf012a19	-0.5045486
21	0xbf02cea5	-0.51096565
22	0xbf4e037f	-0.80474085
23	0xbe9997b0	-0.2999854
24	0xbf1a0e21	-0.6017781
25	0xbf62db2f	-0.886157
26	0xbf29ccf9	-0.6632839
27	0xbf11c334	-0.5693848
28	0xbf128cde	-0.57246196
29	0xbcae6ea4	-0.021292992
30	0xbf4b0eaf	-0.7931928
31	0x3af5bb6b	0.0018747872
32	0xbf107fb7	-0.5644488
33	0xbf2b204f	-0.66846174
34	0xbf09b988	-0.53798723
35	0xbf01854e	-0.5059403
36	0xbf251e56	-0.64499414
37	0xbf2c1b14	-0.6722882
38	0xbf107b56	-0.56438196
39	0xbed50d19	-0.41611555
40	0xbf06b1a8	-0.5261483
41	0xbf369a5e	-0.71329296
42	0x3cbd5727	0.023112847
43	0xbf0ff053	-0.5622608
44	0xbf212ff4	-0.62963796
45	0xbef0d44e	-0.47036976
46	0xbe48cf96	-0.19610438
47	0xbf463c09	-0.77435356
48	0xbeefa8bb	-0.4680842
49	0xbf1eaac9	-0.6197935
50	0xbf158d7d	-0.5841902
51	0xbf1aa44c	-0.6040695
52	0xbf3cd343	-0.7375986
53	0xbf342713	-0.7037212
54	0xbf384b83	-0.7199022
55	0xbf01fd7f	-0.5077743
56	0xbf1ffb32	-0.6249267
57	0xbf312666	-0.69199216
58	0xbeb9c221	-0.3628092
59	0xbf1e3633	-0.6180145
60	0xbf302810	-0.6881113
61	0xbef6a27c	-0.4817084
62	0xbf2a993f	-0.66640085
63	0xbf2395bf	-0.6390037
64	0xbf206a9c	-0.62662673
65	0xbf0b2482	-0.5435258
66	0xbf15dea6	-0.5854286
67	0xbf0574ec	-0.52131534
68	0xbf45c7b1	-0.7725783
69	0xbf4bc701	-0.7960053
70	0xbf23715a	-0.63844836
71	0xbf288376	-0.65825593
72	0xbf359c00	-0.7094116
73	0xbf3ad556	-0.72981775
74	0xbf1ab5ec	-0.6043384
75	0xbf1bdd05	-0.60884124
76	0xbf2cea18	-0.675447
77	0xbf3eea6f	-0.7457647
78	0xbefb56d1	-0.49089673
79	0xbf0a2433	-0.53961486
80	0xbd4ce96c	-0.050027296
81	0x3e754dbb	0.23955433
82	0xbf280ece	-0.6564759
83	0xbf18fbc3	-0.5975916
84	0xbf2b311e	-0.6687182
85	0xbf382bb5	-0.7194169
86	0xbefe7a8e	-0.49702877
87	0xbeb7881a	-0.35846025
88	0xbf494f53	-0.78636664
89	0x3e4e1e30	0.20128703
90	0xbf08472d	-0.53233606
91	0xbf51920a	-0.8186346
92	0x3e30d135	0.17267306
93	0xbea6717f	-0.32508466
94	0xbf282789	-0.65685326
95	0xbf3ec366	-0.74516904
96	0xbf2443a6	-0.64165723
97	0xbf40ade3	-0.7526533
98	0xbf23f76a	-0.640494
99	0xbee8857e	-0.45414346
100	0xbf18510f	-0.59498686
101	0xbf06039c	-0.5234926
102	0xbf0b8fd9	-0.5451637
103	0xbf0b1755	-0.54332477
104	0xbf0900c1	-0.53516775
105	0xbf4b5da1	-0.7943974
106	0xbf2133d2	-0.62969697
107	0xbef157fc	-0.4713744
108	0xbf4634db	-0.774244
109	0xbf297210	-0.6618967
110	0xbf12ccf3	-0.5734398
111	0xbf191ff2	-0.5981437
112	0xbf01c2b0	-0.50687695
113	0xbf4406ec	-0.7657306
114	0xbf43170a	-0.7620703
115	0xbf147036	-0.5798372
116	0xbf349002	-0.7053224
117	0x3e322520	0.17396975
118	0xbf44e73c	-0.76915336
119	0xbf259479	-0.64679676
120	0xbf115e48	-0.56784487
121	0xbf45dd0f	-0.77290434
122	0xbf60b801	-0.8778077
123	0xbecf1d7b	-0.4045218
124	0xbf0f69fa	-0.5602108
125	0xbf3dabfa	-0.7409054
126	0xbf18e690	-0.5972681
127	0xbf0ff73b	-0.5623662
