cp/Platform_psac3_dl10_d100_20000_May_30_2020_09_19_57_target_value1.pt (torch_old, 146147 bytes, 13 tensors)

net.0.weight f4 [128, 15]
00000000: 8862 83bf 5e82 77be 6c5d f6be 4a18 cc3d
00000010: 3f53 843e bc10 53be e369 cc3e 2969 913b
00000020: d0ac 3abe d3a4 9d3d 0890 263f 8f6a 84be
00000030: 64ae 8e3d 2622 dc3e 563e 843d ac94 94bf
00000040: b55a 3bbe aaa9 d63f 78d7 483d 4bd3 8b3e
00000050: b92d 603e 8205 58bd d59c 51be 2ed3 bdbe
00000060: 7a6c dbbe b3b9 ba3d e6a0 c33e 97ba c83e
00000070: 2bce c2bf c13c 1f3f 75f4 9abe 4c90 f43e
00000080: 2caf 2ebf c412 cd3d 7340 3bbe 1cff 7fbc
00000090: b9e8 abbc 9733 aebe 7421 28be ca48 473e
000000a0: a539 023f 6e2b eebe 6ed7 283d bab3 33c0
000000b0: 81a8 3b3f 84a4 9dbf c7a8 aabf 8b29 68be
000000c0: d392 eb3e 81a6 a13e 12fa 7e3d 2685 1fbd
000000d0: 4734 b8bc 6e1b 243e 14a4 a33d 87b5 1b3f
000000e0: a740 c0bf 7f1e b53f 21f1 6c3f 5e71 02bf
000000f0: 2268 f33f fa15 983e f72c c3bf 07c7 27bf
00000100: 8bb5 07bd 3fd3 d93d 0142 383e f73b e4be
00000110: 6302 04bd 7703 cd3e 0f3f c4bc 992a 1d40
00000120: 0e1a 023e 60c8 52be d453 193e 0587 ecbc
00000130: dad1 5f3f 9b40 6d3e fb11 debe 8590 f43e
00000140: de3d 7dbe 8df5 9b3d 67e2 c1be 3cea 5cbe
00000150: 077a 703f af3f d6bf d3ae bf3e 74b7 923e
00000160: 4a27 90bd ac5e 3c3e 6b5b 86bf 79a2 3640
00000170: 949c 0dbf 6cf9 153f d169 013e bf2c ba3d
00000180: 7b4a bcbd 421f dc3d 0a45 0fbe 84b7 ffbf
00000190: d7d8 3e3f 0c8f 6cbf d7e5 9e3e d973 aebd
000001a0: 1b58 99bd 4d95 5abf d095 abbe 8986 663e
000001b0: 4954 82bd 85b4 ce3d 0b97 213e 25bd cd3e
000001c0: 073f a1be 0cbc e4be 17d4 83be 64b1 aabe
000001d0: 60c6 e43f 691b c83e 46c7 593e c618 c23e
000001e0: 648e c0be bc02 11bf a55c d9bf d694 fcbe
000001f0: e714 c2bc d6b5 67bf 130c 653e 43ad b63e
00000200: a4fb a3be d502 c23d 3fc0 8e3f 3022 253d
00000210: f296 db3e 5582 943e b16e ef3d a2aa 41bf
00000220: 1a7f 61be c55b a53e 01d2 ff3d 666c aa3e
00000230: a2f9 6dbe 4bfc b43e 1b85 16be 01a1 5ebe
00000240: b5e3 93bd 1002 573f d570 fcbe d4c1 32be
00000250: 0ca4 e33e d659 e13e 357e 08bf 949d 173f
00000260: 0da9 f6bd 2703 2d3f fd74 093f 4f21 4ebf
00000270: 4d16 f33e 8826 353e 86a6 e2bd 65a7 0cbf
00000280: 047a d7be e3cc da3f 8189 bb3e 8ce8 fabe
00000290: 3712 25bf b0e6 6bbf 3254 b3be 1af6 263e
000002a0: 444b d53d e999 3a3e 30af fabc 8482 8d3e
000002b0: 3df4 a2be e694 d4bd 236d ef3d 9477 813f
000002c0: 64b0 a0bf df48 043e b363 403f aa65 acbd
000002d0: 2470 3340 eddb 303c ef23 073f 6fa8 15be
000002e0: 2055 bf3e 0764 4b3f 7d80 e23e 9268 d9be
000002f0: 9063 1fbf 8872 b13e 4ca7 473f f9cc 1fbf
00000300: 9766 253d 566a 763c dbd0 593e 9b98 00bf
00000310: 8a81 1cbc 2c8a 6c3f 26b8 87bd 3288 2a3f
00000320: c96b d6bf 1c85 de3e 943a 5e3f 0e63 15bf
00000330: 16bb d63f 34ea bb3c 5e24 033f 94ad cb3e
00000340: e587 393e 9843 73be 7ddd d4bf cb55 2abe
00000350: 53cd be3f f69c 0abf 0793 253e bcea 1abf
00000360: 6bbe a23e dd14 a53c f81e 8bbe 36cf 9b3f
00000370: 9a36 c73d 55e9 1dc0 c7be 2a3f 8f07 373f
00000380: a573 85bc 7f16 c9bf 9dc0 d7bf 5e6b 083f
00000390: 20e1 513e 4957 64be 3244 9abe dcee 363e
000003a0: 91b7 b83e fd97 883e 51d2 adbe d563 e83f
000003b0: 86ee 45bf 08f1 09bd 584c 23be 92ee 2b3e
000003c0: f06f 273e 709d 87be fae9 61bf 4ea6 40bd
000003d0: 642a b33e c631 843e 0792 9d3e 37b1 123c
000003e0: f5d0 96be 06d6 60bd bcf3 433f 739f aabe
000003f0: 7391 373e ec2a a33d ca2e 003e 3d97 45c0
-1.0264444 -0.24170825 -0.4811815 0.0996557 0.25844762 -0.20611852 0.39924535 0.004437585
-0.18229985 0.07697453 0.65063524 -0.25862548 0.06966856 0.42994803 0.06457202 -1.1607871
-0.1829632 1.6770527 0.049033612 0.2730964 0.21892442 -0.052739628 -0.20469983 -0.3707518
-0.428562 0.091174506 0.38208693 0.39204857 -1.5219167 0.6220208 -0.3026463 0.4776634
-0.6823604 0.10013345 -0.18286304 -0.015624788 -0.020984994 -0.34023735 -0.16419011 0.1946136
0.5086921 -0.4651751 0.041221075 -2.8078446 0.7330399 -1.2315831 -1.3332757 -0.22672097
0.46010455 0.31572345 0.062250204 -0.03894534 -0.022485865 0.16026089 0.0799028 0.60823864
-1.501973 1.4149932 0.92555434 -0.50954235 1.9016154 0.29704267 -1.5248097 -0.65538067
-0.033132117 0.10635995 0.17993928 -0.44577 -0.03222884 0.40041706 -0.02395585 2.455725
0.12705252 -0.2058425 0.14973384 -0.028872976 0.87429583 0.23169176 -0.43373093 0.4776651
-0.24730632 0.076151945 -0.37868044 -0.21573728 0.939362 -1.6738185 0.37438068 0.2865559
-0.07038744 0.1839549 -1.0496649 2.8536665 -0.55317044 0.5858371 0.12638022 0.09090566
-0.091938935 0.107481495 -0.1399118 -1.997788 0.7454962 -0.9240577 0.3103473 -0.0851819
-0.07487508 -0.85384065 -0.33512735 0.22512259 -0.06363732 0.10093025 0.15780275 0.40183368
-0.314934 -0.44674718 -0.2574775 -0.33338463 1.7873039 0.39083412 0.21267423 0.37909526
-0.37608635 -0.566448 -1.6981398 -0.49332303 -0.023691608 -0.90511835 0.22367887 0.35679063
-0.32027924 0.094731964 1.1152419 0.040315807 0.428886 0.29005685 0.116910346 -0.7565099
-0.22021142 0.32296577 0.12491227 0.33285826 -0.23239759 0.35348734 -0.14699213 -0.21741106
-0.07221166 0.8398752 -0.49304834 -0.17456752 0.44461095 0.44013852 -0.53317577 0.5922482
-0.12043963 0.67582935 0.53694135 -0.80519575 0.47477952 0.1769048 -0.11066918 -0.54942924
-0.42085278 1.7093776 0.36628345 -0.49005544 -0.6448092 -0.92148876 -0.35025173 0.16304818
0.104147464 0.18222775 -0.030601114 0.27638638 -0.31826964 -0.103799626 0.11690738 1.0114617
-1.255383 0.12918423 0.7515213 -0.084178284 2.8037195 0.010794622 0.52789205 -0.14615034
0.37369633 0.79449505 0.44238654 -0.42462593 -0.62261295 0.34657693 0.7798965 -0.6242214
0.04038104 0.015040001 0.21271078 -0.5023286 -0.009552369 0.92398334 -0.066269204 0.6661407
-1.6751643 0.4346093 0.86808133 -0.5835427 1.6775844 0.022938825 0.51227367 0.39780867
0.18118246 -0.23756254 -1.6630093 -0.1663429 1.490641 -0.54145753 0.16169368 -0.60514426
0.31785902 0.02015155 -0.27172065 1.2172611 0.09727211 -2.4673665 0.66697353 0.7149591
-0.016290495 -1.570999 -1.6855656 0.5328883 0.20496035 -0.22298922 -0.30130154 0.17864555
0.3607755 0.26678458 -0.3394952 1.8155466 -0.7731708 -0.03367713 -0.15947092 0.16790226
0.16351295 -0.26487303 -0.88247645 -0.0470336 0.3499328 0.25819224 0.30775473 0.008953384
-0.29456297 -0.05489161 0.76543784 -0.33324775 0.17926578 0.07967171 0.12517849 -3.0873559

net.0.bias f4 [128]
00000000: 354c 993d 754b 593e d00b 83ba af5e cdbd
00000010: 23c8 cb3e 726a cd3e d238 073e db12 253e
00000020: a229 7c3e ca8c f93e 4cd1 113e cc6b 1d3e
00000030: 40f0 b73e 5bab 543f 192e 603e 0e84 13be
00000040: 2070 b63d 277c 14be 05d8 b63e 44c1 543e
00000050: 555f 023e 4891 683e 56d1 a0bb 9d57 1d3e
00000060: 0366 3d3d aa2f 043f 21dc 08bd c407 cfbd
00000070: 5359 df3d f89d abbe a987 aa3e d1f2 0a3e
00000080: 097a a43e 481a 813c 7e27 b83e d3d3 763e
00000090: 8296 8fbc ec72 ec3e da0f de3d 8599 aebd
000000a0: 3bd0 103e a66a 123e a59e e73e 8d29 453e
000000b0: 67b2 b43d 85c1 303e f1f2 8bbe 7300 eb3e
000000c0: 9e67 273e 6004 6c3e b003 203e 6e7f b8bc
000000d0: dd05 8b3e 1ef3 c83e c6fd 9b3e 1d76 0a3e
000000e0: 9341 673e fdd8 d03d 0679 b83e 0f6c ed3d
000000f0: bf17 963e 25a2 d2bc 8067 263d 4af6 98be
00000100: f329 703e 7683 813e 15a5 a03e 4b4a d5bd
00000110: b2c7 033e b8d3 a23d 8dbf 683e 7134 5c3e
00000120: c84c 00bd ca8d cc3e 61b7 2a3f ec7d af3d
00000130: 300f 2dbd f1a7 7c3c f9c4 b23e b829 373e
00000140: fe18 b6bc 06c2 a23c fb3a bf3e 9af2 113e
00000150: 5e97 52bd 1ca8 bf3e 86f8 923d 7d9f 073f
00000160: e740 c43e d07f dd3e 6b83 583e 82ee c23e
00000170: 3e55 273e 477d 8d3e 0513 d03b 7698 15be
00000180: 9f94 c03d 2de0 ed3e 79c0 2d3e 0097 89be
00000190: ad25 85bd da6b 853e f893 b53e 81e1 64be
000001a0: a6ca db3e 2bbe f33e 1dec 2e3e 8c28 bcbe
000001b0: d40c b73e 1db3 453e 64b9 3b3e abcc 593e
000001c0: 6969 cd3e df31 ca3e 823d b43e 7678 0dbe
000001d0: 3596 1f3e a217 1d3f 0a94 5b3e 0db6 703c
000001e0: 089a 313d b6bf 8d3e 76a1 4cbd 34fd b03e
000001f0: 64e8 0e3e 4ec9 9b3e 6c2a 05be ed12 d43d
0.074852385 0.21220191 -0.0009998027 -0.10027825 0.3980113 0.40120274 0.13205269 0.16120474
0.24625257 0.48740226 0.14239997 0.15373152 0.35925484 0.8307397 0.21892585 -0.14405844
0.08908105 -0.14500485 0.35711685 0.2077685 0.12731679 0.2271167 -0.0049077673 0.15365453
0.046239864 0.5163523 -0.033413056 -0.10108903 0.10905709 -0.33518958 0.33306625 0.1356919
0.32124355 0.015759602 0.3596763 0.24104242 -0.017527822 0.46181428 0.10842867 -0.08525375
0.14141934 0.14298496 0.45238224 0.19254132 0.0882309 0.17261322 -0.27333787 0.4589878
0.1634812 0.23048544 0.15626407 -0.0225217 0.2715291 0.39247984 0.3046705 0.13521619
0.22583608 0.10197637 0.36029834 0.11592876 0.29314992 -0.025712082 0.04062605 -0.29875404
0.23453502 0.2529561 0.31375948 -0.10414561 0.12869146 0.079505384 0.22729321 0.2150438
-0.031323224 0.39951926 0.66686064 0.085689396 -0.042250812 0.0154209 0.34915903 0.17887008
-0.022228714 0.019867908 0.37349686 0.14252701 -0.051413886 0.37432945 0.07176308 0.52977735
0.38330767 0.43261576 0.21143882 0.38072592 0.16341111 0.27634642 0.0063499236 -0.1460894
0.09403347 0.46460095 0.16967954 -0.26873016 -0.06501327 0.26058847 0.35464454 -0.22351648
0.42928046 0.47606024 0.17082258 -0.36749685 0.35751975 0.19306608 0.1833244 0.21269481
0.40119484 0.39491174 0.35203177 -0.13815483 0.15584643 0.61364186 0.21443191 0.014691842
0.043359786 0.27685326 -0.04995867 0.3456818 0.13955837 0.3042702 -0.13004464 0.10355172

net.1.weight f4 [128]
00000000: 0272 913e 89b2 f63f 74c2 523f aba1 153f
00000010: 52d4 f93f e3b3 983f 1bde 5c3f 44e2 213f
00000020: 5661 4d3f 191f 863e f925 0240 1583 a13e
00000030: f5e3 8040 78ca ef3f 24fd 9c3f da55 903f
00000040: 31e9 563e 9796 9540 b2e0 bf3e 8314 db3e
00000050: 8924 a23f 1411 153f fd65 923f b805 a43e
00000060: 3ecb a63f 4404 243e 46b5 1e40 dbd7 633f
00000070: 35c1 623f c489 2140 a762 6a3f 6d22 9e3e
00000080: 6b9c 3a3f efe6 ba3f 50b9 353f 238c 053f
00000090: dac6 943e 19b1 153f a1c6 9f3d 6cc4 ab3f
000000a0: 571f d73f c310 e63f 5e64 243f 36b7 4f3f
000000b0: b521 ec3f 5a92 873f cf92 8f3f 6a0c bb3f
000000c0: 3000 183f df32 7f3e 29dc a23f 239c 883e
000000d0: 5afb a93f 8d90 953e 4211 c33e 523b 833f
000000e0: 6418 993f f045 0f40 5fbc 0f3f 6c60 a43f
000000f0: 3ed1 133f 598f 033f 5ab7 473f 3b92 2640
00000100: 2058 923f d5e4 563f 4666 053f 3d4c 943f
00000110: f243 5b3f 059e ac3e 8471 b83f f8c6 9b3e
00000120: 4b73 403f 5b17 253e a5ad be3f 3658 803f
00000130: 63d5 8a3e 7b27 a53f fb4c 8a3e 65a0 233f
00000140: 0f38 4540 d62b f43e 5bf1 cf3e 3a21 cf3e
00000150: f8bc 2d3f 4f61 143f 762b 2840 3065 cd3e
00000160: effa 2f3f d17e 033f e0a7 9b3e 11a9 5140
00000170: 01f6 eb3e 605f 9e3e fdef ce3e 58b5 213f
00000180: 93d9 1d3f 0c83 c23e fb26 0a40 7eab 483f
00000190: 9875 f73f 3338 6d3f 2a8e cd3f 363a c13f
000001a0: 9211 833e 625c bc3e 5126 2c40 18fe 1f3f
000001b0: d27e c93e 2a6f 953f 9437 fc3f 191c 873e
000001c0: 262e b03e d83c f33f 1441 ee3f ad50 213f
000001d0: b9ef ac3f 00ce 973f 0fa9 8c3e f895 8b3e
000001e0: 6221 843f 0af5 cf3f d017 903e 3c85 b13e
000001f0: c295 b93e bf1f 883f fbe2 d83f e9a6 9f3e
0.28407294 1.9273235 0.8232796 0.5844981 1.951792 1.1929897 0.86276406 0.6323588
0.8022665 0.261956 2.0335677 0.3154532 4.027827 1.8733664 1.2264752 1.12762
0.20987393 4.6746325 0.37476116 0.42789087 1.26674 0.58229184 1.1437374 0.32035613
1.3030775 0.16017252 2.479814 0.89001244 0.8857606 2.5240335 0.9155678 0.3088564
0.72894925 1.4601725 0.7098589 0.52166957 0.29057962 0.58473355 0.07801557 1.3419318
1.6806439 1.7973865 0.6421565 0.8113893 1.8447787 1.0591538 1.1216677 1.4613163
0.59375286 0.2492175 1.2723438 0.26681623 1.3279831 0.29211846 0.38099104 1.0252478
1.1960568 2.2386436 0.56146806 1.2841926 0.57741153 0.51390606 0.7801415 2.6026752
1.1433144 0.8394292 0.5210918 1.1585766 0.8565055 0.3371431 1.4409642 0.3042524
0.75175923 0.1612219 1.4896742 1.002692 0.27115926 1.2902673 0.27011856 0.6391662
3.0815465 0.47689694 0.40613827 0.40455037 0.6786647 0.5796098 2.6276526 0.40116262
0.6874227 0.5136538 0.30401516 3.275944 0.46086124 0.3093214 0.40417472 0.63167334
0.61660117 0.37990606 2.1586292 0.78386676 1.9332762 0.9266388 1.605901 1.509589
0.25599343 0.36789232 2.6898386 0.6249709 0.3935457 1.167455 1.9704461 0.26388624
0.34410208 1.9002943 1.861361 0.63013726 1.3510658 1.1859741 0.2747273 0.27262855
1.0322688 1.6246655 0.28143167 0.34671962 0.3624707 1.0634688 1.6944269 0.3118203

net.1.bias f4 [128]
00000000: 82ce 13bf 07de 07bf 9148 22bf 0300 2bbe
00000010: 9be1 3c3d db52 c5be 7a2b 91bd d19d 11bf
00000020: 5e83 40bf 4942 3dbf 1cc1 75bf 85cd 16bf
00000030: b236 a03d d792 b0be 3261 fcbd aa23 38be
00000040: 6686 dbbe c313 2d3e 2954 11bf d8f3 38be
00000050: 3b4a 54be a812 28bf 9fcf 67be 8d70 05bf
00000060: c59a 15bf b513 9abe a720 9cbc e30e b1be
00000070: d4da e0bd ebfe 723e 0376 47bf ae30 1bbf
00000080: 905b a5be 7c54 af3d 6aa0 19bf 8a23 36be
00000090: 67a9 2bbf 40a2 fcbe 69b4 89be f83e 7cbe
000000a0: 1357 513e 02c8 103e 34d6 62bf b5f6 efbe
000000b0: 6972 03be dd96 bebe 5418 c7bd 2fa3 b5be
000000c0: 3611 32bf bb82 0dbf 8061 e4bb 0fdb 0ebf
000000d0: cd93 29be d843 e6be e40d 40bf 873d cabe
000000e0: dd2c 00bf c203 ebbc f963 2abe 864e b9be
000000f0: 4ead 9dbd 8ee0 d6be 2222 edbe 6ac5 3ebe
00000100: 07e6 d6be 3810 20be 89a4 09bf 76f8 e4be
00000110: 5acd 2fbf ac21 22bf 6b4e 4d3d 09cc 37bf
00000120: e60a d83c 5777 dfbe 08eb a33b 4dc2 28bf
00000130: 4338 39bf 17c7 6dbe 5be8 04bf 4abd 6fbe
00000140: 6514 89bd 54b9 1dbf 2049 31bf 1340 1ebf
00000150: b362 77be 7ef8 1cbf ad87 e9bc ed34 15bf
00000160: c88a 31bf 7c2e 37bf e87b 0ebf 6290 ed3d
00000170: 71a1 26bf 1b84 00bf e945 14bf 88df 86bd
00000180: 8905 64bf 5d30 2cbf 1fd3 54be 31cc 12be
00000190: 2cdd 36be 1008 8fbe 03ef 003e d808 02bf
000001a0: 7c30 10bf 58ec 41bf c637 e8be 9dc3 98be
000001b0: 2565 1cbf 62a5 1ebf 1cc7 37bd aee4 a5be
000001c0: 82ba 48bf d0d0 a936 30c4 21bf 2a6c e9be
000001d0: 5fd4 ecbe cfe9 52bf b49b 1ebf 43e8 39bf
000001e0: f213 c7be 9ae8 78be 9c46 eabe dd8a 27bf
000001f0: 2d6f 38bf 9fdf ffbe 9252 87bd d0dd 1dbf
-0.5773698 -0.5307316 -0.6339198 -0.16699223 0.04611359 -0.38539776 -0.070883706 -0.56881434
-0.7520045 -0.7392927 -0.95997787 -0.5890735 0.07822932 -0.3448703 -0.12323226 -0.17982355
-0.42875975 0.1690207 -0.56769043 -0.18061769 -0.20731442 -0.6565347 -0.22637795 -0.52124864
-0.58439285 -0.3009316 -0.019058539 -0.3458167 -0.10979238 0.23730056 -0.77914447 -0.60621154
-0.3229642 0.08561036 -0.600104 -0.17786995 -0.6705536 -0.49342537 -0.26895455 -0.24633396
0.20443372 0.14138797 -0.886081 -0.4686791 -0.12836613 -0.37224475 -0.09721437 -0.35476062
-0.6955751 -0.55277604 -0.0069696307 -0.55803007 -0.16560288 -0.44973636 -0.75021195 -0.39500067
-0.50068456 -0.028688315 -0.16639699 -0.3619272 -0.07699071 -0.41968197 -0.46315104 -0.18629995
-0.41972372 -0.15631187 -0.53766686 -0.4472081 -0.68672717 -0.6333263 0.050123613 -0.7179571
0.026372384 -0.43645737 0.005002383 -0.6592148 -0.72351474 -0.23220478 -0.51917046 -0.23412052
-0.06693343 -0.61610913 -0.69252205 -0.6181652 -0.24158745 -0.6131667 -0.028507078 -0.58283883
-0.6935239 -0.71555305 -0.55657816 0.115998045 -0.6509009 -0.50201577 -0.57919174 -0.06585604
-0.89070946 -0.67261297 -0.20783661 -0.14335705 -0.17857808 -0.2793584 0.12591176 -0.50794744
-0.5632398 -0.75751257 -0.45355052 -0.2983674 -0.61091834 -0.61971104 -0.04486762 -0.3240103
-0.7840959 5.0609015e-06 -0.63189983 -0.45590335 -0.46255776 -0.82388014 -0.61956334 -0.7262003
-0.38882405 -0.2430748 -0.45756996 -0.65446264 -0.7204464 -0.49975297 -0.06607546 -0.61666584

net.3.weight f4 [128, 128]
00000000: e994 81be 2648 823e e3da d23e 4ad9 8ebf
00000010: 26c6 a73e edeb 273f 566d a23d 55a4 b8bd
00000020: f249 ae3e b253 80be 9f6b 123f 3059 b33d
00000030: 1e62 d1be 9c0c 323d 50aa 6abe 3ac4 0d3e
00000040: d276 c2bd 6398 9dbd b522 023e ccb8 9bbe
00000050: b6ad b83d f6d8 d0bd c6fe ddbd f97f 383b
00000060: 6f9b 38bf 0285 8d3e cf9f 133f e79a 133f
00000070: deaa 5c3f 586e 233f 61e4 1c3f 8956 22bd
00000080: b335 233d d0ea f13e ecee 333e 57cc 793f
00000090: de0c d8bd 7375 793e ce63 513e 7372 053f
000000a0: 9aa5 aebe 5f13 aabd e67e d3be 2f47 f6be
000000b0: ee0f 5fbf de07 d13e d1d3 f03e 0922 a5bf
000000c0: 0016 423e 40f4 14bd 1928 153e 3479 a53e
000000d0: 1cef 273f 31f3 aabd 2bfb eabf d0c8 25c0
000000e0: 5e37 1b3f e0e1 26bf 03cc ba3d 6b62 bd3e
000000f0: 63cc 89be 51bd 533f 53e1 163f 193b 1340
00000100: f3d7 413e 0cfd 363f 6bb4 743d 6f65 8dbf
00000110: 9cc0 07bd 7cd1 2fbd 9650 fdbe 500d f13e
00000120: c9d7 0b3e 6afb d5bc 9bb5 f8be 0d65 d0be
00000130: 8de2 27bd 0601 553f c71d d33d 1004 603f
00000140: 8224 0a40 07fc 00be aaea d73e eec8 20bd
00000150: 3e40 fe3c 0445 9ebd fa50 fb3e 9c9d 72bd
00000160: cc4e 8e3e d44d 023e b006 a03d 7c8e 6cbf
00000170: 0638 43be f7a5 47bd 77be 223e 25cc 293e
00000180: 1d72 7fbf 3730 bbbc d273 a5bf c41b cb3e
00000190: 14e4 363f 2f68 1dbf a28e 25be 2727 a43f
000001a0: 72f1 6b3d d4af 883e 9b75 0fbf f355 953e
000001b0: b3e5 353f 1af5 6f3d 07d6 173f dce1 083f
000001c0: ed6a f83e f99d e53e c8e5 2abc c64b f8be
000001d0: 69c0 08bf d4d4 2b3f 6c67 d6bf 11a2 ec3d
000001e0: 7687 ad3e 63cf f1bf 2b7a 7e3d ae12 873e
000001f0: 3094 a7bd ff1b e1be 7df9 0fc0 ca51 e9bd
00000200: 88b7 44be 674e 10bc e601 d23e 25ec 42bf
00000210: 5d1d d9bf f8b8 943f 7b38 993e f200 bc3e
00000220: b7c7 26bf 2774 953e 6d99 f43e 6510 7b3d
00000230: a981 a7bf 24d3 fd3e f9a8 333f f4a4 b03f
00000240: 7f8b 9cbe 340f 0440 f6a3 053e 599b d93e
00000250: 9312 043d be81 92be 39fc 2fbf 6620 ac3d
00000260: 8370 c43e 777b 4dbf 772e 9fbf ab18 be3e
00000270: 953d eabe 5a2c 103e 4f61 57be 8800 983d
00000280: 54ff 5b3f a3dc 3d3f 884f 9f3e b849 0e3f
00000290: 5941 943e db0f 863d 75f0 a83c ffce 833f
000002a0: 8ece 103f 4da3 8d3f 52f9 b7bd bafd 49bf
000002b0: d859 613f 44f5 273f 1e41 593e 3ab5 1a3f
000002c0: 3de0 9b3e c7a3 cc3c d519 473f cc16 113e
000002d0: 531c a93e 56b9 ccbe 9526 873e 4a6e 233f
000002e0: 6850 643f 5d0e 40bf ac2f 91bf 7c44 f83d
000002f0: 7bbc b9bf 5f88 5a3e 17b3 003e 0842 c0be
00000300: 05f5 0e3f f69b 74be d1c3 ad3e 967e 0d3f
00000310: cb62 063f 0343 c33c fd52 cd3d 7ded 303f
00000320: 892d 473f 2369 59be f9ba eebe 388f 16be
00000330: a55c 79be 924d 27bf 8ceb 203e 14a8 c93e
00000340: f5ad cd3e beeb 08bf e06a d23d 1c82 76be
00000350: c0d0 003f 2424 ad3e 9dbd 0cbe e6a7 85bd
00000360: c84c 3f3e f7ce 96bd c5b0 0e3e 2bac 0dc0
00000370: 1616 e9bb 8c42 06be a15a 33bc 83bc ec3e
00000380: 1c9f ed3e bb8e c63e e009 863f 15cf 583f
00000390: 9945 40be 58f5 9abf ea83 45bf e4b7 dd3e
000003a0: 5312 963e 8a21 32bd 4705 0fbf 241a fa3e
000003b0: 2c47 213f 8d0c c73e 0feb 62bd 2441 6cbe
000003c0: 8d8d 813d e0be 33c0 5946 38bf 07b4 e03e
000003d0: e502 333f 5622 2bbf 5fb5 bf3c 239e 61bd
000003e0: 5cee 31bf b741 ecbe 9999 a83e bb51 803b
000003f0: 8856 453e 5f77 2e3f e8cf bd3e 1939 8bbd
-0.25308922 0.2544567 0.41182622 -1.1160061 0.32768363 0.6559437 0.079310104 -0.09015719
0.3404079 -0.25063854 0.57195467 0.087572455 -0.4089517 0.043469056 -0.22916532 0.13844386
-0.094953194 -0.07695081 0.12708552 -0.30414426 0.09017508 -0.10197632 -0.1083961 0.002815245
-0.7211217 0.2764054 0.57665724 0.5765824 0.8619822 0.63840246 0.6128598 -0.039633308
0.039846133 0.4724946 0.1757161 0.9757742 -0.10549329 0.2436121 0.20448229 0.5212776
-0.3411072 -0.08304476 -0.41307753 -0.48101184 -0.8713368 0.40826315 0.47036603 -1.2901012
0.18953705 -0.036365747 0.14566077 0.32319033 0.65599227 -0.08347166 -1.83579 -2.5903816
0.6063136 -0.6518841 0.091209434 0.3698915 -0.26913747 0.8271075 0.5893757 2.300482
0.18930034 0.7147987 0.059742372 -1.104658 -0.03314267 -0.04292439 -0.49475545 0.4708047
0.13656534 -0.02612086 -0.48576054 -0.40702096 -0.04098754 0.83204687 0.10308414 0.875062
2.1584783 -0.12596141 0.42171222 -0.03925412 0.031036492 -0.077280074 0.49085218 -0.05923234
0.27794492 0.12725002 0.078137755 -0.92404914 -0.1906434 -0.04874226 0.15892969 0.16581781
-0.997835 -0.022850139 -1.292597 0.3966962 0.7144177 -0.61487097 -0.16167691 1.2824448
0.057603307 0.26696646 -0.56038827 0.29167137 0.7105362 0.058583356 0.59310955 0.53469634
0.48519078 0.44847086 -0.010430761 -0.4849531 -0.53418595 0.67121625 -1.6750312 0.11554349
0.3389241 -1.8891414 0.062128227 0.2638144 -0.081825614 -0.43966672 -2.2496026 -0.11392553
-0.19210637 -0.008807755 0.41017073 -0.7614158 -1.6962086 1.1618948 0.29925904 0.3671947
-0.6514849 0.2919018 0.47773305 0.061294932 -1.3086444 0.4957515 0.70179707 1.380034
-0.30575177 2.063428 0.13050827 0.42501333 0.032244276 -0.2861461 -0.68744236 0.08404617
0.3836709 -0.8026652 -1.2436055 0.37128195 -0.45750108 0.14079419 -0.21033214 0.07421976
0.85936475 0.7416479 0.31115365 0.55581236 0.28956106 0.06545993 0.020622471 1.0297545
0.5656518 1.106546 -0.08983101 -0.7890278 0.88027716 0.6560862 0.21216246 0.6043278
0.30444518 0.024980439 0.7777379 0.14168853 0.33029422 -0.3998515 0.26396623 0.6384016
0.8918519 -0.75021917 -1.1342673 0.12122437 -1.4510645 0.21341084 0.12568317 -0.37550378
0.5584262 -0.2388762 0.3393846 0.5527128 0.52494496 0.023835665 0.100255944 0.6911238
0.77803856 -0.21231513 -0.46627024 -0.14703071 -0.24351747 -0.6535274 0.15714854 0.39386046
0.4017178 -0.53484714 0.10274291 -0.2407307 0.5031853 0.33816636 -0.13744207 -0.06526165
0.18681633 -0.07363694 0.1393462 -2.2136333 -0.0071132286 -0.13111323 -0.010946901 0.46237573
0.46410453 0.3878077 1.0471764 0.8469098 -0.1877655 -1.2106123 -0.7715441 0.4330436
0.29310855 -0.043489017 -0.5586743 0.4884807 0.62999225 0.38876763 -0.05539995 -0.23071724
0.06325827 -2.808525 -0.7198234 0.4388735 0.6992629 -0.6684927 0.023401914 -0.05508245
-0.6950433 -0.46143886 0.32929686 0.003915993 0.1927129 0.68150896 0.37072682 -0.06798

net.3.bias f4 [128]
00000000: 488c 42bf c166 503e 052b 30be 1835 953f
00000010: 64ba f23e a0cd de3d 9b6e 1040 e776 af3e
00000020: 8cc1 163f 631d e33e a4bf 813f 9b24 a63f
00000030: 1205 c23c 24c2 71be ef02 a43d 682a d83e
00000040: 054a b739 6850 583f 153e b1be 06c1 863f
00000050: c793 3c3f ebd0 3e3f 2616 093f fbdf 2bbf
00000060: 5536 a93e abd4 813e 73b1 0d40 f9d7 493f
00000070: 3567 b5be 05c0 1940 a44f f7be dd71 6e3f
00000080: 17f2 693f 960d c03e d437 9d3e e0e0 cd3e
00000090: 6f89 623e 1e5e e1be c649 5cbf e160 0d40
000000a0: 7adf de3f 947e 903f d9c5 1e40 1f5a 163f
000000b0: 6e47 1240 12f7 bf3f 8832 72be 83af 6ebc
000000c0: a3ea 0c3f a660 1040 f4fb a13f 4b63 8f3f
000000d0: b720 fb3e 047b a83e 1b35 e43e 526e bb3f
000000e0: 8bf6 153e ae4b 803f 415c e63f 89e0 113f
000000f0: c4e1 1c40 1d9f 173e 46ab 383f 810a aabe
00000100: c9db 473f efbe 1c3e 9746 fb3e d737 1a40
00000110: 3a6a ef3e 3fc5 7b3e 5159 ba3e bd30 983e
00000120: f873 873e 7577 d13e be51 e53e f099 27be
00000130: 92f0 c3bd f44a c53f 161c 47bd eee4 d13e
00000140: 76b9 503f 0af1 853f dca0 863e 8bbe d73d
00000150: 8703 4f3f 2085 4a3f 6f98 b83f a51e 333e
00000160: a4bb 603f 6daa 9f3e 37c6 f93f 024b 363f
00000170: 4017 98be 6fe3 f03d 1645 1340 3af8 593e
00000180: d720 e13e 3df5 1340 fcf6 17bf 1722 1140
00000190: 9819 7f3f 48c2 e83e a815 2e3e 0684 d23d
000001a0: 8bd3 d93e dae5 d0be 4ca6 1740 7ffb 4d3f
000001b0: 7703 1940 9696 733e 5048 83bf 41a2 403f
000001c0: 7017 1a40 f22d f73e 7771 b73f 9d5b 61bc
000001d0: 4d2f 0ebf 1e7e 1e3f f7f0 0f3f eaf2 bc3e
000001e0: e1a3 b23f 1132 a63d c4ba 1a40 ba3d 013f
000001f0: 21d7 d9bd 95f1 133f 79b0 3a3e d80d bcbe
-0.759953 0.20351698 -0.1720391 1.1656828 0.4740783 0.108790636 2.2567508 0.34270403
0.5888908 0.44358358 1.0136609 1.2979921 0.023684058 -0.23609215 0.08008372 0.42219853
0.0003495963 0.8449769 -0.34617677 1.0527656 0.7366299 0.74537534 0.5354942 -0.6713864
0.33049265 0.25357565 2.2139556 0.78845173 -0.35430303 2.402345 -0.48302948 0.9314249
0.91385025 0.37510365 0.30706656 0.40210629 0.2212274 -0.44017118 -0.8605007 2.209038
1.741195 1.1288629 2.4808257 0.58731264 2.2856097 1.4997275 -0.23652089 -0.014568212
0.5504553 2.255899 1.2655015 1.1202177 0.49048397 0.32906353 0.44571766 1.4643042
0.1464483 1.0023096 1.7996904 0.5698324 2.4512796 0.1480679 0.7213634 -0.3321114
0.7806974 0.1530721 0.49077293 2.4096582 0.46760732 0.24586962 0.36396268 0.29724684
0.26455665 0.4091145 0.44788927 -0.16367316 -0.095673695 1.5413499 -0.04861077 0.40994972
0.8153299 1.0464184 0.262946 0.1053439 0.8086476 0.7910938 1.4421519 0.17492159
0.87786317 0.31184712 1.9513615 0.712082 -0.29705238 0.117621295 2.3010917 0.21286097
0.43970367 2.3118432 -0.59361243 2.2677057 0.9964843 0.45460725 0.17000449 0.10279088
0.42544207 -0.40800363 2.369525 0.8046188 2.3908365 0.23787913 -1.0256443 0.7524758
2.4076805 0.4827724 1.4331502 -0.013754752 -0.55540925 0.6191119 0.5622706 0.3690408
1.3956262 0.08115018 2.4176493 0.5048481 -0.10636736 0.577905 0.18231381 -0.36729312

net.4.weight f4 [128]
00000000: 2eea 2240 e330 ea3f cc74 a63f d944 683f
00000010: ff2e be3f 8d03 983f 5cc0 853e 9359 0740
00000020: 15f3 853f fb2e 923f 1079 4d3f 9837 e53e
00000030: 4684 d33f dd87 663f 1dff d33f 85d3 783f
00000040: d9b2 ad3f e438 393f 7819 cc3f c34e 503f
00000050: 06b7 593f 0854 8d3f ae90 443f 82d1 9140
00000060: c344 fb3f b6ad 0740 f33b ab3e be98 3d3f
00000070: 0898 c93f 6bf2 5c3e 9500 0d40 f84a 9b3f
00000080: b5f6 933f 54df b93f 3e87 cc3f e3b7 a53f
00000090: 9dc7 a13f c665 d23f dfd1 1f40 8bf1 883e
000000a0: e711 8a3e 0252 153f 4e56 813e 37e4 8e3f
000000b0: a7da 833e c738 f93e c753 963f 428d 0040
000000c0: d7f9 8f3f 40e0 c93e ea2a 403f 51d8 8f3f
000000d0: 07b4 393f 6420 f13f e057 bf3f dba8 0e3f
000000e0: 2482 d93f 46a9 183f 2c14 b83e 60ce 8a3f
000000f0: 6ccd 283e 480e bf3f eccb 4b3f 11ec 1840
00000100: 01ed 803f 350e bf3f a6b6 dc3f 61fe 873e
00000110: 6717 bb3f 2fd3 b93f aefb 913f 20b7 eb3f
00000120: bff9 9d3f 59e9 853f 2f06 c53f 595d fb3f
00000130: 853b 2840 925b f73e 215a e63f 0bdc fd3f
00000140: 7109 7c3f 0f40 063f 6677 d33f d414 b03f
00000150: cc0f a63f 5da7 c43f 2d2c cd3e 99ca cc3f
00000160: af05 2f3f 2fd5 c43f c330 fc3e 147f 9c3f
00000170: 9841 3240 c9de be3f f805 553e 19da 0f40
00000180: fce9 1140 9fe2 2b3e 7318 ed3f 352f 9a3e
00000190: aefb 1a3f 18e5 cb3f 99ea 0e40 764a cc3f
000001a0: 17fd c53f e204 b93f e837 8e3e 7922 913f
000001b0: 00c0 883e 7265 c33f 9609 0840 21f6 6c3f
000001c0: 5a62 8b3e 5fb7 ba3f 516c a33e bf2c fe3f
000001d0: 4ab9 b83f 2cd8 a03f 1c00 863f 2cf8 a03f
000001e0: 2c00 043f a6f6 f03f d1ad ba3d 710e ca3f
000001f0: fb6b e73f 744a 7c3f 9ef4 c63f 3045 1f40
2.5455432 1.8296169 1.3004394 0.90730053 1.4858092 1.1876084 0.2612332 2.1148422
1.0464808 1.1420587 0.8026285 0.44768977 1.6524742 0.9005106 1.6562229 0.97197753
1.3570205 0.72352433 1.5945272 0.8137018 0.85044897 1.1041269 0.76783264 4.5568247
1.963036 2.1199775 0.33444175 0.7406119 1.5749521 0.2157685 2.2031605 1.2132254
1.1559664 1.4521279 1.5978773 1.2946743 1.2639042 1.6437309 2.4971845 0.26746783
0.26966783 0.5832826 0.25261158 1.1163396 0.25752756 0.4867613 1.1744317 2.0086217
1.124812 0.39428902 0.7506548 1.123789 0.72540325 1.883801 1.4948692 0.55726403
1.6992841 0.5963329 0.3595289 1.0844231 0.16484612 1.4926233 0.79608035 2.3894083
1.0072328 1.4926211 1.724324 0.26561263 1.4616517 1.4517573 1.1404932 1.841526
1.2341841 1.0461837 1.5392512 1.9637862 2.6286328 0.4831205 1.7996255 1.9832777
0.98451906 0.52441496 1.6520813 1.3756356 1.2973571 1.5363575 0.40072766 1.5999328
0.6836805 1.5377558 0.49255952 1.2226281 2.7852535 1.4911739 0.20803058 2.2476866
2.2799063 0.16785668 1.8523086 0.3011414 0.6054028 1.5929289 2.2330687 1.5960224
1.5467862 1.4454615 0.27777028 1.1338645 0.26708984 1.5265334 2.125585 0.9256306
0.27223474 1.458721 0.31918576 1.9857405 1.4431546 1.256597 1.0468783 1.2575736
0.5156276 1.8825271 0.09115184 1.5785657 1.8079828 0.98551106 1.5543401 2.4885979

net.4.bias f4 [128]
00000000: 44a0 8dbe 1b3f abbd f08a 5abf f1a0 2dbf
00000010: 6d28 27bf ff5b 03bf 3ddd 14bf 587b 88be
00000020: 2b29 1bbf 4e9a 4cbf 47d1 e7be 4903 84bf
00000030: 2f54 89be faf0 c0be 2c8c 56be 1828 82bf
00000040: 5610 cdbe 97f4 edbe 0780 0cbf 4533 0cbf
00000050: 8655 ecbe 4bbe a1be 223c a4bb 04bf acbc
00000060: e33b 0ebf de89 d3be 34fe 7dbf 9385 07bf
00000070: 82d9 5dbe e1aa 2cbf bae0 2a3d 01de 48bf
00000080: 388b 31bf 18dd 74be 95ad 46bf a7a5 37bf
00000090: 690b 68bf ae5e 5cbe 4f80 bdbe dd64 2fbf
000000a0: fa39 3cbf e856 0fbf a26d 27bf 92f2 42be
000000b0: 0558 24bf 6e51 55bf bda1 d7be 1deb ebbe
000000c0: b737 20bf 5d28 6bbf 905a 81bf ea08 98bd
000000d0: b8d3 55be 8dc3 f5be 7aca fabe 2b14 46bf
000000e0: bda8 b4be 7be5 57bf f5f3 55bf 0974 94be
000000f0: 9ea3 43bf dd5d 9ebe 3968 9abe 5409 48be
00000100: a593 afbe 9667 343d 1d4d 2dbf 9d7c 4dbf
00000110: b0fc a4be 4b12 21bf 0134 3fbf a803 06bf
00000120: 57b2 51bf ac61 53bf da9e e9be d01f c5be
00000130: 1153 02bf 3a04 50bf 4c25 44bf 8825 2dbf
00000140: ff79 46bf 1664 8fbf 5cce ddbe a2e0 01bf
00000150: 8124 35bf 8442 683c 4620 25bf da23 38bf
00000160: ecf7 d9be 5450 85be 20c2 91bf 0b92 7dbf
00000170: 086b 40bd 1bd0 28bf d4ee 58bf 8c79 b5be
00000180: 2814 0cbf 53ea 44bf 3210 27bf 54ab 2ebf
00000190: 4f67 2dbf 700a e4bd 59e5 78be 8bf9 a2be
000001a0: ce71 50be f970 26bf 8b60 31bf 2e2c c3be
000001b0: fed0 36bf 5613 84be f7e7 e4be b6e5 30bf
000001c0: c43e 49bf fb09 15bf 9a3a 25bf 7cf4 35be
000001d0: 2067 5ebf 888b f9be fb38 c4be 2f74 5fbf
000001e0: 849d 81bf 112c 54bf f229 21bf 22a9 2abf
000001f0: ecc5 55bf 09ed 42bf f40f fabe a557 1b3e
-0.27661335 -0.08361646 -0.8536825 -0.678237 -0.6529606 -0.5131225 -0.5815008 -0.26656604
-0.6060969 -0.7992295 -0.45276853 -1.0313503 -0.2682204 -0.3768385 -0.20951909 -1.0168486
-0.40051526 -0.4647567 -0.54882854 -0.5476573 -0.46159 -0.31590495 -0.005012051 -0.021087177
-0.5556013 -0.41316122 -0.9921601 -0.52938193 -0.21665004 -0.6744824 0.041718222 -0.7846375
-0.69353056 -0.23912466 -0.77608615 -0.7173714 -0.9064241 -0.21520492 -0.37011954 -0.6851328
-0.73525965 -0.55991983 -0.6540166 -0.19037846 -0.6419681 -0.83327377 -0.42115584 -0.46077815
-0.62585014 -0.91858464 -1.0105762 -0.07423575 -0.20881546 -0.48000756 -0.48982602 -0.77374524
-0.35284987 -0.84334534 -0.83575374 -0.28994778 -0.76421535 -0.30930987 -0.3015764 -0.19534808
-0.3429233 0.0440441 -0.6769579 -0.8026827 -0.32224035 -0.6291854 -0.74688727 -0.5234933
-0.8191275 -0.8257091 -0.45629007 -0.38500834 -0.50908 -0.8125645 -0.7661941 -0.67635393
-0.775299 -1.1202419 -0.43321502 -0.5073339 -0.70758826 0.014176015 -0.6450237 -0.71929705
-0.42571962 -0.26037848 -1.1387367 -0.9905097 -0.046977073 -0.65942544 -0.8473942 -0.35444295
-0.54718256 -0.7692005 -0.6525909 -0.68230176 -0.6773576 -0.11134803 -0.24306239 -0.3183101
-0.20355913 -0.6501613 -0.6928794 -0.38119644 -0.71412647 -0.25796002 -0.44708225 -0.6910051
-0.786114 -0.58218354 -0.64542544 -0.17769045 -0.86876106 -0.48739266 -0.38324723 -0.8728666
-1.0126195 -0.8287974 -0.6295463 -0.66664326 -0.8350513 -0.76142937 -0.48840296 0.15170152

net.6.weight f4 [128, 128]
00000000: 6236 1e3f ac13 37be 4051 313f 4709 bfbc
00000010: e8ca 823f e86a 2bbf 1f0c ae3d 0c5c 2b3e
00000020: 9cc4 303f 1e6b c23e 2534 0f3f 11d1 e93d
00000030: 001f acbe 5d4c d23e e478 a4be 517f 243f
00000040: f204 9cbd 6417 ad3e 6292 183e ec55 203f
00000050: f12a 033e 11a2 e23e 868e 083f f8e7 353e
00000060: ebf9 22bf f35b 60be 97ab bdbe 91d3 1f3e
00000070: 4920 fa3e 826d 203d 93c3 783c d4e6 1f3f
00000080: a9b2 1fbe 73d7 ea3e 9745 7a3f 3fe0 683e
00000090: b57e b53e 15df dc3d 836f 19bf 24dd a63d
000000a0: f0f1 7b3e 8da9 173e 5b8e 31bd 51ff 503d
000000b0: 2dbc 77be cc41 7fbd ecf1 2f3e b70b d73e
000000c0: 576d c53e 77dd 81bd dda9 21bf c6db ac3e
000000d0: f9d1 ae3e df4e 4dbe 222d a83d 43d0 c83e
000000e0: 4ce6 e5be b547 1cbe 9e56 043e 5f11 053f
000000f0: d750 cbbe 1799 1d3e 51e2 573e e26b 523d
00000100: 1e89 623e b293 19bf 3c97 5b3f f2c6 82be
00000110: fee1 2bbe 4f61 393f 2ac4 7f3e 972e cd3e
00000120: c414 bb3d 6202 bbbc c1e2 b7bc 64ee 94be
00000130: 9d35 883e ffab 823c 0cc0 2b3f 438c d63d
00000140: af50 c0be 0b63 c9bd 649b 3a3e af90 6b3f
00000150: 4e2b 0e3f 51d1 df3e 16b1 203e 5bdc d83c
00000160: 76a5 d33e 9f6d 0a3e ec2e 663d f217 ed3d
00000170: a316 66be 99c5 053f cc5f 873d faab bf38
00000180: 59a7 323f 4904 c83c 88e8 39be 2a74 ad3e
00000190: 5c5c adbd 2cd9 023f de0b 5cbb d94b 0fbf
000001a0: b109 cc3e 42d8 1fbe 9dbc ca3d 1064 2b3f
000001b0: 104b 9ebe db86 a83d 097a 133f c6b4 183f
000001c0: 8af2 fabd 8a4c dcbe cd14 7e3e a86a b1bd
000001d0: 18f0 f33e 5b41 013d 3204 f5be e466 af3f
000001e0: 1fdd bcbb cdf1 293e a51b 013d dcb3 d03e
000001f0: aac4 de3c a492 22bd e713 223f dbc4 1e3e
00000200: 10e1 fa3f 7338 60bf c649 243f 79c2 963f
00000210: f169 c23f b4c8 a03f 91d2 603c ca1a 8e3f
00000220: 7288 9ebe 1135 0b3f 5d40 0fbf 2005 9a3f
00000230: 7e25 b63e cb4f bf3e 9e93 963f 49d4 fcbd
00000240: 4fb3 95bf f2a1 2ebe 9bf1 a83f 329b c73e
00000250: bf1a 27be d076 1b3f f88c 883f 0b86 3cbf
00000260: 3cc3 373f cbfd 963f be82 253f c613 a8be
00000270: 3e1f 093f d294 d6bd 80e6 e83f f2de ad3f
00000280: 4fd2 a53d ff8c edbf 8eec bf3e b7f7 adbe
00000290: bd70 2c3f be83 8b3d 1743 8a3f 19d3 7ebd
000002a0: 5dbc 3cbf 7039 203e 4c55 8b3e 0e1d 11c0
000002b0: a70e 253e dc7b 17be 004b 9c3e d9c2 ac3e
000002c0: d4c5 16bf 0b7f a7bd ca77 7a3e 9bc5 d1bd
000002d0: ed54 e4be aafa 1e3f a49d 9d3f 4cd1 d5bd
000002e0: cf3f b33f 21fd 12bf 4819 4bbf 978a 623f
000002f0: 7255 1fbd 99ae a43f 49ce 153f 7b07 0c40
00000300: 2be6 a8bf 98ef 1c3e 553d 393f 2515 863e
00000310: 8b38 a53e 66e0 3d3f a47e 25bf b708 76be
00000320: cb92 583f ce99 ccbd a76a cfbe d12c e03d
00000330: 5649 0340 e4f1 273f 3af7 ed3f 8441 98be
00000340: 2191 393f eff6 2bbe c0ed cabe 486f 5f3e
00000350: 383d 073f 876e 973f 607a dbbf 8efb b63f
00000360: 3204 863e 162c 033e 413a 183e 7c05 0d3f
00000370: edac 9f3f 46a7 d93f 1096 d63c 332d 39be
00000380: 176d 253f 6ee4 053c d795 0440 b21b 0d3e
00000390: a51d 96be 38e5 a2bf 1339 a53f 1623 eb3f
000003a0: 0d39 2ec0 1d7f 803f 8441 29be 8b1b e23f
000003b0: b888 693e 4aa5 c8be 9d33 c03f c746 773f
000003c0: 2b75 883d 761d c63e e43d 3bbf 9f41 003f
000003d0: 22d4 be3f 453a 0dc0 c922 2f40 4db7 fd3e
000003e0: 0c30 ec3e ac39 793f 4811 673c f421 1b3f
000003f0: 0c5d a6bf e24e ae3f 6ea6 553f b8b1 abbd
0.6180173 -0.17878598 0.692646 -0.023319853 1.0218172 -0.6696 0.08498406 0.16734332
0.6905 0.3797235 0.5593894 0.114168294 -0.336174 0.41073886 -0.32123482 0.6425677
-0.07618131 0.33806908 0.1489959 0.62631106 0.1280935 0.44264272 0.53342474 0.1776427
-0.63662595 -0.21910076 -0.37044975 0.1560805 0.48852757 0.039166935 0.015183347 0.6246159
-0.15595497 0.458675 0.97762436 0.22741793 0.35448232 0.10784737 -0.5993578 0.08147648
0.2460401 0.14810772 -0.04334865 0.05102474 -0.24192877 -0.06231861 0.1718213 0.42001125
0.38559982 -0.06341069 -0.63149816 0.33761424 0.3414457 -0.20049618 0.082117334 0.3922139
-0.44902265 -0.15261729 0.12923667 0.5197963 -0.39710113 0.1539043 0.21082427 0.051372416
0.22122619 -0.5999099 0.8577764 -0.25542408 -0.16785428 0.72414106 0.24977174 0.40074608
0.0913482 -0.022828285 -0.022446992 -0.29088128 0.26603404 0.015951155 0.67089915 0.104759715
-0.37561557 -0.09833344 0.1822334 0.92017645 0.5553483 0.43714383 0.15692553 0.026472261
0.41337174 0.1351838 0.056197092 0.11576833 -0.22469573 0.52254635 0.06610069 9.139623e-05
0.697866 0.024416106 -0.1815511 0.3387769 -0.08464882 0.5111263 -0.003357641 -0.5597511
0.39851144 -0.1560984 0.098992564 0.6694956 -0.30916643 0.08228847 0.57608086 0.5965084
-0.12253292 -0.43027145 0.24812622 -0.08662921 0.47644114 0.03155647 -0.47854763 1.3703275
-0.0057636644 0.16596146 0.031520505 0.40762222 0.027193386 -0.03969063 0.6331162 0.15504782
1.9599934 -0.87586135 0.6417507 1.1778098 1.5188581 1.256125 0.013722078 1.1101925
-0.30963475 0.5437785 -0.55957586 1.2032814 0.3557548 0.37365565 1.1763799 -0.12345178
-1.1695346 -0.17053965 1.3198732 0.38985592 -0.16318797 0.6072817 1.066802 -0.73642033
0.7178228 1.1796201 0.6465262 -0.32827586 0.53563297 -0.10477604 1.8195343 1.3583663
0.08096754 -1.8558654 0.37485164 -0.33978054 0.67359525 0.06812237 1.0801724 -0.062213037
-0.7372492 0.1564691 0.27213514 -2.2673984 0.1611887 -0.14793342 0.3052597 0.33742407
-0.5889561 -0.081785284 0.24459758 -0.102427684 -0.44596043 0.62101233 1.2313733 -0.10440311
1.4003848 -0.57417494 -0.7933545 0.8849272 -0.038899846 1.2865783 0.5851789 2.1879566
-1.3195242 0.15325773 0.7235921 0.26188007 0.322697 0.7417053 -0.64646363 -0.24026762
0.8459899 -0.099902734 -0.40511057 0.10946048 2.051351 0.6560347 1.8591073 -0.29737484
0.72487074 -0.16793416 -0.39634514 0.21819794 0.5282779 1.1830605 -1.7146721 1.4295518
0.26175076 0.12809786 0.14865972 0.55086493 1.2474648 1.7004173 0.026194602 -0.18083648
0.6461958 0.008172138 2.0716455 0.13780096 -0.29319492 -1.2726202 1.2908043 1.8370082
-2.722232 1.0038792 -0.16528898 1.7664655 0.2280606 -0.39188606 1.5015751 0.9659237
0.06662973 0.38694352 -0.7314131 0.5010013 1.4908488 -2.2066815 2.736498 0.4955391
0.46130407 0.97353625 0.014103241 0.60598683 -1.2997146 1.3617823 0.83457077 -0.083835065

net.6.bias f4 [128]
00000000: a7cf 1f3f ebcd 6bbe 56f3 633e 2dd9 293f
00000010: 70b2 983f 5a47 113f 6e94 aebd 488e 1a3f
00000020: 9a85 e6be e1ec 1dbf 2c45 953f 81ca b63f
00000030: c2f6 173f 1fb2 823f 034f b33e 904c b43e
00000040: 0f09 353f 753e 113f 095b ba3d 1a81 1e3f
00000050: a899 383f b4cf 723f 12fd a83e 0d98 693f
00000060: cbc8 2d3f ae68 8ebc 6380 123f 0dd7 303f
00000070: 5045 1bbf cdee f1bd c972 4a3f 3905 6ebe
00000080: d411 3ebf 2e6e 103f cccb 813f 7dd8 253f
00000090: d585 8b3f 4ad5 303f c5a8 243f ce25 513f
000000a0: bba9 5b3f 835f 6dbd 7502 2a3f be41 3f3f
000000b0: 47ec 8f3f 92d2 313f 1c0c a83f 3276 963f
000000c0: 8dd4 3f3f 96e2 413f 63ea 0a3f 3825 933e
000000d0: abac 683f c89a 0a3f b7cd 1bbe 978f db3d
000000e0: 0ca4 89be 2ee5 1f3f 3c2c a1be ec9d 323f
000000f0: 5709 33be a5d0 95bc 4fcc 8e3f 7098 403f
00000100: 8f51 083f d339 b4be 59a2 263f 1933 283f
00000110: d082 703f b76a 443f 19b8 7a3e 31ee 7c3e
00000120: 99be 193f aace a33e 24f5 093f 4081 0f3f
00000130: 7317 a9bd 453a a8be 7435 073d 2ff7 b9bd
00000140: 9525 043b 2dab 983f b7ba bebe 000e 2abf
00000150: b8bc 763f 8f1c 73bf 6967 1e3f b691 173f
00000160: da42 5a3f c399 ba3e bad1 94bd 2250 d73e
00000170: 9573 023f 6946 d1be 71d6 b2be d7a1 b23d
00000180: 84cd 94bd 33fa d63d ad8b 803f cff2 81be
00000190: b8d8 8d3d 3f18 2b3f 9adc 09bf dcf0 e23e
000001a0: 5e16 823f 88a0 913f f45b ef3e cf27 2e3f
000001b0: 1edc 14be 068a 9c3f 82f6 3e3e 1dfc 29bf
000001c0: 025e 52be a589 8bbf 3e3f 493f 2e7b 9d3e
000001d0: 35a7 303f e21f 803f b636 fdbd 8e1e 4b3f
000001e0: e141 893f e532 9f3f e7f6 013f 5931 90bd
000001f0: 65d7 963f f33f bcbe 4477 573f 2050 7f3f
0.6242623 -0.2302777 0.22260794 0.6634701 1.1929455 0.567495 -0.085244045 0.60373354
-0.45023805 -0.61689574 1.1661735 1.4280549 0.593609 1.0210608 0.3502122 0.35214663
0.7071695 0.56735927 0.09099395 0.61915743 0.7210946 0.9484818 0.33005577 0.91247636
0.6788451 -0.0173839 0.5722715 0.6907814 -0.6065264 -0.11813126 0.790814 -0.2324418
-0.74245954 0.5641812 1.0140319 0.6478346 1.0900217 0.69075453 0.6432002 0.8169831
0.85805863 -0.057952415 0.6641 0.7470969 1.1243981 0.6946193 1.3128695 1.175482
0.749337 0.7573637 0.54263896 0.28739333 0.9088847 0.5414243 -0.15215193 0.10720747
-0.2688297 0.62459075 -0.3147906 0.6977222 -0.17484032 -0.018287966 1.11561 0.752326
0.5324945 -0.35200366 0.6509147 0.6570297 0.93949604 0.76725334 0.2448429 0.24700238
0.60056454 0.3199361 0.5388968 0.56056595 -0.08256426 -0.32856956 0.03300996 -0.0908035
0.0020164002 1.1927239 -0.37251827 -0.6642761 0.9638171 -0.9496545 0.6187654 0.5920671
0.8525826 0.36445436 -0.07266565 0.42053324 0.50957614 -0.4087403 -0.3492923 0.08722275
-0.072657615 0.104969405 1.0042626 -0.2538056 0.069261014 0.6683387 -0.53852236 0.44324386
1.0163076 1.1377115 0.46749842 0.68029493 -0.14537093 1.2229621 0.18648723 -0.6640032
-0.20543674 -1.0901381 0.78612125 0.3075804 0.6900514 1.000973 -0.12363951 0.793435
1.072323 1.2437407 0.5076737 -0.07040662 1.1784483 -0.3676754 0.8416636 0.99731636

net.7.weight f4 [128]
00000000: 7abb d03e 5ca9 7a3e eb7d 403f a761 9e3e
00000010: 2938 623e d39f fa3e b8ae 013f 746c e53e
00000020: 1869 573e de0f d23e fdae 933e 9573 183e
00000030: 9764 da3e 85c4 9d3e b221 d23e ebd3 093f
00000040: b602 c13e 2020 fa3e 5162 1e3f be77 d33e
00000050: 6f76 db3e 30b7 483e a851 bf3e 8fa4 be3e
00000060: ae10 973e ac67 aa3e ea41 d73e 2133 993e
00000070: 6422 f93d fc08 793f 8e87 bf3e 9bc5 b73e
00000080: f702 0e3f 45df 6f3e 8436 1d3e 82ac 9f3e
00000090: 8456 673e 7b00 a13e eace b63e 199e d33e
000000a0: 3975 973e 0f40 2f3f dc93 c33e 56d9 ff3e
000000b0: eb1a 4a3e b4e1 c93e 1aa6 433e f1b7 7e3e
000000c0: 35fb d53e 49ef cf3e b634 cf3e 24eb 553f
000000d0: d28a bc3e 9037 cc3e 3d1f 633f 8136 a83e
000000e0: e022 c33e c5bc d53e 04a6 273f 1b08 873e
000000f0: 56fa a43e 3467 4a3f c33e a63e 5a65 cb3e
00000100: 58c1 073f 0fe4 5b3f 79a0 073f 9367 d33e
00000110: 93b2 a23e 160a df3e 81e3 513e c106 173f
00000120: 01ce e03e 169e a43e a64a aa3e 1e3f 973e
00000130: f551 543f c17f 2c3e ec1c 8c3e 93ff 903e
00000140: 979f 163f d6b1 6d3e 4751 413e 7985 903f
00000150: 1535 583e a2ff 893f c281 a83e ba13 c23e
00000160: 15dd 973e 6e89 563f 14d3 873f cc00 ca3e
00000170: 4a9c e23e 1a85 1e3e 90a5 023f 4d8c b23e
00000180: 0b12 053f 638b 303f 7fb9 be3d 66be 4c3f
00000190: b4b9 9b3e b1f0 7b3e 0c17 6e3f ff47 b83e
000001a0: 58bb bd3d d111 853e 3458 ba3e 5339 af3e
000001b0: 22fa 7e3f 1ee2 263e ea51 7c3e 9dc4 af3f
000001c0: 7e8c 693f ed73 603f a25e a33e 5645 3a3f
000001d0: cfcb 7c3e 4dc5 a63e b161 663f a1ab 853e
000001e0: df73 a83e e727 dd3d 9b6d f73e d06c 393e
000001f0: 0421 893e a6c0 ee3e d66a 733e 605c b03e
0.40768033 0.24478668 0.75192136 0.30933878 0.22091736 0.4895006 0.50657225 0.44809306
0.21036184 0.4102773 0.28844443 0.14887841 0.4265487 0.30813995 0.41041332 0.53838986
0.3769738 0.48852634 0.6186877 0.41302294 0.42863795 0.1960113 0.37366986 0.37234923
0.29504913 0.3328222 0.42042476 0.2992182 0.121647626 0.97279334 0.37408108 0.35892949
0.55473274 0.23425014 0.15352827 0.311863 0.22591597 0.3144568 0.35704738 0.41331556
0.2958162 0.6845712 0.38198745 0.49970502 0.19736831 0.3943001 0.19106331 0.24874856
0.41793218 0.40612248 0.40469903 0.8356192 0.36824661 0.3988614 0.8871954 0.32854083
0.38112545 0.41745582 0.65487695 0.2637337 0.3222224 0.79063725 0.32469758 0.39725763
0.53029394 0.85894865 0.52979237 0.41289958 0.31776866 0.43562382 0.20496942 0.5899468
0.43907169 0.3215186 0.33260077 0.29540342 0.82937557 0.16845609 0.27365816 0.28319988
0.58837265 0.2321237 0.18878661 1.1290733 0.21113999 1.0781138 0.32911497 0.37905675
0.2966086 0.8380345 1.0611291 0.39453733 0.44259864 0.15480462 0.5103388 0.34872666
0.51980656 0.6896269 0.09312724 0.79978025 0.30415118 0.24603535 0.93003917 0.3599243
0.092642486 0.25990155 0.3639542 0.34223422 0.9960042 0.16297194 0.24640623 1.3731877
0.9123 0.8767689 0.31908137 0.7276205 0.24687122 0.32572404 0.89992815 0.26107505
0.32900903 0.107986264 0.4832581 0.18107915 0.26783 0.46631354 0.23771223 0.34445477

net.7.bias f4 [128]
00000000: 8358 eebe 29b2 5cbf a4fd 29bf a32e 11bf
00000010: 1105 22bf 3cc9 d4be 3cf0 27bf 91d4 16bf
00000020: 9953 43bf aeaa 5bbf b663 1dbf 6fc6 4ebf
00000030: 8670 0fbf a020 2dbf 8164 55bf 1c4c f0be
00000040: 091d 12bf 0f05 16bf 9615 c53d 54de 17bf
00000050: 125c f0be a3c7 29bf f762 16bf f9d5 1fbf
00000060: b7e1 1bbf 186d 20bf bbfe 0fbf 12f3 0cbf
00000070: dca8 2fbf acd1 95be 6bd7 13bf 1ad9 20bf
00000080: 995b 393e 4074 26bf 67bc 1bbf d1c1 28bf
00000090: 3c40 27bf 53cf e4be acb9 19bf 99d0 e6be
000000a0: c261 18bf cc90 1d3e ee20 04bf 93d0 13bf
000000b0: 558c 28bf 6d13 0ebf 9341 38bf 010f 2dbf
000000c0: 0968 04bf 20c4 1ebf 3927 4ebf 487c a4bd
000000d0: e8de 09bf 07e6 0dbf 8325 65be 3f11 08bf
000000e0: c611 7bbe 5824 32bf 101c 2dbf c29a 46bf
000000f0: 835c 43bf c466 f9be 407a 0ebf 9078 18bf
00000100: f2de 743e 081b 9ebe 07a9 0abf d4bd 0ebf
00000110: d2f1 23bf 323c 0abf 83ab 21bf 9117 753d
00000120: d0dd 1dbf 8fc3 21bf 2ad3 30bf d061 3ebf
00000130: 1927 a5be 7bb8 1cbf 4613 34bf ca27 28bf
00000140: 40ca 94be 0fae 30bf 6b1d f9be 1f82 c8be
00000150: 2c00 3ebf 6ced f3be c501 0cbf 75f5 12bf
00000160: ac52 0fbf 6d3e 40be 3b65 a8be 5657 2cbf
00000170: 79bd 1dbf 7f3c 1bbf 927a 20bf 03bb 4dbf
00000180: 5203 003e fd72 c7be e08a bfbe db33 09be
00000190: 3198 36bf 35d4 3cbf 59ed a6be 5733 19bf
000001a0: 8fb0 a5be 0124 25bf 7fe6 10bf acef 13bf
000001b0: cb6c 10bf eba6 e5be 56f2 1dbf 4d4e 0abe
000001c0: 4a9f 02bf 46d4 e2be 9087 28bf 3eff 80bf
000001d0: 1309 26bf 56cf 1fbf f732 bcbe d7a8 d1be
000001e0: e524 1dbf c90f 36bf 544b 2dbf 82e6 9abd
000001f0: 5b1c 26bf a670 0fbf 3b17 35bf ab2f 05bf
-0.46551904 -0.8620935 -0.6640265 -0.56711787 -0.6328898 -0.4155978 -0.65600944 -0.589181
-0.76299435 -0.8580731 -0.6148027 -0.80771536 -0.5603107 -0.67627907 -0.8335648 -0.46933067
-0.57075554 -0.5860147 0.09623258 -0.5932362 -0.46945244 -0.66320246 -0.5874476 -0.6243587
-0.6089129 -0.62666464 -0.5624806 -0.55058396 -0.68617034 -0.2926153 -0.57750577 -0.6283127
0.18101348 -0.65021133 -0.60834354 -0.6592074 -0.6533239 -0.44689426 -0.6004894 -0.45081022
-0.59524167 0.15387267 -0.51612747 -0.57740134 -0.6583913 -0.5549839 -0.7197506 -0.6760102
-0.51721245 -0.62018013 -0.805286 -0.08031517 -0.5385575 -0.5542912 -0.22377591 -0.53151315
-0.24518499 -0.69586706 -0.67620945 -0.7757989 -0.76313037 -0.48711216 -0.5565529 -0.59558964
0.23913172 -0.30879998 -0.54164165 -0.55758405 -0.64040864 -0.539981 -0.6315233 0.059836928
-0.61666584 -0.63189024 -0.6907221 -0.74368 -0.32256392 -0.61218995 -0.7034191 -0.65685713
-0.29060555 -0.6901559 -0.48655257 -0.39161775 -0.7421901 -0.47642076 -0.546902 -0.5740579
-0.5598552 -0.18773814 -0.32889733 -0.67320764 -0.6161724 -0.60639185 -0.6268703 -0.8036348
0.12501267 -0.38954917 -0.3741064 -0.13398688 -0.71325976 -0.737613 -0.32602957 -0.59843963
-0.32361266 -0.6450806 -0.5660171 -0.57787585 -0.56416005 -0.4485391 -0.616979 -0.13506432
-0.51024306 -0.44302577 -0.6583185 -1.0077894 -0.64857596 -0.62425745 -0.36757633 -0.40949127
-0.6138442 -0.71117836 -0.67693067 -0.07563497 -0.64887017 -0.5603126 -0.7073857 -0.5202586

value_fc.0.weight f4 [1, 128]
00000000: 0c30 3d3d b2a2 553d 5f4a 523e 584d c13d
00000010: 7e8d 2f3d 5817 0dbe d341 523c 9465 403d
00000020: de0c c13d f998 283d bd10 bd39 910e a03c
00000030: d9b1 f9bc 1219 e2bc 182c c83c b4ae 60bd
00000040: c734 47bc 149b 58bd ba93 78be d186 81bc
00000050: 5e47 00bd e00f 183d d958 473d ef93 533d
00000060: 76fa 71bd 47d6 193c 6d0f dcbb 4df7 4b3d
00000070: a28c 733d 8403 7abe 7853 993b 7d6b 46bd
00000080: 3d17 823e 4251 1dbd e7cf d6ba ebbd 703b
00000090: 92df 74bd 63b9 89bc 36aa 9ebc 938c 2abd
000000a0: 1cc7 3a3c 7d9e a0be 2567 753d 931a abbb
000000b0: 43d0 53ba 9aed c23c b9aa 753b 967b c23c
000000c0: b3c2 71bd 37fc 76bd 54b8 e53d 3b81 433e
000000d0: 1fe5 a0bd 2a25 09bc 10c4 4c3e 0a63 e0bb
000000e0: b435 e2bd ca27 8dbd 04ce f83e c2ba 33bb
000000f0: 0523 a83c 06a5 91bd 0a59 463b 8ef4 b1bc
00000100: 558c a43e 453b 8bbe f129 5bba 6b3a d5bd
00000110: 679f 283d cc08 82bd a43f c0bd 5255 43be
00000120: 0f07 d83c 5755 a5bc 2c40 2fbd c5e6 94bc
00000130: df5a 833d e569 3ebd 36cc 07bd f674 2b3d
00000140: dafd 7d3d 9bf8 c3bc c65c 2f3d 2296 37be
00000150: 774b 92bd f05a 74be 7d4e 53bd 7368 4a3c
00000160: f1ae 3fbd 9d8f c7bd d818 993e 2020 c03c
00000170: bd31 02bd 2b17 603d da3d f33d 0a39 c2bc
00000180: dbb7 623e aa7d 22be ffbe 21bd e188 80be
00000190: 5d0a 7abc 280d d1bc d1f1 3c3e 04cb 5b3d
000001a0: bc8f e73c aac4 25b9 b5c7 0abd e1e3 20bc
000001b0: ee95 90be 9926 65bc a5eb 1a3d 9e1f 353e
000001c0: e566 6cbe 8314 6c3e e802 863d 4692 eabe
000001d0: 510d 943c cba6 243c 71ac 633e db6a 0bbd
000001e0: 31fe 653b 8d75 123d 310b 1dbd 6ae0 e9bc
000001f0: 7cea b63c e133 eabc 3926 d0bc a259 d03b
0.0461884 0.05215711 0.20536183 0.0943858 0.042859547 -0.13778436 0.0128330765 0.046971872
0.09426282 0.04116151 0.0003606136 0.019538196 -0.030480312 -0.027599845 0.024435088 -0.05485411
-0.012158579 -0.05288227 -0.24275103 -0.015811356 -0.03131806 0.037124515 0.048668716 0.051654752
-0.05907675 0.009389467 -0.006715706 0.04979639 0.05946029 -0.24415404 0.0046791397 -0.048442353
0.25408354 -0.03840757 -0.0016388864 0.0036734294 -0.059783526 -0.016812032 -0.019368272 -0.04163797
0.01140001 -0.31370917 0.05991282 -0.0052216738 -0.00080800446 0.023794938 0.0037485792 0.023740571
-0.05902357 -0.060299125 0.112167984 0.19092266 -0.078562014 -0.008370677 0.19996667 -0.006847744
-0.11045399 -0.06892355 0.48594677 -0.0027424549 0.020524511 -0.07111554 0.0030265474 -0.021723058
0.32138315 -0.27193657 -0.0008360437 -0.10411533 0.041167643 -0.06349334 -0.093871385 -0.19075516
0.026370553 -0.020182295 -0.04278581 -0.018176446 0.06413817 -0.046487708 -0.033153735 0.04185959
0.06200967 -0.023922255 0.042813085 -0.17928365 -0.071433 -0.23862815 -0.051588524 0.012354004
-0.046797697 -0.09744189 0.29901767 0.023452818 -0.031785715 0.054709595 0.118770316 -0.023708839
0.22140448 -0.1586825 -0.03948879 -0.2510443 -0.01526126 -0.025518969 0.1845162 0.053660408
0.02826678 -0.0001580889 -0.03388186 -0.009819956 -0.28239387 -0.013986253 0.037822384 0.17687842
-0.23086126 0.230547 0.06543523 -0.45814723 0.018072756 0.010049532 0.2223375 -0.034037452
0.0035094137 0.035756636 -0.03834075 -0.028549392 0.022328608 -0.02858919 -0.025408851 0.0063583413
