cp/Platform_psac3_dl10_d100_20000_May_30_2020_09_19_57_value1.pt (torch_old, 146147 bytes, 13 tensors)

net.0.weight f4 [128, 15]
00000000: c0db 82bf 505d 6cbe c03b f3be aa12 af3d
00000010: 02e0 803e 9574 58be 5401 c93e 3c4d 293c
00000020: 6df0 33be ba5c 893d daa2 263f 3e3c 8bbe
00000030: 337d a63d 348b da3e 477c 943d 86b8 93bf
00000040: 3ad3 3bbe 4959 d73f e084 5c3d aea9 893e
00000050: c772 5a3e f66e 6abd 5e71 4bbe 9a8e bbbe
00000060: e4c6 ddbe 54d4 b23d 755e c83e de91 cc3e
00000070: c235 c2bf f405 213f 8b2f 9ebe be98 f13e
00000080: e25f 30bf c0cc d23d b7f9 33be 2b08 16bc
00000090: 9d8a 63bc 45a4 b1be 701f 2fbe 25df 4c3e
000000a0: 7b3d 043f bd37 f0be 8366 083d 3e91 34c0
000000b0: c3d5 383f 892b 9dbf b8d7 a9bf 84cb 63be
000000c0: ef29 e93e 1033 9f3e 2e4f 6d3d 85f9 32bd
000000d0: 6e4a 93bc bcff 283e 2f1e 933d ff23 1c3f
000000e0: bcac c1bf d8db b43f 9204 6d3f 02a5 05bf
000000f0: 6a4a f33f c126 993e 9468 c3bf 6d6a 27bf
00000100: 47ad 03bd f6ff dc3d bd50 393e 85ea e4be
00000110: 8519 08bd 31dd cc3e e0b6 b7bc 687e 1c40
00000120: 2aed ff3d 63d3 57be 969c 143e c8e4 cdbc
00000130: dc51 5f3f 4fd5 6d3e ae98 e2be 0252 f73e
00000140: be54 81be 6a10 a63d c887 c1be 4af4 61be
00000150: 92bd 713f 24f2 d5bf 116e c13e cea7 933e
00000160: a982 91bd 2025 3d3e 65a4 86bf 72aa 3640
00000170: 2ac6 0dbf 7893 153f 29da 013e 925e bc3d
00000180: 9853 bbbd 906f da3d 5ccd 0fbe 2d15 00c0
00000190: ab10 3f3f ebc2 6cbf 1e57 993e 74e3 b2bd
000001a0: e336 adbd 4f6d 59bf 7f71 a6be 0640 6c3e
000001b0: ecb9 9bbd b0e2 c23d 82fb 1b3e 05c9 ca3e
000001c0: 475c 9ebe a5cd e1be e502 89be ffe2 a9be
000001d0: 2850 e43f db12 cd3e ed11 563e c7f5 c43e
000001e0: 0e5f c0be 265f 0ebf 95db d8bf 8b08 01bf
000001f0: 7777 b9bc 12bc 68bf d31e 663e 25c6 b73e
00000200: 2c83 a3be 3341 ae3d 6b84 8f3f 1f72 1a3d
00000210: 70f0 e13e 7524 943e 6d6d ff3d 02b2 40bf
00000220: 9046 56be dd5a a83e c803 e33d fef1 a63e
00000230: ede5 72be ec91 b13e bfbe 10be 14db 57be
00000240: 2a71 a7bd defc 563f 53bc 01bf 89f9 26be
00000250: 5308 e23e 6363 e53e baf3 03bf f440 103f
00000260: 384e 00be e854 323f eea5 0f3f 7398 54bf
00000270: db3d ff3e ae0f 343e c43d 09be 74bb 0cbf
00000280: 742e c9be 5c9e da3f 15df ae3e 2fa8 05bf
00000290: 5c32 2cbf 05e5 6abf e4ec adbe 4715 2d3e
000002a0: 5187 b83d 4ad8 333e 8e46 12bd ec2c 8a3e
000002b0: 0903 a0be 795d c7bd 9cdb db3d f27d 813f
000002c0: 3172 a2bf 06cb 0f3e 9581 3f3f 40c8 9cbd
000002d0: 914a 3340 4135 183c e2b8 063f a6b7 12be
000002e0: 3aa2 c03e a423 4c3f 80d1 e33e b5d4 dabe
000002f0: 060c 20bf 33d9 b23e e8de 473f e5e1 17bf
00000300: 9594 403d 669e a23c d17c 613e f0ec 00bf
00000310: dc18 aabc 3731 6c3f 7ceb 94bd 6024 2c3f
00000320: dbe7 d6bf 0faa e13e 2ebd 5d3f 9101 17bf
00000330: 4032 d73f ea6f f73c d1d8 023f 1d25 c83e
00000340: e71a 353e 44d6 7abe 51d7 d5bf be75 36be
00000350: 1b17 be3f e2e2 09bf 78e5 2e3e e541 19bf
00000360: bd77 a73e d276 393c 0ad6 8fbe 6645 9d3f
00000370: 76fa cd3d a4cc 1dc0 68c3 2a3f c08a 3a3f
00000380: 8429 bbbb bb30 c7bf fc59 d6bf e2a7 0c3f
00000390: 0a79 3f3e 0163 7bbe 9f29 a1be d6cc 1f3e
000003a0: b6a0 c23e 15e1 933e 4f39 b0be e112 e53f
000003b0: 4444 48bf cfa2 cabc 8bf4 21be 44e3 383e
000003c0: 230f 2c3e 8acb 81be a93c 60bf 0fa3 7cbd
000003d0: 6273 af3e a847 813e bee6 993e a3f8 7a3c
000003e0: 3e2d 93be 7c8e 85bd fdf2 433f c295 b1be
000003f0: d1d1 433e 4d9e 9c3d 902f 083e 1683 45c0
-1.0223312 -0.23082471 -0.47506523 0.08548482 0.25170904 -0.21138223 0.39258826 0.0103333555
-0.17572184 0.06707139 0.6509224 -0.271944 0.081293486 0.4268433 0.072502665 -1.1540687
-0.18342295 1.6824123 0.053837657 0.26887268 0.21332847 -0.057234727 -0.19867465 -0.36632234
-0.43315804 0.087319046 0.39134565 0.39955038 -1.5172656 0.6289971 -0.30895647 0.47186846
-0.68896306 0.10292959 -0.17575727 -0.009157221 -0.013888028 -0.3469564 -0.17101836 0.20006998
0.5165631 -0.46917525 0.033300888 -2.8213649 0.72201174 -1.2278911 -1.3268957 -0.22245604
0.45539805 0.31093645 0.05793684 -0.04369499 -0.017979827 0.16503805 0.071834914 0.60992426
-1.5130839 1.4129591 0.925851 -0.52204907 1.9007084 0.2991238 -1.526629 -0.6539677
-0.032147672 0.10791008 0.18097205 -0.44710174 -0.033227462 0.40012506 -0.022426069 2.4452152
0.12496407 -0.21076731 0.14512858 -0.025133505 0.8723428 0.23225902 -0.4425711 0.48304754
-0.25259966 0.081085995 -0.37798905 -0.22065845 0.94429886 -1.671452 0.37779287 0.28838962
-0.071049996 0.18471193 -1.0518919 2.8541532 -0.553805 0.58428144 0.12680878 0.09197725
-0.091468036 0.1066581 -0.14043182 -2.0012925 0.7463481 -0.9248492 0.29949278 -0.087347895
-0.084577344 -0.84932417 -0.32508466 0.23071298 -0.07603821 0.095158935 0.15232661 0.3960649
-0.30929777 -0.44102207 -0.2676002 -0.33180997 1.7836962 0.40053448 0.20905276 0.38468763
-0.3757252 -0.55613935 -1.6942011 -0.5040366 -0.022639973 -0.9091197 0.22472696 0.3589336
-0.31936014 0.085085295 1.1212286 0.03770649 0.44128752 0.28934065 0.12472043 -0.7527162
-0.20925355 0.32881823 0.110847056 0.326065 -0.23720522 0.34681642 -0.14135264 -0.21079665
-0.08175881 0.83979595 -0.50677985 -0.16306128 0.44146976 0.4480239 -0.5154377 0.5634911
-0.12529838 0.69660807 0.56112564 -0.8304512 0.4985188 0.17584106 -0.13402468 -0.5497353
-0.39293253 1.7079577 0.34154573 -0.5220975 -0.6726434 -0.91755706 -0.33969796 0.16902648
0.090101846 0.17562976 -0.035711817 0.26987398 -0.31252316 -0.09734625 0.107352465 1.011656
-1.2691098 0.14042291 0.748071 -0.07655382 2.8014262 0.0092900405 0.5262586 -0.14327869
0.3762377 0.79741883 0.44495773 -0.42740408 -0.62518346 0.34931335 0.780745 -0.5932906
0.0470167 0.01985092 0.2202027 -0.5036154 -0.020763807 0.92262596 -0.072714776 0.67243004
-1.6789507 0.44075057 0.8661679 -0.58986765 1.681221 0.030204732 0.51112086 0.39090815
0.17686044 -0.24495798 -1.6706334 -0.17818353 1.4850801 -0.5386182 0.17079723 -0.5986617
0.3270854 0.011319833 -0.28092986 1.2286804 0.10057537 -2.4656153 0.66704416 0.72867966
-0.005711736 -1.5561746 -1.6746211 0.5494367 0.18698516 -0.24549486 -0.31477067 0.15605482
0.38013238 0.2888266 -0.34418723 1.7896386 -0.78229165 -0.024735836 -0.15815942 0.18055445
0.16802649 -0.253506 -0.8759256 -0.061678942 0.34267718 0.25249982 0.30058855 0.015318069
-0.28745455 -0.06521317 0.76542646 -0.3468457 0.19123007 0.07647381 0.13299394 -3.0861259

net.0.bias f4 [128]
00000000: 71d3 8b3d 47c2 543e 22fc be3b 4a27 d7bd
00000010: 084b cc3e 78ef cf3e 28c1 073e 0c36 1f3e
00000020: bb38 7b3e d729 f63e cbbb 293e 14d0 163e
00000030: 2641 b93e e449 563f 3a9c 693e 3d16 2abe
00000040: 3ce1 a73d 3333 16be d070 b33e 2af4 5b3e
00000050: ca20 dd3d 2cac 663e 9fa7 1bbc 217c 163e
00000060: f78c 313d e261 023f 1423 16bd b238 d1bd
00000070: 15e3 ea3d 5847 a8be 61f4 a63e f9a7 043e
00000080: 8806 a53e 691a 7a3c a749 b93e 390d 703e
00000090: acd6 c1bc 8b1c eb3e 6fd6 d03d 6356 adbd
000000a0: a08a 183e 5606 113e b6be f23e 8f3d 523e
000000b0: 67e2 b03d 40b6 2f3e be9f 90be 4d0c e93e
000000c0: fd83 1b3e 6d55 653e dbab 223e 6714 edbc
000000d0: 4380 8a3e 1fca c53e 9474 983e 5597 063e
000000e0: 09da 5f3e 5085 c73d 6d3e bc3e d0c9 e83d
000000f0: ff79 993e 6c00 edbc 30f8 f83c 13cb 96be
00000100: cb10 5b3e 7c54 893e 0d2f 9f3e 9ff6 e3bd
00000110: 4545 023e 042e 943d fcee 6b3e b5be 553e
00000120: 8e7c 05bd 2578 c93e a394 2a3f 4ce0 ac3d
00000130: e5ea 46bd cae8 b93c 4e42 af3e 284f 2c3e
00000140: 52c4 d8bc ce0e 603c 66bf bb3e 5257 0b3e
00000150: f0a1 81bd e673 bc3e df76 8a3d 1fe5 053f
00000160: 0a1b c13e aa4f da3e 5f3b 523e 1311 c43e
00000170: e199 203e 4426 8a3e 7c27 0f3a baac 14be
00000180: d1d6 b53d 7087 ea3e b586 313e aea2 8cbe
00000190: ef48 80bd 054f 823e 624d b73e 7fb0 69be
000001a0: cece d83e 0b40 f03e dfa6 2c3e b364 c6be
000001b0: 59ed b33e c9f8 433e 5266 3f3e 1271 553e
000001c0: 3020 ca3e e4dc cb3e 3389 b53e 28e6 11be
000001d0: 7f8e 2b3e 01c1 1d3f e362 543e e92b 063c
000001e0: fa4c 053d ec59 8c3e 0724 68bd 44a3 ad3e
000001f0: 9876 083e c4f4 9c3e 7984 0cbe 2367 c63d
0.068274386 0.20777236 0.0058283964 -0.10505541 0.39900994 0.40612388 0.13257277 0.15547961
0.2453336 0.48078796 0.16575544 0.14727813 0.36182517 0.837065 0.22813502 -0.16610046
0.08197257 -0.14667968 0.35047007 0.2147986 0.1079727 0.22526616 -0.009500413 0.14695789
0.043347325 0.5093061 -0.036654547 -0.10215892 0.11469094 -0.3286693 0.3260832 0.12954701
0.32231545 0.015265086 0.36189005 0.23442544 -0.023661934 0.45920214 0.1019715 -0.084637426
0.14896631 0.14162573 0.47411126 0.20531295 0.08636933 0.17159367 -0.28246874 0.45517197
0.15187068 0.22395869 0.1588587 -0.028940393 0.2705098 0.3863077 0.29776442 0.13143666
0.21860518 0.09742224 0.36766377 0.11366618 0.29975888 -0.028930865 0.030391783 -0.29451808
0.21393125 0.2682227 0.31090584 -0.111310236 0.12721737 0.07235339 0.23040384 0.2087353
-0.032589488 0.39349476 0.6663305 0.08441219 -0.048563857 0.02269401 0.34230274 0.1682707
-0.0264608 0.013675405 0.36669463 0.13607529 -0.06329715 0.36807173 0.06760954 0.52302736
0.37715942 0.42638904 0.20530461 0.38294277 0.156837 0.2698232 0.0005460901 -0.14519015
0.088788636 0.45806456 0.17336543 -0.27467865 -0.06263911 0.25450912 0.35801226 -0.22821234
0.4234528 0.4692386 0.16860531 -0.38748702 0.3514202 0.19137873 0.18691376 0.20843914
0.39477682 0.39816964 0.35456237 -0.14247954 0.16753577 0.61622626 0.20740847 0.00818918
0.032544114 0.27412355 -0.056674983 0.33913624 0.1332649 0.3065549 -0.1372241 0.096876405

net.1.weight f4 [128]
00000000: da71 913e 7b4c f63f 2160 553f 2a7e 143f
00000010: 1b1f fa3f 04ef 993f 24a2 5c3f be12 213f
00000020: 7967 4e3f 0f1f 863e 76cf 0340 0c83 a13e
00000030: 41ea 8040 e593 f03f c868 9e3f de6f 8d3f
00000040: 1be9 563e 2f29 9540 9de0 bf3e 0f36 e63e
00000050: c7b1 9f3f d055 153f 77ed 913f 8905 a43e
00000060: c96c a63f eb96 233e 33e9 1e40 0f14 653f
00000070: d040 643f 45b3 2140 86cb 683f 4c22 9e3e
00000080: 8498 3b3f 2893 ba3f 989f 373f d4f1 033f
00000090: e3c6 943e edf3 163f a0c6 9f3d 0998 ac3f
000000a0: c9b6 d53f 28eb e53f 9759 2e3f ec25 543f
000000b0: cdd1 eb3f 07c8 873f 0f70 8e3f 78a0 ba3f
000000c0: 13cd 133f d632 7f3e 397d a43f 059c 883e
000000d0: 6f2d aa3f 6a90 953e 1711 c33e a94b 833f
000000e0: 3586 983f bed9 0e40 ec04 133f 1ebf a43f
000000f0: 25d1 173f 004a 033f 49e9 443f d609 2740
00000100: 05f7 8f3f efb6 5d3f 0344 053f a1af 933f
00000110: 2140 5b3f de9d ac3e 541c b93f dfc6 9b3e
00000120: e65f 403f 5517 253e 5671 be3f 8d15 813f
00000130: 3cd5 8a3e 0744 a63f ee4c 8a3e de6e 213f
00000140: 387d 4540 a52b f43e 3af1 cf3e 3821 cf3e
00000150: 86a6 2c3f 2f43 143f f6dd 2840 2265 cd3e
00000160: 0be2 2e3f 9e7e 033f baa7 9b3e 33fd 5140
00000170: fbf5 eb3e 315f 9e3e 8f0a d03e 9aaf 213f
00000180: 45d9 1d3f 0783 c23e 756a 0a40 4e09 473f
00000190: 77f8 f73f ebbc 6b3f 8c8e cd3f fe19 c13f
000001a0: 6a11 833e 585c bc3e 4d8e 2d40 3067 1c3f
000001b0: b67e c93e 8e9c 953f f2a2 fc3f 179a 873e
000001c0: f72d b03e 08c1 f23f 9c1c ee3f cdb1 223f
000001d0: b24a ae3f 6000 983f f2a8 8c3e f495 8b3e
000001e0: d003 843f ac0c d03f c717 903e 3185 b13e
000001f0: d495 b93e 89bb 883f cf8a d73f caa6 9f3e
0.28407174 1.924209 0.83349806 0.5800501 1.9540743 1.2026067 0.86184907 0.62919223
0.80626637 0.2619557 2.0595374 0.31545293 4.0285954 1.8795134 1.2375727 1.1049764
0.2098736 4.6612773 0.37476054 0.44963118 1.2476128 0.58334064 1.1400594 0.32035473
1.3001949 0.1597554 2.4829834 0.8948373 0.89161396 2.5265667 0.9093555 0.3088554
0.73279595 1.4576159 0.71727896 0.51540875 0.2905799 0.5896595 0.078015566 1.3483897
1.6696407 1.7962389 0.68105453 0.82870364 1.8423401 1.0607919 1.1127948 1.4580221
0.57734793 0.24921736 1.2850715 0.26681533 1.3295115 0.29211742 0.38098976 1.0257465
1.1915957 2.23204 0.57429385 1.2870824 0.59303504 0.5128479 0.76918465 2.6099753
1.1247259 0.8660726 0.520569 1.1537973 0.8564473 0.33714193 1.446177 0.30425164
0.7514633 0.16122182 1.4878337 1.0084702 0.2711581 1.298951 0.27011818 0.63059795
3.0857677 0.47689548 0.4061373 0.4045503 0.67441595 0.57915014 2.6385474 0.4011622
0.68313664 0.5136508 0.30401403 3.281079 0.46086106 0.30932 0.40633056 0.6315857
0.6165965 0.3799059 2.1627476 0.7774857 1.93727 0.9208514 1.6059127 1.5086057
0.25599223 0.36789203 2.7118104 0.6109495 0.39354485 1.1688402 1.9737227 0.2648475
0.34410068 1.8965158 1.8602481 0.6355255 1.3616545 1.1875114 0.27472645 0.27262843
1.0313663 1.6253867 0.2814314 0.3467193 0.36247122 1.0682231 1.6839236 0.31181937

net.1.bias f4 [128]
00000000: b6ce 13bf b499 08bf 0d11 20bf 1c57 2fbe
00000010: 603a 413d 51fa c0be 3d72 91bd c658 12bf
00000020: 1337 3fbf 6c42 3dbf 40d1 6ebf 9fcd 16bf
00000030: 3cb7 a73d 145a acbe 9110 e4bd 37c9 50be
00000040: 9d86 dbbe d11f 2a3e 3954 11bf 83c5 29be
00000050: 727c 68be 90b3 27bf 94b7 6bbe 9a70 05bf
00000060: ba4e 16bf e83d 9abe 07b6 b6bc b907 b0be
00000070: 4c08 d8bd 1b0e 7a3e dadb 48bf c830 1bbf
00000080: 7309 a4be bf58 ac3d 5346 18bf c4f7 3cbe
00000090: 44a9 2bbf 50ae fabe 95b4 89be f77f 79be
000000a0: 8828 5c3e 1026 0f3e 2d85 58bf 933e e7be
000000b0: ab1c 04be e61c bebe 7711 d9bd 1c1d b7be
000000c0: df05 36bf e382 0dbf 3b2d 5bbb 39db 0ebf
000000d0: 0f85 2abe db43 e6be fb0d 40bf a58b cbbe
000000e0: 82b5 01bf 2a68 0cbd 2038 21be d2e1 babe
000000f0: 7e15 8bbd bc6c d7be b12a f2be aaf9 39be
00000100: 0d92 e0be 35f7 0dbe 3799 09bf 5280 e7be
00000110: 18d0 2fbf cb21 22bf 3270 593d 0ecc 37bf
00000120: 869a d93c 6577 dfbe 8f12 983b 541b 28bf
00000130: 4838 39bf a0ae 65be 85e8 04bf 3473 7bbe
00000140: c4b4 90bd 7cb9 1dbf 5449 31bf 2240 1ebf
00000150: c95f 81be cb18 1dbf 4c64 ffbc 1f35 15bf
00000160: 4a43 32bf 7f2e 37bf ff7b 0ebf 9533 f53d
00000170: 93a1 26bf 3484 00bf 22d9 13bf 7480 83bd
00000180: d905 64bf 6430 2cbf f94c 50be 9550 18be
00000190: 1d3e 32be 0c3f 91be afce 053e d1a1 02bf
000001a0: ab30 10bf 82ec 41bf cdf6 e6be ca6a a3be
000001b0: 2a65 1cbf 0f81 1ebf a337 25bd d381 a5be
000001c0: 93ba 48bf ecd0 4f3b 2b9c 20bf 11b5 e8be
000001d0: 67bf e4be d98e 51bf d29b 1ebf 62e8 39bf
000001e0: 9120 cdbe a26f 7abe bd46 eabe 068b 27bf
000001f0: 066f 38bf 81ae fdbe 1d56 93bd e4dd 1dbf
-0.5773729 -0.5335953 -0.6252602 -0.17123073 0.04717481 -0.37690976 -0.07101867 -0.5716671
-0.7469341 -0.73929477 -0.9328804 -0.589075 0.08189246 -0.33662474 -0.11135972 -0.20389257
-0.4287614 0.166137 -0.5676914 -0.16579251 -0.22703722 -0.65508366 -0.23019248 -0.5212494
-0.5871388 -0.30125356 -0.022303594 -0.34380892 -0.105484575 0.24419443 -0.78460467 -0.6062131
-0.3203846 0.084153645 -0.59482306 -0.1845389 -0.67055154 -0.48961115 -0.26895586 -0.24365221
0.21499836 0.13979363 -0.8457821 -0.45164928 -0.12901561 -0.37131423 -0.10599034 -0.35764396
-0.7110271 -0.5527784 -0.0033443708 -0.5580326 -0.1665232 -0.44973645 -0.7502133 -0.39754978
-0.50667584 -0.034279026 -0.15744066 -0.36500412 -0.06791209 -0.42075145 -0.47298196 -0.18161646
-0.43861428 -0.13863833 -0.5374941 -0.45215088 -0.686769 -0.63332814 0.053085513 -0.7179574
0.02656294 -0.43645778 0.004640884 -0.656667 -0.72351503 -0.22429895 -0.51917297 -0.24555665
-0.07065728 -0.6161115 -0.69252515 -0.6181661 -0.2526839 -0.61365956 -0.031175755 -0.5828418
-0.69633925 -0.7155532 -0.55657953 0.11972729 -0.6509029 -0.50201726 -0.57753193 -0.06420985
-0.8907142 -0.6726134 -0.20341863 -0.1487449 -0.17406507 -0.28368413 0.13067125 -0.5102816
-0.5632426 -0.7575151 -0.4511017 -0.3191741 -0.61091864 -0.6191568 -0.040336262 -0.3232561
-0.7840969 0.003171022 -0.62738293 -0.45450643 -0.44677278 -0.81858593 -0.6195651 -0.72620213
-0.4006391 -0.24456647 -0.45757094 -0.6544651 -0.7204441 -0.49547198 -0.07194159 -0.61666703

net.3.weight f4 [128, 128]
00000000: d694 81be 8655 823e 9817 d83e 4db3 8ebf
00000010: d556 ae3e 205d 263f ecd6 9c3d c3d4 b7bd
00000020: ec28 b63e 8d53 80be 02ae 113f 2859 b33d
00000030: e3eb cabe fb23 453d 408d 67be 96ee 0a3e
00000040: f676 c2bd f4ce 88bd d222 023e bcc1 9bbe
00000050: 334a b43d d6d8 d1bd 4d63 c7bd 0c80 383b
00000060: 7eb1 37bf ff84 8d3e c6e8 113f edec 133f
00000070: f9ef 5c3f 010b 253f 68ee 1c3f b556 22bd
00000080: f3fc 603d f452 f73e b2e1 403e 4c9b 753f
00000090: f80c d8bd 647f 793e c163 513e 7feb 033f
000000a0: a2ef a8be e093 97bd 24b9 c8be ba03 f6be
000000b0: ded7 5bbf da55 cd3e 9cde f93e 1602 a5bf
000000c0: 231f 423e 6ff4 14bd 390b 1a3e 1379 a53e
000000d0: 9df4 2b3f 4ff3 aabd 04fb eabf c3c4 25c0
000000e0: d6fd 1a3f 7df4 23bf d9a4 b13d 05e0 be3e
000000f0: 83ce 91be d241 543f d467 173f 46c6 1340
00000100: b01e 403e da01 3a3f f9b9 723d e87f 8dbf
00000110: 82f7 07bd 7bd1 2fbd efc0 febe 7a0d f13e
00000120: 49f0 0b3e 5efb d5bc 65e9 f3be 4c4d d1be
00000130: 9be2 27bd 22cd 543f db1d d33d d914 603f
00000140: 1ed9 0a40 24fc 00be b6ea d73e 15c9 20bd
00000150: 7334 163d da8e 9ebd e9d3 fd3e 899d 72bd
00000160: f7e1 8d3e e54d 023e bf06 a03d 9bfe 69bf
00000170: d437 43be e2a5 47bd 17f0 223e 5700 353e
00000180: b964 7fbf 6430 bbbc 48fd a4bf 0815 c53e
00000190: a0ab 383f 21a5 1abf ac28 1abe bd44 a43f
000001a0: 86f1 6b3d abaf 883e 2e1c 13bf 9bf4 903e
000001b0: a5e5 353f ac3e 833d 16e8 163f b2e4 083f
000001c0: d36a f83e e0f1 ea3e d353 b3bc 0a15 ffbe
000001d0: 7e06 09bf e126 2c3f 8a67 d6bf 1fa2 ec3d
000001e0: 9004 af3e a0bb f0bf 2a7a 7e3d b412 873e
000001f0: 0594 a7bd 0b89 e1be d6d2 0fc0 d551 e9bd
00000200: 72b7 44be 3523 2dbc 1b07 d13e c116 44bf
00000210: 0f3a d9bf 0e2f 953f fdf4 983e e735 c03e
00000220: 97c9 26bf 4474 953e bef3 f23e 9410 7b3d
00000230: cd7d a7bf 7884 fe3e 99e9 343f 33b0 b13f
00000240: 9b8b 9cbe 6996 0340 e6a3 053e 9903 d93e
00000250: e821 fd3c 52a7 91be 8a2e 32bf 6920 ac3d
00000260: e47f c23e 407b 4dbf b36a 9ebf f60b c03e
00000270: a15d e9be 3323 123e 48a7 54be ba00 983d
00000280: 5b3a 5a3f f63b 3c3f a386 9c3e be8b 0e3f
00000290: 6041 943e fd24 863d 4ff0 a83c c3ea 833f
000002a0: 225c 0e3f 84e7 8c3f 497c a5bd f68b 4abf
000002b0: 3cfa 603f d4d8 273f 1783 593e ee89 1a3f
000002c0: d5dc 9a3e eaa3 cc3c 911f 493f e916 113e
000002d0: c0d5 a83e 7fb9 ccbe b726 873e 4f0a 243f
000002e0: 8254 643f 8177 41bf 15dc 90bf 53ca fb3d
000002f0: 560e bbbf 79aa 643e b7fe 083e 1d79 c5be
00000300: accf 0f3f 8962 81be bc77 ad3e 2d41 0e3f
00000310: 0f5c 063f e242 c33c b357 cf3d 65ed 303f
00000320: 45c1 463f 2c69 59be 18ba efbe 75f5 15be
00000330: d05c 79be 3d6d 29bf b0eb 203e e131 ca3e
00000340: 01ed ca3e f0eb 08bf f86a d23d 1d82 76be
00000350: 81e9 003f 816e ad3e f5d2 0ebe dba7 85bd
00000360: e4dd 3e3e e4ce 96bd f7b0 0e3e cc6a 0dc0
00000370: 4516 e9bb 8042 06be 161c cbba 4955 ea3e
00000380: 4aa5 ed3e 948e c63e 2f24 863f 867a 583f
00000390: cbc6 40be 63d9 9bbf 23e8 44bf 225d df3e
000003a0: 5f12 963e 5f21 32bd 24c9 0bbf cb87 fa3e
000003b0: 2b47 213f 1afa c83e 535c 69bd 1f45 6cbe
000003c0: 768d 813d 03ba 33c0 ded8 37bf 480b e03e
000003d0: 0fc5 323f 2af4 2cbf 4ab5 bf3c 179e 61bd
000003e0: 5044 30bf 0c1a eebe 9099 a83e e251 803b
000003f0: 7356 453e dc4d 2f3f 7c71 bd3e ef38 8bbd
-0.25308865 0.25455874 0.422055 -1.1148468 0.34050623 0.6498585 0.076581806 -0.08976128
0.35578096 -0.25063744 0.5690614 0.087572396 -0.39633092 0.048130017 -0.22612476 0.13567576
-0.09495346 -0.06680098 0.12708595 -0.30421245 0.08803215 -0.10246436 -0.09735737 0.0028152494
-0.71755207 0.2764053 0.5699581 0.57783395 0.8630367 0.64469916 0.6130128 -0.03963347
0.05492873 0.48305476 0.18836096 0.9594009 -0.105493486 0.24365002 0.2044821 0.51531214
-0.32995325 -0.07401252 -0.3920375 -0.48049718 -0.8587626 0.40104562 0.4880265 -1.2891262
0.1895719 -0.036365923 0.15043344 0.32318935 0.67170125 -0.08347189 -1.8357854 -2.5901344
0.6054357 -0.64044935 0.0867402 0.37280288 -0.28477868 0.82912934 0.59142804 2.3089767
0.18761706 0.72659075 0.05925939 -1.1054659 -0.033195026 -0.042924386 -0.49756572 0.47080594
0.1366588 -0.026120838 -0.47639003 -0.40879285 -0.040987592 0.8312551 0.10308429 0.8753181
2.1695018 -0.12596184 0.42171258 -0.039254267 0.036671113 -0.077420905 0.49575737 -0.05923227
0.2771146 0.12725027 0.07813787 -0.9140412 -0.19064265 -0.048742183 0.159119 0.17675911
-0.99763066 -0.022850223 -1.2889795 0.38492608 0.7213688 -0.60408217 -0.15054578 1.2833477
0.05760338 0.26696524 -0.57464874 0.2831162 0.71053535 0.06408438 0.58947885 0.5347396
0.48519 0.4588766 -0.021890556 -0.4982074 -0.5352553 0.67246825 -1.6750348 0.1155436
0.34183168 -1.8807259 0.062128223 0.26381457 -0.08182529 -0.44049868 -2.2472434 -0.11392561
-0.19210604 -0.010567476 0.40825734 -0.7659722 -1.6970843 1.1654985 0.2987441 0.37541124
-0.6515135 0.29190266 0.47451586 0.061295107 -1.3085266 0.4971044 0.7066894 1.3881897
-0.3057526 2.0560553 0.13050804 0.42385557 0.030899957 -0.28447968 -0.6960226 0.08404619
0.37988198 -0.8026619 -1.2376312 0.37509125 -0.45579246 0.1427124 -0.20766938 0.074220136
0.85245293 0.73528993 0.3057147 0.5568198 0.28956127 0.06550024 0.0206224 1.0306019
0.55609334 1.1008153 -0.08080346 -0.79119813 0.8788183 0.6556523 0.21241413 0.60366714
0.30246606 0.024980504 0.7856379 0.14168896 0.32975578 -0.39985272 0.26396725 0.6407823
0.8919145 -0.75572973 -1.1317164 0.1229445 -1.461375 0.22330655 0.13378416 -0.38568965
0.5617626 -0.2527049 0.33880413 0.555682 0.5248422 0.023835603 0.10124149 0.69112235
0.77638656 -0.21231526 -0.46821666 -0.14644416 -0.24351811 -0.6618231 0.15714908 0.3949118
0.39633945 -0.5348501 0.10274309 -0.24073072 0.503563 0.3387337 -0.13947661 -0.065261565
0.18639332 -0.0736368 0.13934694 -2.2096434 -0.0071132504 -0.13111305 -0.0015496041 0.45768192
0.46415168 0.38780653 1.0479792 0.84561956 -0.18825833 -1.2175716 -0.7691671 0.43625742
0.2931089 -0.043488856 -0.5460379 0.48931727 0.6299922 0.39253312 -0.056972813 -0.23073243
0.0632581 -2.8082283 -0.7181529 0.43758607 0.6983194 -0.67560065 0.023401875 -0.055082407
-0.68854237 -0.46504247 0.3292966 0.003916011 0.19271259 0.6847818 0.37000644 -0.067979686

net.3.bias f4 [128]
00000000: 3e12 40bf 4393 4e3e 3be1 29be cbb4 963f
00000010: c6c1 f93e c70b d53d f529 1040 2abe b13e
00000020: 15f7 153f 1bcc e23e baad 813f 3483 a53f
00000030: 442d b23c 4829 77be ecf4 b53d b8d1 d43e
00000040: 9067 03bb 1d8d 553f 86be b4be fa82 853f
00000050: 1dc8 3f3f b849 3f3f 143e 0a3f 642d 2bbf
00000060: 10bc a13e 2940 813e c363 0d40 5f3a 4d3f
00000070: 301f b7be 4f7a 1940 e38c f4be b879 6c3f
00000080: 1dc9 693f b803 bd3e d593 9c3e 601a ce3e
00000090: 87ec 4e3e fe55 e1be 43ef 5abf 511e 0d40
000000a0: fc50 de3f ff07 903f fc79 1e40 9453 143f
000000b0: 3601 1240 df6f bf3f bcdc 69be 5d06 95bc
000000c0: fecc 0f3f cb19 1040 577c a13f 9576 903f
000000d0: 3858 f73e 9fdd ac3e ae41 e63e 37a9 ba3f
000000e0: ce7d 193e 9f95 7f3f 84cc e53f 92c6 103f
000000f0: 6597 1c40 7097 163e 1ced 363f 7c56 a8be
00000100: c760 473f 367d 233e 88c1 f83e 44ef 1940
00000110: 71ce f83e 67f5 693e 690e bb3e 2aba a43e
00000120: 7b81 873e dacb ca3e 4664 e73e a654 2abe
00000130: bb0d c3bd 2695 c43f 864d 6cbd 4dd5 cf3e
00000140: 661f 523f 6c6f 853f 1e96 873e 2ce4 c53d
00000150: a15e 523f bd1c 503f 50fb b73f 926f 2c3e
00000160: cba9 623f 1e42 9f3e a809 f93f d3fd 333f
00000170: e904 97be f015 e63d 4af8 1240 1193 613e
00000180: af64 e13e 46a8 1340 8a98 19bf 77d7 1040
00000190: 47e0 7d3f 0bb6 e93e 1fd0 613e 3cff cd3d
000001a0: 0370 d63e e972 d2be c957 1740 5cc4 4c3f
000001b0: 2fb6 1840 85b5 6f3e 6d05 83bf ff66 423f
000001c0: 78ca 1940 f0ab f33e c3d8 b63f 4c08 a8bc
000001d0: 55b1 0dbf 67b5 1c3f 0a63 0f3f 630e bd3e
000001e0: d601 b23f 2cb8 933d d56d 1a40 4fbc 033f
000001f0: 0bbc 05be dd7a 123f ead0 363e 23ae bbbe
-0.75027835 0.20173363 -0.16589825 1.1773924 0.4878065 0.10402637 2.2525609 0.34715396
0.5858014 0.44296345 1.0131142 1.2930665 0.0217501 -0.24136841 0.08884606 0.41566253
-0.0020050742 0.83418447 -0.35301608 1.0430596 0.74914724 0.7472186 0.54000974 -0.66866136
0.31588793 0.25244263 2.209214 0.8016719 -0.35765982 2.3980901 -0.47763738 0.9237323
0.913225 0.369169 0.30581537 0.40254498 0.20207416 -0.4401092 -0.85521334 2.2049754
1.7368464 1.125244 2.4761953 0.5794003 2.281324 1.4956015 -0.2283811 -0.01819151
0.5617217 2.2515743 1.261607 1.1286188 0.48309493 0.33762833 0.44971985 1.458289
0.14989397 0.9983768 1.7953038 0.56552994 2.4467404 0.14706206 0.7145555 -0.32878482
0.77882046 0.15965733 0.48585153 2.4052286 0.48595002 0.2284752 0.36534432 0.32173282
0.26465973 0.3960865 0.4519369 -0.16633853 -0.09524103 1.5358016 -0.05769112 0.40592423
0.8207916 1.0424628 0.26481718 0.09662661 0.8217564 0.8129385 1.437357 0.16839436
0.88540334 0.3110513 1.9456072 0.7030918 -0.29495934 0.11234653 2.2964044 0.22028758
0.44022128 2.3071456 -0.5999838 2.263151 0.99170345 0.456467 0.22052048 0.10058448
0.41882333 -0.41103294 2.364733 0.7998712 2.3861196 0.23409088 -1.0236031 0.7593841
2.4029827 0.47592115 1.42849 -0.020511769 -0.5534871 0.612143 0.56010497 0.3692504
1.390681 0.07212862 2.4129536 0.5145921 -0.13060014 0.57218724 0.17853132 -0.36656293

net.4.weight f4 [128]
00000000: 432c 2340 4f5e e93f ff53 a73f a1f8 693f
00000010: 4d4c c13f 7141 983f 35c0 853e 9dc5 0740
00000020: 38d8 853f f596 913f 58c0 4e3f 8337 e53e
00000030: a2ce d23f 488d 653f 0ab3 d43f aa9b 773f
00000040: 1b8d ad3f 8883 373f b9bf cb3f 895e 4e3f
00000050: 98ba 5c3f 42d5 8d3f 8b0a 443f 8d0c 9240
00000060: fda2 f93f d7a0 0740 e53b ab3e 193f 423f
00000070: 49b4 c93f 58f2 5c3e a514 0d40 1e68 9b3f
00000080: ea0c 943f a024 b93f bf8f cc3f 383e a63f
00000090: e286 9f3f 6502 d33f 0431 2040 6ef1 883e
000000a0: e311 8a3e f45d 193f 2856 813e d9de 8e3f
000000b0: 7fda 833e b338 f93e 331c 983f dd7c 0040
000000c0: eaaa 913f 10e0 c93e 723a 423f 2985 903f
000000d0: 6f7f 393f 11c7 f13f 92aa c03f 2cb9 0c3f
000000e0: 5e28 da3f 3aa9 183f 2414 b83e 4fb8 8a3f
000000f0: 61cd 283e 5bf9 bf3f ac80 4c3f e20c 1940
00000100: 3e42 803f 395a c13f f0c0 dc3f 5cfe 873e
00000110: d90f be3f 9417 b83f 025f 923f 6f92 ed3f
00000120: cdcb 9d3f ecde 833f 0b88 c53f 6fde fa3f
00000130: 9573 2840 655b f73e d28e e53f 65cd fd3f
00000140: fa3b 803f f23f 063f 129e d33f 6c20 af3f
00000150: 448b a63f 81e0 c43f 082c cd3e 01bb cc3f
00000160: 1d23 313f f9c9 c43f e343 fa3e c25b 9c3f
00000170: 6b4b 3140 b85c be3f f905 553e 2588 1040
00000180: 0a41 1240 99e2 2b3e 5620 ed3f 162f 9a3e
00000190: 7786 1a3f 9280 cc3f 68c2 0f40 cbe8 cb3f
000001a0: d055 c53f 69e6 b83f bd37 8e3e 40f1 903f
000001b0: d9bf 883e f7c0 c23f ef76 0840 1814 703f
000001c0: 3a62 8b3e ac90 b93f 3f6c a33e d9e9 fd3f
000001d0: 48a5 ba3f 74f9 9f3f 10ba 853f dda3 a13f
000001e0: 1e00 043f 16b3 f03f a6ad ba3d 999a cb3f
000001f0: 82d2 e43f 4a1e 7b3f 36a6 c63f 33a2 1f40
2.5495765 1.8231906 1.3072509 0.91395 1.510141 1.1894971 0.26123205 2.1214364
1.045661 1.1374193 0.80762243 0.44768915 1.6469309 0.89668703 1.6617138 0.967219
1.3558687 0.71685076 1.5917884 0.80613 0.8622222 1.1080706 0.7657859 4.564032
1.9502865 2.119192 0.33444133 0.7587753 1.5758144 0.21576822 2.204385 1.2141149
1.1566441 1.4464302 1.5981368 1.2987738 1.2463038 1.6485106 2.5029917 0.26746696
0.2696677 0.59908986 0.25261045 1.1161758 0.25752637 0.4867607 1.1883606 2.007621
1.1380284 0.3942876 0.7587043 1.1290637 0.72460073 1.8888875 1.5052054 0.5497005
1.7043569 0.5963322 0.35952866 1.0837497 0.16484596 1.4997972 0.7988384 2.3914113
1.0020216 1.5105659 1.724638 0.26561248 1.4848586 1.4382195 1.1435244 1.8560313
1.232782 1.0302405 1.5432142 1.9599131 2.6320546 0.48311916 1.793421 1.9828306
1.0018303 0.5244132 1.6532614 1.3681769 1.301125 1.5381013 0.40072656 1.5994569
0.69194204 1.5374137 0.48879918 1.2215502 2.7702281 1.4872046 0.2080306 2.2583096
2.2852197 0.16785659 1.8525493 0.3011405 0.6036143 1.5976737 2.2462406 1.5930418
1.5416813 1.4445316 0.277769 1.1323624 0.26708868 1.5215138 2.1322591 0.9378066
0.27223378 1.4497275 0.31918523 1.983699 1.458169 1.2498002 1.0447407 1.2628132
0.5156268 1.8804653 0.09115152 1.5906554 1.7876742 0.9809309 1.5519474 2.4942749

net.4.bias f4 [128]
00000000: 0f00 88be 631d b0bd b58e 58bf aa55 2bbf
00000010: f931 23bf 42d1 04bf 49dd 14bf 68c2 85be
00000020: ea7a 1bbf 12ea 4dbf a2be e6be 7a03 84bf
00000030: 3c86 8bbe b687 c3be 2b43 4ebe 59b8 82bf
00000040: 1c51 cdbe cfcc f1be 88b1 0dbf ee4a 0ebf
00000050: 703d e7be c877 9fbe 2880 c0b9 2712 8abc
00000060: aba7 11bf 0397 d3be 67fe 7dbf de9c 03bf
00000070: 2773 60be feaa 2cbf b0f6 3c3d 35bd 49bf
00000080: 8891 31bf 12b3 7abe c65c 46bf 3dae 36bf
00000090: 2ba2 6cbf 89c1 5abe 36f1 b9be 0865 2fbf
000000a0: 273a 3cbf 32fd 0bbf cc6d 27bf 2a2d 4abe
000000b0: 1c58 24bf 7f51 55bf 6757 d0be 79be edbe
000000c0: d2c9 1cbf 8a28 6bbf faef 80bf cd7d 86bd
000000d0: 7db9 59be d25d f0be f137 f7be 4cb3 47bf
000000e0: 4b79 b1be abe5 57bf 1ef4 55bf 46d1 94be
000000f0: aca3 43bf d072 9fbe 5536 9cbe 3a67 40be
00000100: bddc b0be 42f8 4d3d cdd4 2cbf a07c 4dbf
00000110: a812 9cbe 8bf6 24bf 2a82 3ebf 6e02 02bf
00000120: 301f 52bf 5b4a 57bf 2192 e8be c17c c6be
00000130: aa11 01bf 6904 50bf 5723 46bf 9f01 2dbf
00000140: f742 43bf 2c64 8fbf 1c32 dcbe 01c1 03bf
00000150: d4ff 33bf ba82 f63c 4f20 25bf 6a5f 39bf
00000160: 9925 d5be e0c3 84be 1442 92bf f854 7fbf
00000170: 3da1 38bd c91c 2abf fdee 58bf 5530 b1be
00000180: d8cb 0bbf 7dea 44bf 4c5f 27bf 79ab 2ebf
00000190: f3e5 2dbf b622 dbbd 5a4b 4fbe 031d a4be
000001a0: 2d11 57be 5ec3 26bf 9960 31bf 536a c5be
000001b0: 0fd1 36bf 0256 85be 389f e2be 88c2 2dbf
000001c0: cf3e 49bf 796c 17bf ad3a 25bf b785 3bbe
000001d0: 337f 5bbf 31e4 fcbe bd92 c5be bd41 5ebf
000001e0: 9d9d 81bf 8715 56bf 1f2a 21bf 6f02 28bf
000001f0: fd8f 5bbf 43c9 43bf def2 fbbe 3c81 1e3e
-0.26562545 -0.08599355 -0.84592754 -0.6692759 -0.6374813 -0.518818 -0.58150154 -0.26124883
-0.60734427 -0.8043529 -0.45067316 -1.0313561 -0.2725085 -0.38189477 -0.2014281 -1.0212508
-0.40100944 -0.4722657 -0.55349016 -0.55583084 -0.4516406 -0.31146073 -0.00036716578 -0.016854359
-0.56896466 -0.4132615 -0.9921631 -0.51411235 -0.21918927 -0.67448413 0.046133697 -0.7880433
-0.6936269 -0.24482372 -0.7748531 -0.71359617 -0.9243495 -0.2136289 -0.36316842 -0.68513536
-0.73526233 -0.5468322 -0.6540191 -0.19743791 -0.64196944 -0.8332748 -0.40691683 -0.46434382
-0.61245453 -0.9185873 -1.0073235 -0.06566963 -0.21262164 -0.4694658 -0.48284867 -0.7800796
-0.34662852 -0.8433482 -0.8357562 -0.29065913 -0.7642162 -0.31142282 -0.30510202 -0.18789378
-0.3454341 0.050285585 -0.6751221 -0.8026829 -0.30482984 -0.64438695 -0.74417365 -0.5078496
-0.8207884 -0.8409783 -0.45423988 -0.38767055 -0.5041758 -0.8125673 -0.77397674 -0.675806
-0.76274055 -1.1202445 -0.4300698 -0.51466376 -0.7031224 0.030091632 -0.64502424 -0.72411215
-0.41630247 -0.2593069 -1.1426415 -0.9973903 -0.045075644 -0.6645017 -0.8473967 -0.34607187
-0.54607916 -0.769203 -0.65379786 -0.68230397 -0.67929 -0.1069998 -0.20243588 -0.32053384
-0.21002646 -0.65141857 -0.6928802 -0.3855768 -0.7141275 -0.2604218 -0.442621 -0.67874956
-0.78611463 -0.5914989 -0.6454266 -0.18312727 -0.85740966 -0.49392846 -0.38588515 -0.8681906
-1.0126225 -0.836266 -0.62954897 -0.65628713 -0.85766584 -0.76478976 -0.4920873 0.15478987

net.6.weight f4 [128, 128]
00000000: 3708 1f3f fbc4 42be 1bb1 323f 85d2 dfbc
00000010: f4aa 813f d1c6 2bbf 510c ae3d cae7 213e
00000020: 45da 303f faef c03e d827 123f 08d1 e93d
00000030: 4937 abbe d9b1 d53e fe59 a8be 517b 233f
00000040: aff9 b1bd 5acc ab3e f2a0 183e 725b 203f
00000050: 811d fd3d 7302 eb3e 5f57 093f 0b9e 333e
00000060: 31b0 1fbf ffc2 57be 84ab bdbe 74a5 273e
00000070: bbaf f93e 9d6d 203d ac10 a03c 16c6 213f
00000080: e1f7 1ebe 684f e83e 3264 783f 8a18 683e
00000090: f729 b73e 4c8a f03d ff37 1bbf fddc a63d
000000a0: 20f2 7b3e 7160 073e 418e 31bd 2b73 4e3d
000000b0: 3cbc 77be c341 7fbd 048c 2e3e 1b26 d23e
000000c0: d35e bc3e 57dd 81bd cd81 25bf 2400 ab3e
000000d0: f7ef ab3e a6fd 51be 5b18 c33d ba4a c13e
000000e0: 5449 e8be e647 1cbe 8556 043e d682 033f
000000f0: dc50 cbbe a401 193e d420 563e ce6e 713d
00000100: 0db6 5f3e af4c 1bbf 30c0 593f 02c7 82be
00000110: 15c8 35be c110 373f eb11 7f3e 910c cd3e
00000120: 2b7d b63d 1f32 d6bc 0e16 b5bc 4f52 94be
00000130: e10c 893e 0fac 823c 9fe4 2e3f 26c2 d73d
00000140: 2dba bbbe dd62 c9bd be0a 273e 1a17 6d3f
00000150: ebee 0d3f 631f db3e e9b0 203e ed8d de3c
00000160: 05f7 d33e 56f1 093e 4a99 603d 3ba3 f63d
00000170: 2094 62be 5dd3 053f d25f 873d ba3a ba3b
00000180: 46bd 313f 4604 c83c cff9 33be 0d74 ad3e
00000190: 92bc afbd 9f67 053f 7417 7dbc fb0e 0fbf
000001a0: 6904 cd3e 6333 21be 6bbc ca3d ddfe 2d3f
000001b0: 174b 9ebe 2140 a23d 3552 163f 7036 193f
000001c0: 68f2 fabd e28e dabe d114 7e3e b442 b4bd
000001d0: 256b ed3e 056f ce3c 6a21 f5be 52cc af3f
000001e0: 27dd bcbb 051d 293e be1b 013d 920b cd3e
000001f0: 18ec f23c e3d3 2ebd 9fcc 203f 7629 203e
00000200: 1af2 fb3f 9448 5ebf ef03 283f af03 963f
00000210: a026 c13f 0483 a03f 91d2 603c 73ab 8c3f
00000220: bbe2 9dbe 7fbe 0a3f 57dd 0cbf fe04 9a3f
00000230: 1ded b83e ff85 c23e 9073 953f d861 fabd
00000240: 0e3e 95bf e0b9 2dbe 5e3e a93f b128 c93e
00000250: 5a24 2bbe 7e0b 1e3f 9dd7 883f 3268 3dbf
00000260: 9333 393f c63a 983f e682 253f dd10 a3be
00000270: d70d 0a3f f194 d6bd 5428 e93f 940e af3f
00000280: 3e29 a63d b84f ecbf d806 bc3e f464 afbe
00000290: abb2 2e3f 062b ae3d 8072 893f 00d3 7ebd
000002a0: 48bc 3cbf 38b6 1d3e 4e55 8b3e d1a4 10c0
000002b0: bb0e 253e e97b 17be 7269 9f3e a4ec ab3e
000002c0: 0471 14bf 027f a7bd 0992 683e 115c d6bd
000002d0: 6d5d e6be bf1b 213f 2fbb 9e3f c988 f5bd
000002e0: 7206 b43f 35fd 12bf 7b19 4bbf b427 613f
000002f0: 8d55 1fbd 90a6 a53f aa41 153f 02b9 0c40
00000300: d2c7 a6bf 8f99 133e 4d40 373f 0415 863e
00000310: 75d7 a03e c20b 3b3f 86f9 24bf 0cdd 76be
00000320: b642 573f 9329 c1bd 0e48 d3be 3d93 f13d
00000330: 7a79 0340 fbf1 273f ab39 ef3f 98b7 98be
00000340: f5f3 3c3f eef6 2bbe 62d8 ccbe ba9a 663e
00000350: 9846 073f 5e86 963f 757a dbbf 369b b63f
00000360: 64b1 853e 2d0b 043e 1b9b 163e 1748 0e3f
00000370: 8696 9f3f 3de3 d93f f295 d63c 9b82 32be
00000380: 4c55 243f 6ce4 053c 6b8e 0440 a01b 0d3e
00000390: fedd 96be b44e a2bf 121d a43f ed4e eb3f
000003a0: 73c1 2dc0 254a 803f b541 29be 5bb2 e23f
000003b0: b488 693e b64f c7be a97e c23f b69f 783f
000003c0: 5975 883d a2df c83e d63d 3bbf cd7a ff3e
000003d0: 8c23 bd3f 546a 0dc0 2fb3 2e40 2586 ff3e
000003e0: e22f ec3e e30d 793f 7011 673c 61b1 183f
000003f0: 4f1c a6bf 11d3 ad3f df51 543f 7c4b aabd
0.6212191 -0.19020455 0.6980149 -0.027322063 1.0130296 -0.67100245 0.08498443 0.15811077
0.6908305 0.37683088 0.57092047 0.11416823 -0.33440617 0.4173725 -0.3288116 0.6386004
-0.086902015 0.33554345 0.14905146 0.62639534 0.12359143 0.45900306 0.5364894 0.17540757
-0.6237822 -0.21070479 -0.3704492 0.16371709 0.48766884 0.039167035 0.0195392 0.6319288
-0.15524246 0.45373082 0.97027886 0.22665611 0.35774204 0.11745128 -0.6063232 0.08147619
0.24604082 0.13220383 -0.043348555 0.0504028 -0.241929 -0.062318575 0.17045599 0.41044697
0.36791095 -0.06341045 -0.64651185 0.33398545 0.33581516 -0.20506915 0.0952613 0.37752324
-0.45368445 -0.15261802 0.1292363 0.51371515 -0.39710128 0.14942032 0.2091096 0.058943562
0.2184679 -0.60663885 0.8505888 -0.25542456 -0.17752106 0.7150994 0.24909179 0.4004865
0.08910593 -0.026146946 -0.022105243 -0.28969046 0.26767638 0.015951185 0.683176 0.10535078
-0.36665478 -0.0983331 0.16312692 0.92613375 0.55442685 0.42797384 0.15692486 0.027167285
0.41399398 0.13470969 0.054833688 0.120428525 -0.22126818 0.5227564 0.06610073 0.0056832703
0.69429433 0.0244161 -0.17575763 0.33877602 -0.08580889 0.5211124 -0.015447486 -0.55882233
0.40042427 -0.15742259 0.09899219 0.67967016 -0.30916664 0.07922388 0.5871919 0.5984869
-0.122532666 -0.42687136 0.24812628 -0.08801785 0.46370807 0.025199423 -0.47877055 1.3734229
-0.005763668 0.16514976 0.031520598 0.4004789 0.029653594 -0.04268254 0.62812227 0.15640816
1.9683259 -0.86829495 0.65631 1.1719874 1.5089912 1.2539983 0.013722078 1.0989822
-0.30837044 0.54196924 -0.5502524 1.2032773 0.36118403 0.37992856 1.1675892 -0.122256935
-1.1659563 -0.16965437 1.3222158 0.39288858 -0.16713086 0.61736286 1.06908 -0.73987114
0.7234432 1.1892936 0.6465286 -0.31848803 0.5392737 -0.10477627 1.8215432 1.3676324
0.08113335 -1.8461828 0.3672397 -0.3425671 0.68241376 0.085043 1.0738068 -0.062212944
-0.73724794 0.15401542 0.2721352 -2.2600596 0.161189 -0.14793362 0.31135136 0.3357898
-0.5798495 -0.08178522 0.22711958 -0.10466779 -0.44993153 0.6293296 1.2400874 -0.1198898
1.4064467 -0.57417613 -0.79335755 0.8795121 -0.038899947 1.2941456 0.5830332 2.198792
-1.302973 0.14414047 0.7158249 0.2618791 0.3141438 0.73064816 -0.6444324 -0.2410776
0.8408617 -0.09431758 -0.4126591 0.117956616 2.0542893 0.6560361 1.8689474 -0.2982757
0.7380975 -0.16793415 -0.40008837 0.22519961 0.5284209 1.1759756 -1.7146746 1.4266117
0.261119 0.12894888 0.14707606 0.5557875 1.2467811 1.7022473 0.026194546 -0.17432635
0.6419265 0.008172136 2.0711925 0.1378007 -0.29466242 -1.2680268 1.2821372 1.8383461
-2.7149322 1.0022627 -0.16528971 1.771068 0.22806054 -0.38928002 1.5194904 0.971187
0.06663007 0.39233118 -0.7314123 0.49898377 1.4776473 -2.2096148 2.7296865 0.49907032
0.46130282 0.97286814 0.0141032785 0.5964566 -1.2977389 1.3580037 0.82937425 -0.08315179

net.6.bias f4 [128]
00000000: e8e7 1e3f d0e2 6bbe 38f5 673e c09f 293f
00000010: 8ef8 973f 5d46 103f 1023 b4bd bf69 1a3f
00000020: f8b3 e6be c63c 1ebf 13b6 943f 663f b63f
00000030: 4ae7 163f 2c0b 823f 9bf3 b43e ca9d b33e
00000040: 2e8c 323f 6bb1 103f 8d97 c43d 312b 1d3f
00000050: d18d 373f 7eff 723f d31d aa3e 1622 683f
00000060: a5f9 2d3f 3920 75bc e992 113f 27e3 2f3f
00000070: e4cc 1abf 9a7c f7bd b6ec 4a3f 4c57 7abe
00000080: 0842 3dbf 68e9 0f3f a91d 813f 5844 243f
00000090: d9cf 8a3f 24fd 2f3f 9d6b 243f 670a 503f
000000a0: 0d5d 5a3f de18 4fbd e09c 283f d38d 3d3f
000000b0: 6328 8f3f 67e3 2f3f 383f a73f e280 953f
000000c0: 8f4c 3e3f 48bf 403f 3f5c 083f e08f 903e
000000d0: a48b 673f 11b2 093f ea11 1abe 5f3b dc3d
000000e0: fd80 8abe e849 203f 3c6d a5be 2290 313f
000000f0: b8c9 36be b835 8ebc 4914 8e3f e269 3f3f
00000100: 46aa 073f becf b2be 31bc 253f 492d 283f
00000110: 6976 6f3f 0819 433f 7a63 7b3e 2d13 803e
00000120: b6e1 183f 6109 9f3e 7fdb 073f 32d4 0e3f
00000130: aead a5bd c913 abbe a849 f03c 9c40 c4bd
00000140: bdb3 69bb 15f6 973f 2452 bcbe e67c 2abf
00000150: 7af3 753f 9105 76bf 6912 1d3f 3b87 163f
00000160: 3f78 573f 7057 b63e c8e8 a9bd 6bb4 d63e
00000170: 2bd6 023f 5fcf d1be e662 b1be 2238 b93d
00000180: 7ff6 96bd 2e36 f53d 897c 7f3f 6384 82be
00000190: 0ba5 923d edd8 2a3f 6dc6 0abf 1c99 de3e
000001a0: 9c34 813f 4afc 903f 3966 ef3e 6571 2c3f
000001b0: bdf0 15be 2ffe 9b3f 1d6a 3a3e f8e2 2dbf
000001c0: f81b 45be 1d18 8ebf 231c 463f 715a 9f3e
000001d0: 6dff 2e3f 526a 7e3f ed51 fabd 9f1e 4a3f
000001e0: 9f91 883f ee8e 9e3f ff50 013f a111 88bd
000001f0: eb22 963f 04ea bdbe 038b 563f ee3b 7e3f
0.6207261 -0.23035741 0.22652137 0.66259384 1.1872728 0.56357366 -0.0879575 0.60317606
-0.4505918 -0.6181148 1.1618065 1.4238098 0.5894667 1.0159659 0.35342106 0.3508132
0.6974515 0.5652072 0.095992185 0.6139403 0.7170077 0.949211 0.3322588 0.9067701
0.6795905 -0.014961296 0.5686479 0.6870598 -0.6046889 -0.12084313 0.7926744 -0.24447364
-0.7392888 0.56215525 1.0087177 0.64166784 1.084468 0.68745637 0.64226705 0.8126587
0.85298234 -0.050560825 0.6586437 0.7404453 1.11842 0.68706363 1.3066168 1.1679957
0.7433557 0.7529187 0.53265756 0.28234768 0.9044745 0.5378733 -0.15045896 0.10753512
-0.27051535 0.6261277 -0.32309902 0.69360554 -0.17850387 -0.0173596 1.109994 0.7477094
0.5299419 -0.3492412 0.6474028 0.656941 0.93540055 0.7621007 0.24549666 0.2501463
0.5971941 0.31061843 0.530693 0.55792534 -0.080897674 -0.33413532 0.029331997 -0.09582636
-0.003566011 1.1871973 -0.36781418 -0.6659683 0.9607464 -0.96102244 0.61356217 0.58800095
0.84167856 0.35613585 -0.082963526 0.41934523 0.51108044 -0.40978524 -0.34645766 0.090439096
-0.07371234 0.119732246 0.997994 -0.25491628 0.07160386 0.6673725 -0.54209024 0.43476188
1.009418 1.1326993 0.46757677 0.67360526 -0.14642616 1.2186946 0.18204542 -0.6792445
-0.1924895 -1.1101109 0.77386683 0.3112369 0.683585 0.9938098 -0.12222657 0.78952974
1.066944 1.2387369 0.50514215 -0.066439874 1.1729406 -0.37092602 0.83805865 0.99310195

net.7.weight f4 [128]
00000000: 53bb d03e 3ea9 7a3e a254 423f 7761 9e3e
00000010: 2938 623e a59f fa3e a1ae 013f 456c e53e
00000020: ff68 573e c90f d23e d6ae 933e 6873 183e
00000030: 7464 da3e 7dc4 9d3e b221 d23e e6d3 093f
00000040: 9002 c13e 1f20 fa3e ef68 1e3f 9a77 d33e
00000050: 4676 db3e 25b7 483e 8851 bf3e 7ea4 be3e
00000060: 8f10 973e 9a67 aa3e d041 d73e 0233 993e
00000070: 6222 f93d c930 793f 8d87 bf3e 75c5 b73e
00000080: a4fd 0a3f 30df 6f3e 6136 1d3e 5eac 9f3e
00000090: 7556 673e 6e00 a13e ddce b63e 3d9e d33e
000000a0: 2c75 973e 8833 2e3f bf93 c33e 25d9 ff3e
000000b0: c61a 4a3e 85e1 c93e 0ba6 433e d6b7 7e3e
000000c0: 34fb d53e 3def cf3e 9934 cf3e ce15 563f
000000d0: 9e8a bc3e 8637 cc3e 822e 663f 6036 a83e
000000e0: 5a85 c13e 6f59 d53e eba5 273f 0808 873e
000000f0: 22fa a43e 6d10 4b3f a63e a63e 2865 cb3e
00000100: 05e3 083f fa23 5d3f 66a0 073f 8d67 d33e
00000110: 79b2 a23e e809 df3e 82e3 513e 6bbc 183f
00000120: edcd e03e ed9d a43e 7d4a aa3e 143f 973e
00000130: 6684 553f bc7f 2c3e d51c 8c3e 86ff 903e
00000140: d209 153f acb1 6d3e 3451 413e 7085 903f
00000150: fa34 583e 6d5f 8a3f 9581 a83e b613 c23e
00000160: f3dc 973e 31b5 543f 8e4c 873f ac00 ca3e
00000170: 339c e23e e984 1e3e 79a5 023f 1f8c b23e
00000180: b3e9 063f cc5b 353f 79b9 be3d 02e5 4b3f
00000190: 98b9 9b3e 82f0 7b3e 7c46 6c3f d047 b83e
000001a0: 25bb bd3d e411 853e 2e58 ba3e 4239 af3e
000001b0: a0fa 7e3f 17e2 263e ba51 7c3e a68f af3f
000001c0: 564f 6b3f 32fd 5b3f 8a5e a33e 4145 3a3f
000001d0: b3cb 7c3e 3dc5 a63e 3144 683f 76ab 853e
000001e0: ed73 a83e bc27 dd3d 7b6d f73e ecdd 393e
000001f0: fe20 893e 87de ee3e c46a 733e 605c b03e
0.40767917 0.24478623 0.7591039 0.30933735 0.22091736 0.48949924 0.5065709 0.44809166
0.21036147 0.41027668 0.28844327 0.14887774 0.42654765 0.3081397 0.41041332 0.53838956
0.37697268 0.4885263 0.61878866 0.41302186 0.42863673 0.19601114 0.3736689 0.37234873
0.2950482 0.33282167 0.42042398 0.29921728 0.12164761 0.97340065 0.37408105 0.35892835
0.54293275 0.23424983 0.15352775 0.31186193 0.22591574 0.3144564 0.357047 0.41331664
0.29581583 0.6804738 0.3819866 0.49970356 0.19736776 0.3942987 0.19106309 0.24874815
0.41793215 0.40612212 0.40469816 0.8362702 0.36824507 0.3988611 0.89914715 0.32853985
0.37797052 0.41669795 0.65487546 0.26373315 0.32222086 0.7932194 0.32469672 0.39725614
0.53471404 0.8638302 0.52979124 0.4128994 0.3177679 0.43562245 0.20496944 0.59662503
0.4390711 0.32151738 0.33259955 0.29540312 0.8340515 0.16845602 0.27365747 0.2831995
0.5821811 0.23212308 0.18878633 1.1290722 0.21113959 1.0810372 0.32911363 0.37905663
0.29660758 0.83088976 1.0570238 0.39453638 0.44259796 0.15480389 0.5103374 0.3487253
0.52700347 0.70843196 0.0931272 0.79646313 0.30415034 0.24603465 0.9229505 0.3599229
0.092642106 0.25990212 0.363954 0.34223372 0.99601173 0.16297184 0.24640551 1.3715713
0.9191793 0.8593322 0.31908065 0.72761923 0.2468708 0.32572356 0.9072905 0.26107377
0.32900944 0.10798594 0.48325714 0.18151063 0.26782984 0.4665415 0.23771197 0.34445477

net.7.bias f4 [128]
00000000: 8758 eebe 40b2 5cbf 8cc6 28bf cf2e 11bf
00000010: 4205 22bf 64c9 d4be 6df0 27bf aad4 16bf
00000020: b053 43bf c3aa 5bbf c763 1dbf 92c6 4ebf
00000030: 9870 0fbf c220 2dbf b364 55bf 3d4c f0be
00000040: 261d 12bf 3105 16bf 7efd c53d 61de 17bf
00000050: 195c f0be a5c7 29bf 0663 16bf 24d6 1fbf
00000060: cae1 1bbf 3a6d 20bf eafe 0fbf 26f3 0cbf
00000070: 03a9 2fbf c142 95be 6dd7 13bf 4fd9 20bf
00000080: 6ea5 3c3e 5b74 26bf 86bc 1bbf eac1 28bf
00000090: 6440 27bf 70cf e4be cab9 19bf 92d0 e6be
000000a0: d861 18bf 85c5 203e 1b21 04bf 96d0 13bf
000000b0: 6d8c 28bf 7113 0ebf 9f41 38bf 2a0f 2dbf
000000c0: 1868 04bf 2cc4 1ebf 5727 4ebf f00f aabd
000000d0: fcde 09bf 1ce6 0dbf 87fd 5dbe 6011 08bf
000000e0: d3f0 7ebe d055 32bf 3b1c 2dbf d49a 46bf
000000f0: 9f5c 43bf cef5 f7be 707a 0ebf b278 18bf
00000100: db2f 763e 23e6 9dbe 10a9 0abf fbbd 0ebf
00000110: 01f2 23bf 5a3c 0abf 8cab 21bf da2c 773d
00000120: dadd 1dbf 9bc3 21bf 39d3 30bf db61 3ebf
00000130: 69b4 a2be 82b8 1cbf 5a13 34bf e127 28bf
00000140: 1207 98be 2eae 30bf 6e1d f9be 3482 c8be
00000150: 5600 3ebf 9fa6 f3be f101 0cbf 87f5 12bf
00000160: d452 0fbf 8dba 49be 6b3f aebe 6457 2cbf
00000170: 7cbd 1dbf a83c 1bbf b37a 20bf 1ebb 4dbf
00000180: 41b3 003e 064f bebe 0b8b bfbe 8691 0abe
00000190: 6298 36bf 4fd4 3cbf 82f9 a9be 7f33 19bf
000001a0: acb0 a5be ea23 25bf 8ee6 10bf cbef 13bf
000001b0: 646c 10bf fba6 e5be 70f2 1dbf c309 17be
000001c0: e0c4 00bf b7bf ebbe a387 28bf 58ff 80bf
000001d0: 3b09 26bf 61cf 1fbf 0d57 b9be f9a8 d1be
000001e0: c224 1dbf eb0f 36bf 8a4b 2dbf 9b86 9abd
000001f0: 671c 26bf 9364 0fbf 4317 35bf c72f 05bf
-0.46551916 -0.8620949 -0.6592796 -0.5671205 -0.6328927 -0.415599 -0.65601236 -0.5891825
-0.7629957 -0.85807437 -0.61480373 -0.80771744 -0.5603118 -0.6762811 -0.8335678 -0.46933165
-0.57075727 -0.5860167 0.096674904 -0.593237 -0.46945265 -0.6632026 -0.5874485 -0.6243613
-0.608914 -0.62666667 -0.56248343 -0.55058515 -0.68617266 -0.29152492 -0.5775059 -0.62831587
0.18422481 -0.65021294 -0.6083454 -0.6592089 -0.6533263 -0.44689512 -0.60049117 -0.45081002
-0.595243 0.15700348 -0.51613015 -0.5774015 -0.6583927 -0.55498415 -0.7197513 -0.67601264
-0.51721334 -0.62018085 -0.8052878 -0.08303821 -0.5385587 -0.55429244 -0.21678744 -0.5315151
-0.24896555 -0.6966219 -0.676212 -0.7758 -0.76313204 -0.48429722 -0.55655575 -0.59559166
0.24041693 -0.30839643 -0.5416422 -0.5575864 -0.64041144 -0.5399834 -0.63152385 0.06034551
-0.61666644 -0.63189095 -0.690723 -0.74368066 -0.31778267 -0.61219037 -0.7034203 -0.6568585
-0.29692894 -0.6901578 -0.48655266 -0.39161837 -0.7421926 -0.4758806 -0.5469046 -0.57405895
-0.5598576 -0.1970007 -0.3403276 -0.6732085 -0.61617255 -0.6063943 -0.62687224 -0.80363643
0.1256838 -0.37169665 -0.3741077 -0.13532075 -0.7132627 -0.7376146 -0.33198172 -0.598442
-0.32361352 -0.64507926 -0.566018 -0.5778777 -0.5641539 -0.44853958 -0.61698055 -0.14749818
-0.5030041 -0.46044704 -0.65831965 -1.0077925 -0.64857835 -0.6242581 -0.36199227 -0.40949228
-0.6138421 -0.7111804 -0.6769339 -0.07545205 -0.6488709 -0.5601284 -0.7073862 -0.5202603

value_fc.0.weight f4 [1, 128]
00000000: 4130 3d3d bca2 553d 7c4d 5e3e 7b4d c13d
00000010: 978d 2f3d 5417 0dbe a141 523c ae65 403d
00000020: d40c c13d f398 283d ed10 bd39 b00e a03c
00000030: 08b2 f9bc 3e19 e2bc 422c c83c 81ae 60bd
00000040: c134 47bc 1b9b 58bd 5f9c 78be e386 81bc
00000050: 7547 00bd eb0f 183d ac58 473d c093 533d
00000060: 67fa 71bd 50d6 193c 940f dcbb 81f7 4b3d
00000070: d08c 733d 128a 7abe 6f53 993b 536b 46bd
00000080: 6a65 803e 3051 1dbd eacf d6ba 1cbe 703b
00000090: c0df 74bd 82b9 89bc 16aa 9ebc bf8c 2abd
000000a0: f3c6 3a3c 4d7f 9fbe 3467 753d 691a abbb
000000b0: 3cd0 53ba 8fed c23c 96aa 753b 907b c23c
000000c0: a9c2 71bd 62fc 76bd 54b8 e53d ced8 443e
000000d0: 40e5 a0bd 5e25 09bc 0bcb 5a3e 2f63 e0bb
000000e0: 56e7 e0bd 5caf 8ebd f0cd f83e f3ba 33bb
000000f0: d322 a83c 60ca 91bd f558 463b 70f4 b1bc
00000100: 9650 a63e 2fad 8ebe 182a 5bba 6a3a d5bd
00000110: 9c9f 283d e708 82bd 913f c0bd 1323 49be
00000120: f906 d83c 5255 a5bc 3040 2fbd a8e6 94bc
00000130: d679 8c3d c969 3ebd 18cc 07bd 2875 2b3d
00000140: b08e 753d 96f8 c3bc 945c 2f3d ef95 37be
00000150: 524b 92bd 911d 7bbe 574e 53bd 5668 4a3c
00000160: e9ae 3fbd ab2b bfbd 93bf 9a3e ee1f c03c
00000170: df31 02bd 4d17 603d cb3d f33d d738 c2bc
00000180: 0aaf 663e 39d1 39be 2fbf 21bd f093 7cbe
00000190: 840a 7abc 2a0d d1bc 6e1b 353e 36cb 5b3d
000001a0: c78f e73c d3c4 25b9 bcc7 0abd 0de4 20bc
000001b0: 1996 90be ad26 65bc 80eb 1a3d 2a26 3e3e
000001c0: db93 72be 3468 5d3e 1c03 863d 1f92 eabe
000001d0: 760d 943c a2a6 243c 74a9 6c3e ff6a 0bbd
000001e0: 51fe 653b 9d75 123d 210b 1dbd 7c20 ebbc
000001f0: 6bea b63c 30de edbc 6c26 d0bc d059 d03b
0.046188597 0.05215715 0.21709245 0.09438606 0.04285964 -0.1377843 0.01283303 0.04697197
0.09426275 0.04116149 0.000360615 0.019538254 -0.0304804 -0.027599927 0.024435166 -0.05485392
-0.012158574 -0.052882295 -0.24278401 -0.01581139 -0.031318147 0.037124556 0.04866855 0.051654577
-0.059076693 0.009389475 -0.0067157242 0.049796585 0.05946046 -0.24466732 0.0046791355 -0.048442196
0.25077373 -0.038407505 -0.0016388868 0.0036734408 -0.059783697 -0.01681209 -0.019368213 -0.041638132
0.011399972 -0.3115181 0.059912875 -0.005221654 -0.00080800406 0.023794917 0.003748571 0.02374056
-0.059023533 -0.060299285 0.112167984 0.1922333 -0.07856226 -0.008370725 0.21366517 -0.006847761
-0.10981624 -0.06967041 0.48594618 -0.0027424663 0.020524418 -0.07118678 0.0030265425 -0.021723002
0.32483357 -0.27866504 -0.00083604595 -0.10411532 0.04116784 -0.06349354 -0.09387124 -0.19642286
0.026370512 -0.020182285 -0.042785823 -0.018176392 0.06859176 -0.046487603 -0.033153623 0.041859776
0.05995053 -0.023922246 0.0428129 -0.17928289 -0.071432725 -0.24522997 -0.051588383 0.012353977
-0.046797667 -0.09334501 0.30224285 0.023452725 -0.031785842 0.05470972 0.118770204 -0.023708744
0.2252771 -0.18146218 -0.039488968 -0.24665809 -0.015261296 -0.025518972 0.17686245 0.053660594
0.0282668 -0.00015808949 -0.033881888 -0.009819997 -0.28239515 -0.013986272 0.037822247 0.18569246
-0.23689215 0.21621782 0.06543562 -0.45814607 0.018072825 0.010049494 0.23111516 -0.034037586
0.0035094211 0.035756696 -0.03834069 -0.028702013 0.022328576 -0.029036611 -0.025408946 0.0063583627
